model.tflite (tflite, 523504 bytes, 10 tensors)

sequential/conv2d/Relu;sequential/conv2d/BiasAdd;sequential/conv2d/Conv2D;sequential/conv2d/BiasAdd/ReadVariableOp f4 [16, 3, 3, 3]
000000 03 e2 08 ba 45 62 dc 38 f0 69 7b 3a ac 2a 78 b9
       -0.00052216667 0.000105087216 0.0009590676 -0.0002366702
000010 f7 f7 6a 36 5f 1b 22 3a bc fb 8d b9 ad a8 1d ba
       3.5013052e-06 0.0006183888 -0.00027081172 -0.00060142094
000020 f5 46 30 3a 2b 5d 96 b7 e7 2a 36 39 9a 96 b6 b8
       0.00067244406 -1.7924778e-05 0.00017372855 -8.706488e-05
000030 2c e4 af b9 08 c2 d7 39 32 30 16 b9 21 d9 f8 39
       -0.00033548602 0.0004115256 -0.00014323069 0.0004746402
000040 c1 e2 f6 b8 0c a1 82 39 24 4c 4e b8 06 0e 7e b9
       -0.0001177243 0.00024915521 -4.918514e-05 -0.00024228552
000050 24 94 9c b9 0c b3 06 ba f8 e0 ad 38 cd 6c 16 3a
       -0.00029865012 -0.00051383744 8.2911865e-05 0.00057382585
000060 38 68 03 ba e0 69 7f 38 71 7f 28 38 ab 81 8c b6
       -0.0005012783 6.089534e-05 4.017301e-05 -4.1874205e-06
000070 2e 6b d5 b8 4d 08 d9 b9 c7 40 4e b9 48 be 5f b9
       -0.00010176595 -0.0004139565 -0.00019669822 -0.00021337823
000080 89 62 30 ba 14 7c d9 b9 4c ba 07 38 77 6b 16 39
       -0.000672855 -0.0004148191 3.236001e-05 0.00014345149
000090 99 03 37 3a 8b 86 01 ba 1d c6 85 b8 fa ba 3c 39
       0.0006981432 -0.0004941008 -6.378836e-05 0.00017998731
0000a0 69 13 cc b9 c2 c1 09 b9 6a cd 51 3a b7 5b f9 b9
       -0.00038924374 -0.00013137519 0.00080033264 -0.00047561314
0000b0 72 6c 88 b8 f6 91 96 39 59 41 15 ba 29 46 24 3a
       -6.505185e-05 0.0002871898 -0.00056936365 0.0006266558
0000c0 19 f6 42 39 11 92 e0 39 89 26 49 3a 42 ff 40 39
       0.0001859296 0.00042833437 0.00076732837 0.00018405638
0000d0 b7 33 e5 b8 11 e8 02 39 5a 21 22 3a dc e1 72 3a
       -0.000109292036 0.00012484218 0.00061847793 0.0009265223
0000e0 3d 8a 41 b9 13 a8 88 b9 e8 cb d6 b9 46 00 14 ba
       -0.00018457412 -0.00026065166 -0.00040969183 -0.00056457927
0000f0 ff 9a 85 3a a4 55 27 3a a6 d3 ec b7 d1 ff 9e b9
       0.0010193287 0.0006383306 -2.8231949e-05 -0.00030326706
000100 cd 50 58 3a 41 ce 9a b8 33 e5 a7 b7 d7 7e 89 b9
       0.00082517863 -7.38171e-05 -2.001468e-05 -0.0002622518
000110 fa 77 76 b9 fc 4e 89 3a 70 dd f0 38 fd bd 0d b8
       -0.00023505083 0.001047581 0.00011485338 -3.379396e-05
000120 75 36 bd 39 5f 23 28 3a 1f 70 2c 37 e0 c5 36 3a
       0.00036089463 0.0006413962 1.0278104e-05 0.00069722347
000130 e1 ee d5 39 20 35 05 37 6f 07 80 3a e6 86 ca b9
       0.00040804505 7.939787e-06 0.000976784 -0.0003862895
000140 98 ff 0b 39 25 0d 70 b9 d0 d2 2a 3a 41 33 58 3a
       0.00013351289 -0.0002289308 0.0006516399 0.00082473835
000150 9b 0b 05 ba d4 59 1d 3a 90 9b 14 3a 5d e5 bc 39
       -0.0005075277 0.000600246 0.00056689326 0.00036029043
000160 b8 c7 c8 39 57 a2 c3 b9 34 4c 7c 39 a6 f7 28 3a
       0.00038295775 -0.0003731425 0.0002406098 0.0006445594
000170 50 5b fc 39 89 a5 4a ba 9b 60 a9 b9 18 14 f4 39
       0.0004813322 -0.0007730355 -0.0003230617 0.00046554278
000180 72 41 c2 b9 e1 bc c6 39 ca af 5d 39 10 bb 29 ba
       -0.00037051324 0.0003790623 0.00021141689 -0.0006474713
000190 b3 53 a0 b6 5a f6 55 3a 0d 77 1b 39 bf 65 00 3a
       -4.7781155e-06 0.00081620144 0.00014826302 0.0004897974
0001a0 61 cd 85 39 5c fc e2 39 25 8e 3e b8 49 67 b7 39
       0.00025520756 0.00043294101 -4.5431912e-05 0.00034981433
0001b0 18 6d 13 3a 45 9f c3 b9 08 52 c4 38 b1 fd a2 39
       0.0005623861 -0.00037311963 9.361288e-05 0.00031088063
0001c0 c3 8f 1d 3a 41 48 62 39 4d 19 21 3a dd ba 22 3a
       0.0006010497 0.00021579956 0.00061454327 0.00062076544
0001d0 5f fc c3 39 25 9f 39 3a 2b e4 58 3a 9e 51 eb b9
       0.0003738133 0.00070809043 0.0008273746 -0.00044883502
0001e0 6d d5 94 38 c0 bc 3e 3a 7b 94 82 3a d9 2f 59 3a
       7.0969436e-05 0.0007276051 0.0009962464 0.0008285023
0001f0 0f 70 80 3a 3a 57 b7 39 9a a2 e7 39 93 bc 2c 3a
       0.0009799021 0.0003496947 0.000441809 0.0006589379
000200 af c9 2e 39 af a4 5f b7 f1 62 ba b9 a6 c8 f8 38
       0.00016669066 -1.3330179e-05 -0.00035550402 0.00011862935
000210 44 83 96 39 85 2e 2f 3a 7f 67 77 3a 9b 82 22 b9
       0.0002870803 0.0006682652 0.00094377244 -0.00015498178
000220 23 a4 5c b9 81 c9 bf 39 25 69 86 39 10 86 f8 b9
       -0.0002104198 0.0003658049 0.0002563681 -0.0004740213
000230 68 8c 84 b9 7f fd a5 b9 b2 ca 26 39 d9 e2 11 3a
       -0.00025281613 -0.00031660122 0.00015906504 0.0005565114
000240 a0 7d f3 b8 cc 05 25 39 88 f0 56 3a e7 01 19 b9
       -0.000116105424 0.00015737786 0.0008199294 -0.00014591926
000250 99 be 67 3a f5 a8 b9 39 47 56 6a 3a d4 ef 44 39
       0.0008840352 0.00035411833 0.0008939248 0.0001878136
000260 25 ed 83 3a a1 51 f6 b9 66 dc 4b b8 17 83 78 b9
       0.0010065181 -0.00046981595 -4.8604234e-05 -0.00023699958
000270 66 b8 46 39 53 8d bc b9 1f 04 a4 39 71 9b 63 3a
       0.00018951445 -0.0003596345 0.00031283588 0.00086825254
000280 a8 f0 19 3a 9b 45 db 39 06 d9 81 37 69 ba bc 39
       0.00058723474 0.00041822795 1.5479058e-05 0.0003599704
000290 d3 ee 0e ba 7d e3 08 ba 85 ac 98 39 3e c8 29 ba
       -0.00054524577 -0.00052218867 0.00029120236 -0.0006476677
0002a0 f3 28 60 3a e8 80 03 ba 48 6a 14 ba 81 c8 97 b9
       0.0008551024 -0.0005016462 -0.0005661589 -0.0002895035
0002b0 64 d4 df 39 07 63 69 b8 ac 02 ba b9 41 3f 3a 3a
       0.00042692118 -5.5643755e-05 -0.00035478675 0.00071047625
0002c0 a7 e0 04 ba 57 01 08 b9 45 2f dc b9 21 cc 8c 38
       -0.0005068876 -0.0001297047 -0.00041996888 6.713742e-05
0002d0 80 e6 67 3a d5 b4 fd 38 6b e9 85 3a 6d f5 59 3a
       0.0008846298 0.00012097663 0.0010216659 0.00083144644
0002e0 30 16 14 39 d2 38 95 37 08 6f 30 3a b9 6b cd b8
       0.00014122645 1.7788643e-05 0.0006730412 -9.795227e-05
0002f0 fb e3 12 39 b0 26 6a 3a 5c ec 76 b9 f2 52 4b 3a
       0.00014008574 0.00089321565 -0.00023548439 0.0007756195
000300 16 94 ec 39 0a 2e 4d 39 83 11 9d 38 08 97 78 b9
       0.0004512376 0.00019567474 7.489605e-05 -0.00023707387
000310 11 38 3f ba c5 4b ca 38 1f 7a 1b 3a 60 b4 2f 3a
       -0.00072944263 9.646224e-05 0.0005930978 0.0006702598
000320 f9 ed 74 3a d6 3b 42 3a 76 84 86 b7 16 dd 05 b9
       0.0009343322 0.0007409429 -1.6035727e-05 -0.0001276623
000330 c0 f0 2f 38 be 95 f6 b8 5d 0c bb 39 53 61 e0 b9
       4.1947467e-05 -0.00011758086 0.0003567663 -0.00042797122
000340 dc 53 1f ba 51 1e 1c 3a 31 03 66 3a 53 cf 20 b9
       -0.00060778647 0.0005955445 0.0008774279 -0.00015336023
000350 8d ca 6d 39 10 80 d5 b9 6c cf 13 ba 02 fa 73 39
       0.00022677537 -0.0004072194 -0.0005638513 0.00023267421
000360 6f c0 2d ba 6c 0f 96 39 bc e6 84 b9 7a b3 de 38
       -0.0006628101 0.0002862172 -0.00025348912 0.00010619215
000370 36 a9 62 b9 1c 59 05 3a 05 b0 49 ba d5 0e 25 3a
       -0.00021616076 0.00050868257 -0.00076937705 0.00062964606
000380 98 51 03 ba dc 53 67 3a ef 66 f6 39 a7 91 d0 39
       -0.0005009412 0.00088244467 0.00046997468 0.0003978137
000390 5b 39 d5 38 3b 2a dd b9 57 76 dd 39 bd 79 35 ba
       0.00010167315 -0.0004218387 0.00042240575 -0.00069227425
0003a0 f1 9d 5a ba a7 32 f6 39 4b 11 31 ba 5c 56 0b ba
       -0.0008339575 0.00046958515 -0.0006754591 -0.0005315298
0003b0 f9 b8 33 3a 12 fc be 39 28 51 60 b9 38 96 80 b8
       0.0006855871 0.0003642743 -0.00021392538 -6.131496e-05
0003c0 ec 76 3e 3a a9 be 46 3a 9e ed c2 b9 c3 79 b3 b8
       0.00072656455 0.0007581511 -0.00037179602 -8.558065e-05
0003d0 7d f2 62 b9 1e 8d 66 b9 0e bd c9 39 21 3b 17 ba
       -0.00021643373 -0.0002198708 0.00038478564 -0.0005769004
0003e0 82 36 85 b9 8b b4 ff b9 f0 7f 99 37 a6 66 84 b9
       -0.00025408348 -0.00048771905 1.8298597e-05 -0.0002525348
0003f0 ea d1 77 38 6c 88 d5 b9 a5 d1 14 ba 78 61 19 b9
       5.9084887e-05 -0.00040728168 -0.00056769914 -0.00014627527

sequential/conv2d/BiasAdd/ReadVariableOp f4 [16]
000000 f6 4b 92 3d 42 6a 25 3d 3a 32 ae bc 9c 83 db 3c
       0.07143395 0.04038454 -0.021264184 0.026796155
000010 03 f8 c0 bc 29 3c 13 3b 98 c3 fd 3c 19 2d f3 3a
       -0.023555761 0.0022466278 0.030977055 0.0018552869
000020 0b 9d 1f 3d 40 bf f6 3c 19 e7 b6 bc 25 1b 05 bd
       0.038968127 0.030120492 -0.022326993 -0.03249659
000030 a2 e9 e9 3c 97 83 38 3d 81 c0 25 bd 03 77 67 3d
       0.028553788 0.04504737 -0.04046679 0.056509983

sequential/conv2d_1/BiasAdd/ReadVariableOp f4 [32]
000000 15 4f 4a 3c 93 91 ee bb f2 56 53 bb dc bf 05 3c
       0.012347956 -0.0072805374 -0.0032247868 0.008163419
000010 9b 43 1e 3c 72 a8 a5 3b 1d d0 d4 bb d3 3a bd bc
       0.009659673 0.0050554806 -0.0064945356 -0.023099339
000020 e8 bd 3b bc 82 40 e8 bc 31 7e 11 3c de 1e 2c 3c
       -0.011458851 -0.028351072 0.008880184 0.010505406
000030 51 8e 5a bc 0f 5b c0 bc 8a 07 79 bc 7f 5d 8e bc
       -0.013339595 -0.02348092 -0.015199551 -0.017378567
000040 9d 08 ad 3c 4c eb 29 3c b9 be d7 bb 41 9c f0 bc
       0.021122271 0.010371041 -0.006584015 -0.029371383
000050 7e 89 c6 3c cd 1d 12 3d 11 19 f1 bc 3b 0c a6 3c
       0.024235483 0.03567295 -0.029430898 0.020269504
000060 73 df 3b ba 74 09 d5 3b 65 2e df 3c 13 aa c8 3b
       -0.00071667804 0.006501371 0.027243802 0.00612379
000070 08 9f 87 bc 36 57 db 3b 79 1f c0 bc 1c 6d 5d 3c
       -0.016555324 0.006693746 -0.023452507 0.013514783

sequential/conv2d_2/BiasAdd/ReadVariableOp f4 [64]
000000 4d 9a 46 3c 71 fe 96 3c e3 ca bd 3b b3 2d 0b bc
       0.012121749 0.018431874 0.0057920082 -0.008494782
000010 2c ac f9 bb 98 85 9f bb 58 65 64 bc f2 c9 a3 bc
       -0.0076194014 -0.0048682205 -0.013940178 -0.019993756
000020 7d 3e 3f bb 18 9f 00 3d 0f ee a4 3c 88 ad a4 bb
       -0.0029181533 0.031401724 0.020133046 -0.0050255693
000030 2d 67 64 3c 29 52 2c 3c 2f 87 6b bb 16 24 43 3c
       0.013940615 0.010517635 -0.003593873 0.011910459
000040 c3 c2 97 3c a0 44 c2 3c 77 44 09 3c f3 14 12 bc
       0.018525487 0.023714364 0.00837814 -0.0089161275
000050 15 3b 7a bc 75 63 bc bb 83 49 8e bc 3c e7 ba ba
       -0.015272875 -0.005749161 -0.017369037 -0.0014259587
000060 c2 e3 9b bb 56 9b c1 ba ba 79 9f 3b a0 5e 04 bb
       -0.0047573755 -0.0014771025 0.004866806 -0.0020198002
000070 1e 6f e1 ba 1f 41 d2 3c 28 4f 8b bc 8f bc 42 3c
       -0.0017199253 0.025665818 -0.017005518 0.011885776
000080 ed ef 22 ba 66 02 a0 bb 4e 06 58 ba 5f 80 00 bc
       -0.00062155613 -0.0048830984 -0.00082406856 -0.007843106
000090 dc 5c 36 bc a5 8b 1f bc 1e 6e 36 bc de 51 a9 3c
       -0.011130538 -0.009737884 -0.011134652 0.02066892
0000a0 08 17 1c 3c 95 a4 c4 3a f5 c6 de 3c 25 16 f6 b9
       0.009526975 0.0015002663 0.02719448 -0.00046937275
0000b0 94 f2 d0 bb 19 c3 98 3c c6 47 5b bc d6 42 d7 3b
       -0.006376574 0.018647717 -0.013383811 0.0065692468
0000c0 43 d8 bb bb 5c 97 b2 3c 2a 94 6d 3c df 27 dc 3c
       -0.0057325675 0.02180069 0.014500657 0.02687448
0000d0 10 f0 6e 3c ef 06 21 bc 07 6e 53 3b e1 27 c1 3c
       0.014583603 -0.009828313 0.0032261626 0.023578586
0000e0 b0 bf 25 bc bc f3 4f 3c ba f3 3d 3c eb b5 d9 3b
       -0.010116503 0.012692388 0.0115937535 0.0066440008
0000f0 88 5e 4d 3c 90 47 be 3b 52 e9 85 bc a1 73 1b bc
       0.012534745 0.0058068708 -0.016346607 -0.009488017

sequential/conv2d_1/Conv2D f4 [32, 3, 3, 16]
000000 70 57 ab 3d 65 30 af b9 16 b2 56 bc c0 56 04 3c
       0.08366287 -0.00033414658 -0.013103982 0.008077323
000010 6a 4e c0 ba ef 76 1e 3e f7 80 8f 3d a3 bc 28 bc
       -0.0014671807 0.15475057 0.0700702 -0.010298881
000020 6b ee b8 3d d3 b8 22 bd fc 3c 3e 3d b3 cb b6 3d
       0.090298496 -0.039727043 0.046444878 0.08925571
000030 2c 5b 5e bd 3f 76 f8 3b 1f aa 1a 3e ee c2 f2 3c
       -0.054286167 0.0075824554 0.15103959 0.029633965
000040 4e 0a b0 bd ed 7e 05 3e 61 0a 94 3d 4b 58 5c bc
       -0.085957155 0.130367 0.07228542 -0.013448785
000050 b4 73 34 3d 8b 0b be 3d fb 16 c7 3d e0 bd 02 3d
       0.044055656 0.092795454 0.0972118 0.03191936
000060 08 46 02 3d 5f 62 14 3e 7d b6 c0 3d 6d 15 c7 3d
       0.03180507 0.1449065 0.09409807 0.097208835
000070 f8 2c 93 3d 96 19 f4 3d e5 45 ca 3d 21 48 77 3d
       0.071863115 0.11918943 0.098766126 0.06037152
000080 32 75 9f 3d 36 82 24 3d a8 7d fb ba c0 a5 c0 bd
       0.07786025 0.04016324 -0.0019187229 -0.09406614
000090 c5 70 13 be 79 c1 4f 3c 6d 5f 04 3e 69 14 f5 3d
       -0.14398487 0.012680405 0.12927027 0.119667836
0000a0 6f dc 05 3e 52 19 17 3e 25 a0 b3 bd 08 e8 14 be
       0.1307237 0.14755753 -0.087707795 -0.14541638
0000b0 91 f2 7b bd 93 3f 88 bc e8 09 f4 bd ed bc a1 bb
       -0.061510626 -0.016631877 -0.11915952 -0.004935852
0000c0 4d c0 01 3e 6b ef cd 3c e6 40 d9 3d 95 aa 1f 3e
       0.12671013 0.025138577 0.106080815 0.15592416
0000d0 99 7c cd 3d 4b dd 92 3d 1c 8c ca bd 24 83 4f 3d
       0.10033531 0.071711145 -0.09890005 0.050662175
0000e0 85 33 38 3e d2 4d 2f 3d 91 15 77 3d 25 ee 30 3e
       0.17988403 0.042798825 0.0603233 0.17278345
0000f0 9f 25 0c 3d b5 1f 03 bd 2f 3b b3 3d a1 ad d6 bc
       0.034215566 -0.03201266 0.08751523 -0.02620584
000100 95 6e 17 3e 22 3e 93 bd cb 58 ed 3d b4 b4 45 3d
       0.14788277 -0.07189585 0.115892015 0.048268035
000110 e9 d9 85 bc 8f 44 9a bd f4 2d e1 3d 9d 47 10 3e
       -0.01633926 -0.07532608 0.10995093 0.14089818
000120 ba fd 11 3e 4c 03 86 3d 04 e8 a3 3d 00 f0 6e bc
       0.14256945 0.065435976 0.08003238 -0.014583588
000130 ba e7 f6 3d cd c3 81 3d 84 be 1c 3b c6 8e bb bd
       0.12055917 0.06336174 0.0023917267 -0.09158091
000140 2f 53 e9 3d e3 a0 b5 bc 5f ec b2 bc bc 07 ef 3d
       0.11392819 -0.022171443 -0.021841226 0.11671397
000150 75 46 93 bd cd f1 d3 3c ca 44 76 bd 74 84 b1 bd
       -0.07191173 0.025872136 -0.060124196 -0.086678416
000160 0b fb 5e 3d 02 9b 82 3d 88 15 52 3d ee 53 da 3b
       0.054438632 0.06377222 0.051290065 0.006662837
000170 9b 10 9b bd ba 31 10 3e c1 8d 16 be 4d 26 70 bd
       -0.075715266 0.14081469 -0.14702512 -0.058630276
000180 a5 bb 02 bd 17 b7 02 be c4 23 47 bd 63 ea 09 3e
       -0.031917233 -0.12765156 -0.048618093 0.13468318
000190 86 2c 97 bd 19 04 54 bd 68 28 52 3d 06 64 c9 3c
       -0.07381539 -0.05176172 0.051308066 0.024583828
0001a0 1e 91 8d 3d a0 0d 1c 3c 79 21 40 3d cb c9 44 3d
       0.069124445 0.009524733 0.046906922 0.048044007
0001b0 5d 4a e0 bc 89 96 82 bd 4c 1b b0 3b c6 95 25 3c
       -0.02737921 -0.063763686 0.005374348 0.01010651
0001c0 75 4b 0c 3e 96 f5 12 3d 66 21 d6 bd cd f3 12 3e
       0.1370066 0.03587874 -0.10455589 0.14350815
0001d0 a4 60 0b be 99 34 31 bd ff cd c2 3d 08 cd e0 3d
       -0.13611084 -0.04326305 0.09511947 0.109766066
0001e0 fe 5b cc bc 32 a9 3f bd 41 55 fe bd 23 4e ac 3d
       -0.024946209 -0.046792217 -0.12418605 0.08413341
0001f0 99 b0 59 bd a5 53 03 3e 96 ac e6 bd 23 85 97 3c
       -0.053146932 0.12824877 -0.11263387 0.018496102
000200 20 5e 83 bc 02 65 83 3d 26 f5 8b bd d7 f2 c2 bc
       -0.016036093 0.0641575 -0.06833868 -0.023797436
000210 df 69 a5 3d 6b ad 8a bd d1 71 c3 3d bf d3 37 3d
       0.08076834 -0.06771358 0.09543193 0.04487967
000220 83 fc f9 3d f9 57 c3 3d 1d 13 c1 3c d3 16 f8 bc
       0.12206366 0.09538264 0.023568684 -0.030284321
000230 58 ea 11 be 96 4f 82 3d 59 1c 86 bd a1 7f c7 3d
       -0.14249551 0.06362836 -0.06548376 0.0974114
000240 f0 94 98 3d c9 65 ac 3d 56 55 e7 bc 75 d0 10 3d
       0.074502826 0.084178515 -0.028238934 0.03535505
000250 10 10 d3 3d ee 03 8a bd 2e 74 12 3d 1a 67 cd bd
       0.10305798 -0.06739031 0.03575533 -0.10029431
000260 eb 26 1a 3d f0 e0 55 3d 42 11 dd bc 8b 09 c5 3d
       0.03763477 0.05221647 -0.026985768 0.09620961
000270 d5 83 0f bc 9d 68 98 bc 95 da 1e 3e 50 99 dd bc
       -0.008759459 -0.018604571 0.1551307 -0.027050644
000280 51 46 4a 3c 50 09 a6 3d 52 1b ef 3d 86 69 ac 3d
       0.012345866 0.08107245 0.11675133 0.084185645
000290 e3 7f 8f bd 70 51 57 3d 87 51 71 bd e2 8d 18 3e
       -0.07006814 0.0525679 -0.05891564 0.14897874
0002a0 8c 44 3b 3c 24 95 84 bc 77 39 e4 bd d8 91 a5 3d
       0.011429917 -0.016184397 -0.11143773 0.08084458
0002b0 90 c3 a4 3a 2e fa d7 3d fe 8b 42 bc d2 f7 5b 3d
       0.0012570489 0.10545765 -0.011874197 0.053703137
0002c0 48 26 fe bc 87 75 ae bd 12 a2 c3 bd 73 c9 14 be
       -0.031024113 -0.0851851 -0.09552397 -0.14529972
0002d0 c2 8e 35 be 59 f7 f8 bd 8c 6a de 3d ec 04 7a 3d
       -0.17730239 -0.12156553 0.10860166 0.06103985
0002e0 9b b9 bf 3c ba f9 13 bd 96 26 af bd c8 d0 62 bd
       0.023403933 -0.03612683 -0.085522816 -0.05537489
0002f0 2b b7 b6 3c 81 79 19 3e bb f6 1c be b9 5e 49 be
       0.022304138 0.14987756 -0.15328495 -0.1966504
000300 ae ef 6d 3d f2 ad 3a 3e fd 7b 01 3d 3a 9a 20 bd
       0.058089904 0.18230417 0.031612385 -0.039209582
000310 ab 99 24 3d fa a4 0b 3e 4b 4c c3 3d 2e b9 8a 3d
       0.04018561 0.13637152 0.09536036 0.067736015
000320 f0 4b 50 3d 40 de d0 3c 7a e9 9c bc 4d 00 0b 3d
       0.05085367 0.025496602 -0.019154299 0.033935834
000330 de 76 86 3d 72 8f ce 3d b0 71 c7 3c 84 2e 88 bd
       0.06565641 0.10085954 0.024346203 -0.06649497
000340 e1 52 0c be 7b 6d 0a 3e bc 87 83 3d be 43 fe bd
       -0.13703491 0.13518326 0.06422374 -0.124152645
000350 83 67 ff 3d 44 b3 c4 bd c0 c9 cf bc ee 80 b6 3d
       0.12470915 -0.09604505 -0.025364757 0.0891131
000360 79 1f cd bd 43 4c a0 3d a8 b6 2a bd f2 4e 02 3e
       -0.100157686 0.07827046 -0.0416781 0.12725428
000370 69 d6 28 3e 2b c8 24 3e f9 d0 2b bd 5b b9 0e be
       0.16488041 0.16091983 -0.04194734 -0.13937895
000380 06 1d a2 3d 21 7b 0d 3d b2 2d 46 3d b6 33 0c be
       0.07915692 0.034541253 0.048383422 -0.13691601
000390 5d 44 51 bd ff d3 5d bd 70 35 91 3d 24 75 b2 bd
       -0.051090587 -0.054157253 0.070902705 -0.08713749
0003a0 fc a9 bd bc 82 8e 8e 3d 52 12 39 3d 7f 2f 86 bd
       -0.023152344 0.06960775 0.045183487 -0.06552028
0003b0 82 9f 97 bd 58 f2 0a 3e 17 7e c9 bd 8d dc 60 3a
       -0.074034706 0.1356901 -0.09838503 0.00085777865
0003c0 b1 11 f0 3c 17 d1 3a 3e e3 7f e0 bc e5 e2 3e bd
       0.02930531 0.18243824 -0.027404731 -0.046603102
0003d0 8f e8 0b 3e 43 0b 94 3d 90 4a 44 3e 46 f6 8c bc
       0.13662933 0.072287105 0.19169068 -0.017207276
0003e0 0c 3c e0 3d 4b fd 14 3e be 0c 11 3e 6f 58 da 3c
       0.10948953 0.14549749 0.14165017 0.026653497
0003f0 8b c6 f4 3d 05 a0 70 3c b8 8a 0c 3e 75 5c 05 3c
       0.119519316 0.014686589 0.13724792 0.008139719

sequential/conv2d_2/Conv2D f4 [64, 3, 3, 32]
000000 b4 e2 cd 3d 02 18 69 bc 5e e4 0d bd 6b 06 1e 3d
       0.10053006 -0.014226915 -0.034641616 0.03858034
000010 86 3b 3d bd 0c dc 65 bd 54 66 fd bc 58 55 f2 bc
       -0.046199344 -0.056118056 -0.030932583 -0.02958171
000020 b9 00 50 3d 4a 98 97 bc 2e 56 54 bd f5 4b d2 3d
       0.05078194 -0.018505234 -0.05184 0.10268394
000030 4c 46 94 bd fd e7 b9 bd 7b e0 80 bc 8e 38 97 3d
       -0.072399706 -0.090774514 -0.01573204 0.07383834
000040 5a 11 81 bd e9 95 30 bd a7 95 65 bd 53 b8 80 bd
       -0.06302138 -0.043111715 -0.056050923 -0.06285157
000050 12 66 9a bd 9e 55 db bd 2e 0f b1 3c 3b 7d 0e bd
       -0.075389996 -0.107096896 0.021613684 -0.034787398
000060 9d e3 ae bc 72 9a dc bc 78 a2 0e 3d 8e d5 90 bd
       -0.021348769 -0.026929114 0.03482291 -0.07071982
000070 8b e4 ad 3d de 53 bb bb da 46 3c bd 5b a9 cc 3d
       0.08490857 -0.005716785 -0.045966007 0.099932395
000080 81 90 58 3d 8e b2 21 3c 10 98 60 bd 08 54 6f 3d
       0.052872185 0.009869231 -0.054832518 0.058429748
000090 e5 e5 25 bd a5 d1 05 3c eb 6f 27 3d 32 9d af bc
       -0.040502448 0.008167659 0.040878218 -0.021437261
0000a0 17 f8 c5 3c 4f 9c 95 3c e8 f9 a7 3c 60 2e 73 bc
       0.02416615 0.01826301 0.020504907 -0.0148426
0000b0 9b 95 5a 3c 4c 86 aa bd d0 00 4c bd 29 d6 90 bd
       0.013341333 -0.08326396 -0.049805462 -0.07072098
0000c0 14 4b 3b 3d 04 4b 86 bd ee 98 d5 bb 0f fe 9a bd
       0.045725897 -0.06557277 -0.006518475 -0.07567989
0000d0 cb 87 84 3d da 8e 21 3d 3c d4 f2 bd e9 5e 52 bd
       0.06471213 0.039442874 -0.11856887 -0.051360045
0000e0 27 7d 23 bd f1 ca 3b bc aa 4f bf 3d 4f 88 ad bd
       -0.039914276 -0.011461959 0.093413666 -0.084732644
0000f0 e0 b2 16 bd 17 fe de bc e3 f4 2d bd be c9 2e bd
       -0.036791682 -0.027220769 -0.04246987 -0.042672865
000100 08 71 8f 3d 30 50 b9 3c 1b 4c 6e 3d 75 4f 3b bc
       0.07003981 0.022621244 0.05817805 -0.011432518
000110 96 e9 89 3d f4 99 17 bc ea db 88 3c a1 2b 82 bd
       0.06734006 -0.009253014 0.016706426 -0.06355978
000120 18 df 00 bd 69 91 2c bd 9a 17 59 bd 65 e0 b6 3d
       -0.03146276 -0.04213086 -0.053001024 0.089295186
000130 3f 14 ea bd d1 a7 f3 3b 4a 91 a2 3d 06 88 3d 3d
       -0.11429643 0.0074357768 0.07937868 0.0462723
000140 6b 06 9c 3d 4e 26 06 3d 3f 0d 96 3b a0 5e 9c bd
       0.07618412 0.032751374 0.004579216 -0.07635236
000150 61 b1 08 3d e4 4b 75 3c dc d0 8b 3c c0 8d f2 3c
       0.033372287 0.014971707 0.017067365 0.029608607
000160 68 11 3e bd bb 34 39 3c a3 4c 02 bd 85 06 8a bc
       -0.04640332 0.011304076 -0.031811368 -0.016848812
000170 37 c3 b7 bc 78 10 34 bd b3 10 09 bc 8f b1 ae bd
       -0.022431953 -0.04396102 -0.008365798 -0.0852996
000180 31 cd 12 3e 37 b2 f7 3d 18 0c 26 bd 19 1b 11 3c
       0.14336087 0.12094539 -0.040538877 0.008856558
000190 16 d8 da bb a3 ef 9c 3d 46 3c e9 3d 02 12 94 3d
       -0.0066785915 0.076628946 0.11388449 0.07229997
0001a0 56 af 9f 3d 40 c4 03 bc 49 d2 06 bd bc a4 f1 b8
       0.077971146 -0.008042395 -0.032915387 -0.0001152246
0001b0 63 9a ba 3d 80 89 34 3d d9 5d 78 3c 02 26 c1 3d
       0.09111478 0.044076443 0.015159094 0.094310775
0001c0 f8 84 a9 3d 08 4d ef bc 7c 8e d7 3c 6b 01 4a 3d
       0.08277315 -0.029211536 0.026313059 0.04931776
0001d0 63 b1 0f 3e 40 e9 98 3d d9 23 b1 3d 99 e6 f9 3d
       0.14032511 0.07466364 0.086494155 0.12202186
0001e0 e3 71 db 3d 86 61 77 3d fa 1b 23 3e 5a ff a6 3d
       0.107150815 0.06039574 0.15928641 0.08154173
0001f0 32 d6 8d 3d 91 5a 2c 3d 4f 73 61 3d d5 f3 8a 3d
       0.0692562 0.04207856 0.055041607 0.067847885
000200 e6 72 a0 3d a2 2d 2a bc 09 31 36 bc 0e 48 2e 3d
       0.07834415 -0.010386856 -0.011120089 0.042549185
000210 ce f2 b1 3c 56 ad c3 3d b2 74 25 bc a8 b1 4f bc
       0.021722224 0.095545456 -0.010098623 -0.012676634
000220 64 69 91 bd 24 d2 1b 3d f6 6f e5 3b 29 30 45 bd
       -0.0710018 0.038042203 0.007001872 -0.048141632
000230 0f b4 5e 3d 1c 79 58 bd 00 8b 9f 3c 9b 72 ce 3b
       0.054370936 -0.052849874 0.01947546 0.006300283
000240 2e 08 7e bd 72 6e c9 bd b1 6a 8d 3d 84 65 13 3d
       -0.06201952 -0.09835519 0.069051154 0.035985485
000250 1c e4 0e 3d ed 8d 8a bd 4a ea 0c 3d 62 0d 50 3d
       0.03488551 -0.067653514 0.034403123 0.050794013
000260 cd d7 8e 3d 61 e0 de bc 29 7a 0d 3d 3f ae 68 3d
       0.069747545 -0.027206602 0.03454033 0.0568068
000270 09 43 dc 3d 89 79 18 bb 8b 00 07 bd 00 fe af 3d
       0.107549734 -0.00232658 -0.032959502 0.085933685
000280 90 bf 9a 3d 84 99 10 3a 70 d9 8e bd 89 86 35 bd
       0.07556069 0.00055160397 -0.06975067 -0.044317756
000290 b6 63 d4 bd 8e 8e f5 bc 6f 2e 8b bd 0d 4b ad bb
       -0.10370581 -0.029975202 -0.06795966 -0.0052884878
0002a0 a0 35 a1 3b 3f 94 14 bd 5d ad c8 3c 03 e6 77 bd
       0.0049197227 -0.03627419 0.024496729 -0.06052209
0002b0 17 d2 44 bd 70 49 0d be f9 1a aa bb cd 53 f0 bc
       -0.04805192 -0.13797545 -0.0051912037 -0.029336834
0002c0 c8 e9 ec 3d d8 2a e3 bb b3 bd c0 bd ed 45 b7 bd
       0.11568028 -0.0069325976 -0.09411182 -0.08948884
0002d0 2c 5c 90 3c fd 8b 72 3d 5f 18 9d bd df 1e 5a 3c
       0.017622076 0.059215534 -0.07670664 0.013313024
0002e0 52 f0 87 3c 5f 7b 32 3d 18 d5 c8 3d 37 a3 99 bd
       0.016594086 0.043574687 0.098062694 -0.07501834
0002f0 94 d3 3c 3d bd 84 a6 3d a9 eb a3 bd f8 11 cd bd
       0.046100214 0.081307866 -0.08003933 -0.10013193
000300 b6 70 8e bd 74 81 51 bd f4 02 62 3d 60 30 06 bc
       -0.06955092 -0.051148847 0.055178598 -0.008190244
000310 57 23 1b 3d 2a fe 42 3d 17 a4 e8 bc cd c1 c0 3c
       0.0378755 0.04760567 -0.028398557 0.023529911
000320 9f ce 41 bd 24 1d b3 bd 94 64 14 3d 2c 9d 80 3c
       -0.04731619 -0.087457925 0.03622873 0.015699945
000330 8a 7e 8a bd e7 c6 65 bd ce 5c 86 3d f9 95 83 3d
       -0.06762417 -0.05609789 0.0656067 0.064250894
000340 38 20 6b 3d 58 0a 19 bc 26 25 1b 3d 3d cd ce 3b
       0.057403773 -0.009340845 0.037877224 0.0063110874
000350 b8 10 b5 3c 4b 8d b4 3d f8 5a a2 bd b0 92 a3 3d
       0.022102699 0.08816012 -0.07927507 0.07986963
000360 9f a7 1c bd 68 3b 96 bc 9f 22 3a bd c1 be f8 bb
       -0.038245793 -0.018338874 -0.045443173 -0.007591099
000370 e5 5f b0 bd f4 c6 e0 3c f0 aa 12 3d 08 cb 4c bb
       -0.086120404 0.027438618 0.03580755 -0.0031248946
000380 b3 01 f8 3d bf fa b5 bc f7 66 85 bd bb 4d a0 bc
       0.12109699 -0.022214292 -0.065137796 -0.019568315
000390 6a 86 1a bd a7 60 89 3d 13 d6 dc 3b 11 32 44 bd
       -0.037725843 0.06707888 0.006739387 -0.04789931
0003a0 da e2 c3 3c fb 1b 94 3d 76 f5 99 bb f0 30 b7 3d
       0.023911882 0.07231899 -0.0046984507 0.08944881
0003b0 45 18 44 bd cb 8b 6c 3d 41 17 64 3d e1 c6 ea bc
       -0.047874708 0.057750504 0.05568624 -0.028659286
0003c0 e2 f1 66 3d 62 1b c6 bc 2e e0 34 3d f9 25 49 bd
       0.05638302 -0.024182979 0.044159107 -0.04910848
0003d0 73 d7 c6 3d 25 d0 a0 3d e4 a4 1e bd 14 4e ca 3d
       0.097090624 0.078522004 -0.03873147 0.098781735
0003e0 77 60 13 3d 8b d0 49 3d 06 b1 86 bc 20 75 1d bc
       0.035980668 0.049271148 -0.016441833 -0.009610444
0003f0 64 a9 82 3d 9b ad 90 bc f1 ac 57 3d 8a 70 b7 3d
       0.06379965 -0.017660907 0.052655164 0.08957012

sequential/dense/BiasAdd/ReadVariableOp f4 [128]
000000 b6 c6 86 3c 16 c1 2a 3c ec 3b 81 3b e5 c6 01 bc
       0.016452175 0.010422012 0.003943911 -0.007920955
000010 fd 34 25 bc 53 80 2c 3b 65 51 42 3c d3 e3 25 b9
       -0.010083434 0.0026321604 0.011860226 -0.00015820497
000020 1d 59 69 bb 65 a9 c4 bb 06 f9 6f 3c ba 1f 09 bc
       -0.0035606094 -0.0060016387 0.014646774 -0.008369381
000030 26 b6 fb 3b 41 30 e2 3b 2f 30 c4 bb 38 87 c6 bb
       0.007681626 0.006902725 -0.0059871892 -0.0060586
000040 2e 61 42 3a 98 56 c4 bb 35 b6 f5 bb 9b a1 c4 bb
       0.00074149936 -0.005991768 -0.0074985274 -0.00600071
000050 67 83 9b bb fa 95 ec bb d2 c8 e5 3b 00 00 00 00
       -0.004745889 -0.007220027 0.007012465 0.0
000060 97 37 f1 b9 cb c7 dd bb eb 59 14 3c 1b b9 c4 bb
       -0.0004600852 -0.006768202 0.009054641 -0.0060035116
000070 1b 1d b1 bb 0f 63 cb 3b 00 00 00 00 2a c8 f8 bb
       -0.005405081 0.006206877 0.0 -0.007592221
000080 18 a0 b2 bb 0a 49 b3 bb de 5c 12 bc 64 2e 7b bb
       -0.0054512136 -0.0054713534 -0.008933274 -0.0038327212
000090 a3 d8 d4 3b 48 d7 f9 bb 9b 10 f6 bb 7d aa a7 3a
       0.0064955517 -0.0076245405 -0.0075093037 0.0012791898
0000a0 79 b2 d4 ba d7 1b a3 bb fe d2 f7 bb fb 99 c4 bb
       -0.0016227505 -0.004977684 -0.007562994 -0.005999801
0000b0 52 6b c5 bb 68 ae 2a bc e9 57 38 3c 24 b5 c4 bb
       -0.0060247565 -0.010417558 0.011251428 -0.006003039
0000c0 96 0a 9a 3c 39 14 05 bc 13 89 a3 3a 80 31 a8 ba
       0.018803876 -0.008122497 0.0012476764 -0.0012832135
0000d0 32 5d 1c bc 05 57 0c 3c 16 60 ab bb f4 b9 c4 bb
       -0.009543704 0.008565669 -0.00522996 -0.0060036127
0000e0 8b 3c 5e 3c d7 63 ab 3b 36 14 05 bc 04 08 5b 3c
       0.013564239 0.0052304077 -0.008122494 0.01336861
0000f0 d9 3e 13 3b 18 00 44 3b eb 44 e1 bb dd 72 40 3b
       0.002246788 0.0029907282 -0.0068746707 0.002936534
000100 26 49 85 3b 00 00 00 00 a4 c3 c4 bb c4 78 c2 bb
       0.004067558 0.0 -0.0060047675 -0.0059348065
000110 b6 68 02 bc 00 00 00 00 8e f2 fe 3b 50 22 01 3b
       -0.007959535 0.0 0.0077803796 0.001970429
000120 42 c3 58 bb 1d 8c 1a 3c a8 f6 84 3a 68 ac 39 3a
       -0.0033075367 0.00943282 0.001014431 0.00070828805
000130 7c 62 0a 3c 86 28 f9 bb b6 19 1b bc e9 73 c4 bb
       0.008446332 -0.0076037077 -0.009466579 -0.005995263
000140 cd df eb 3b f9 c4 b9 39 38 29 bb 3b b6 25 58 3c
       0.00719831 0.00035432706 0.005711701 0.013192585
000150 03 e1 e9 3b b2 1e c4 bb fc c0 ee bb 00 00 00 00
       0.007137419 -0.0059851045 -0.007286189 0.0
000160 6a a3 c6 bb ef 88 a0 3c 2a 45 c4 bb 5b 3f 12 3c
       -0.006061961 0.019596545 -0.0059896903 0.008926238
000170 4b aa a9 39 95 f7 26 3c 52 f2 1f 3c 00 00 00 00
       0.0003236107 0.010190864 0.0097623635 0.0
000180 ea 0a ca bb 02 a8 41 bc 9d 0a 08 bc f4 b2 5b 3c
       -0.006165852 -0.011819841 -0.008303312 0.013409365
000190 06 07 11 3c e0 b3 a0 3c 56 e8 9e bb 04 5d 2b 3c
       0.008851772 0.019617021 -0.004849474 0.010459188
0001a0 f8 d7 e0 3b b9 eb ed bb 4a 76 c2 3b 30 cc 38 3c
       0.006861683 -0.0072607663 0.0059345113 0.011279151
0001b0 61 36 e2 3b 18 bd f5 bb 21 0f a3 bb b7 26 c3 ba
       0.006903455 -0.0074993484 -0.0049761687 -0.0014888857
0001c0 18 b2 d1 3a 18 c7 56 3c 7c 18 0c bc c2 f2 9c bb
       0.0015998511 0.013108991 -0.008550759 -0.004789681
0001d0 50 f0 4f 3c be da 90 bb b2 0b a9 3b 1d 7f aa 3b
       0.012691572 -0.0044206074 0.005158865 0.0052031414
0001e0 01 f8 25 ba c0 42 06 bb 4f 28 35 3a 19 54 4d bb
       -0.0006331206 -0.0020486563 0.00069106085 -0.0031330644
0001f0 02 75 9f 3b 43 ff 0c bc 00 00 00 00 02 d2 b9 bb
       0.0048662433 -0.008605781 0.0 -0.005670787

sequential/dense_1/BiasAdd/ReadVariableOp f4 [61]
000000 bb fb f3 bb 69 0f 5e 3b 45 74 66 bc e7 4c 81 bc
       -0.00744578 0.0033883697 -0.014065807 -0.01578374
000010 d0 30 fe ba b3 18 c5 bc d7 20 1d bc 23 73 71 3b
       -0.0019393209 -0.024059629 -0.009590349 0.0036842308
000020 3d 89 06 bc 61 45 98 bb 34 6a f2 3b ae da c8 ba
       -0.008211431 -0.0046469425 0.0073979143 -0.0015323961
000030 19 f4 34 bc bb dc c2 3b 0d 69 0d bc aa 8b 88 bc
       -0.011044526 0.0059467233 -0.008631003 -0.01666816
000040 52 6a 3e bc 92 c4 d6 bc 75 63 8f bc 0c bb c1 bc
       -0.011622028 -0.026216779 -0.01750348 -0.023648761
000050 b2 60 23 bb e0 7b 91 3c 08 6b 8f 3b 2e 0d 84 3c
       -0.002492946 0.017759264 0.004376773 0.016119566
000060 00 6c 6a 3b 0e 26 5b 3b 1f d1 56 3c bc 38 36 3c
       0.003576994 0.003343943 0.013111382 0.011121925
000070 9f d1 4d bc a7 99 3b bc 45 62 b5 3c 4f 23 8a bc
       -0.012562185 -0.011450208 0.022141585 -0.01686254
000080 48 60 6e 3c 1d 4d 88 3b df 41 d2 ba 9d 10 7d 3c
       0.014549322 0.0041595832 -0.001604136 0.015445855
000090 37 bb 76 3c 04 02 b2 bc 79 b2 6a bb 16 22 23 bb
       0.015059284 -0.021729477 -0.0035811944 -0.0024892143
0000a0 17 4a cd bc d1 ab 0a 3c fc 44 ea bb 8a 7b 4a 3c
       -0.025059743 0.008463816 -0.007149337 0.012358556
0000b0 41 1c be bb 95 b2 fb ba 45 5f 79 3b 4e 43 20 bc
       -0.005801708 -0.0019203002 0.003805117 -0.009781672
0000c0 8c 40 1d bb bc a4 68 bb 17 cd 26 bc 71 7a 8b 3b
       -0.0023994772 -0.003549858 -0.010180733 0.0042565395
0000d0 dc fc 9a 3c db 3b 82 3c f5 25 95 3b ff 95 27 3c
       0.0189194 0.015897682 0.004551644 0.010228633
0000e0 e3 c8 9a 3b 5f 6f 9f ba 8f 77 bb 3b f7 d2 53 3c
       0.0047236546 -0.0012163928 0.0057210396 0.012928716
0000f0 c4 5c 9a bc
       -0.018843062

sequential/dense/MatMul f4 [128, 768]
000000 1e f6 d5 bc b3 aa 1f 3d d6 80 12 3a 60 bc 54 3c
       -0.026118334 0.03898115 0.0005588656 0.012984365
000010 4e d8 d4 bc 83 51 a9 3c aa a1 d7 bc f2 31 31 3d
       -0.025982048 0.02066875 -0.026322205 0.043260522
000020 29 5a 98 bb dc cb 22 3c 3b 2e 87 3c ae 01 dd bd
       -0.00464942 0.009936299 0.016501537 -0.10791336
000030 00 5f 9d bd d7 6b 60 bd 4b 16 6d 3d 6d 6b a3 bd
       -0.076841354 -0.054790344 0.05788259 -0.07979474
000040 99 32 8a bd d5 f0 89 3c fe 0a c8 3d ac 17 56 3d
       -0.06747932 0.01683847 0.097677216 0.05226867
000050 ca 9c 87 bd d9 99 4a 3d 53 f4 0d bb b3 18 b0 bc
       -0.06621702 0.049463127 -0.002166052 -0.021496153
000060 db 5d 02 bd 67 01 4b bd 6d c6 f9 3b b5 4c 79 3d
       -0.03182779 -0.049561884 0.007622531 0.06086417
000070 7e 26 97 3d f3 c8 6a 3d 6a 99 7f 3c 53 2c 9b bd
       0.07380389 0.057320546 0.015600542 -0.075768135
000080 6b 74 5e bd 5a 7a fa bc 29 e5 aa 3d 79 f3 ab bc
       -0.054310244 -0.03057592 0.0834449 -0.02099012
000090 50 d6 80 bd 4d c0 c8 bc c3 79 f1 bc de d7 b7 3b
       -0.06290877 -0.024505759 -0.029477006 0.00561045
0000a0 38 29 5c 3d a4 7a 44 bd cb 65 86 bc 38 9a 6b bd
       0.053750247 -0.04796852 -0.01640596 -0.05752012
0000b0 96 6a d4 bc b1 ed 0b 3c c6 7b 20 bd 88 32 c1 3d
       -0.02592973 0.008540557 -0.03918054 0.09433466
0000c0 25 41 9e 3d 79 50 13 3c f5 e7 8a 3c b5 ce db bc
       0.07727269 0.008991354 0.016956309 -0.026831964
0000d0 58 35 b4 bd b6 6e de bd 5d 69 82 bc 95 3e da bd
       -0.08799237 -0.1086096 -0.015919382 -0.10656468
0000e0 cd d1 ba bc 57 ca 27 3d 81 97 bc 3c b9 d6 e3 bb
       -0.022805119 0.04096445 0.023021461 -0.006953087
0000f0 df 13 c5 3d 1a 34 25 3d 43 6f b7 bc 8f 7e 98 3d
       0.09622931 0.04033289 -0.02239192 0.07446014
000100 16 17 4c bd 43 84 80 3d a9 01 7a bd 6d 1f 10 3c
       -0.049826704 0.06275227 -0.06103674 0.008796555
000110 b3 04 a5 3d 11 7d 89 3c 9d 9d 80 bd 91 83 81 3d
       0.08057537 0.01678327 -0.06280062 0.063239224
000120 da 3c 39 bb 24 f7 c0 bd fb 4b a1 3b d8 ab 84 bd
       -0.002826503 -0.09422138 0.0049223877 -0.06478089
000130 95 f8 7e bd 1f 7b 1e 3d d0 77 cc bd 8d cc 7b bd
       -0.062248785 0.038691636 -0.0998379 -0.06147437
000140 11 e7 98 3d 48 e7 ab 3c e9 7a b8 3d 39 6e a9 3c
       0.074659474 0.020984307 0.09007818 0.020682441
000150 10 df 15 bd 9f df 6b 3d 57 31 64 3d f2 ae f7 3c
       -0.036589682 0.05758631 0.055711117 0.030234788
000160 87 d9 84 3d 0c cf 41 3c e3 b8 42 bd fb 77 94 bd
       0.064868025 0.011829149 -0.047539603 -0.07249447
000170 85 aa fe bc df 79 01 bd bb ab a0 bc 83 f8 8d 3d
       -0.03108717 -0.031610366 -0.019613137 0.069321655
000180 a0 34 08 3c 00 a8 13 3d 90 dc 0e 3d e9 9c 0f 3d
       0.008313328 0.03604889 0.034878314 0.03506175
000190 29 be a0 3c 26 d2 a4 3d 1a ad 32 bd e6 31 82 3c
       0.019621925 0.08047895 -0.043622114 0.015892934
0001a0 e7 b6 3b bd 82 8a 16 3d b1 c7 e7 bd c5 41 99 3d
       -0.045828726 0.036753185 -0.11317385 0.07483248
0001b0 7c d8 33 bd 7a 90 f8 bc 3b 56 3b 3d 49 9d 64 3d
       -0.043907627 -0.03034233 0.045736533 0.05581406
0001c0 72 95 95 3d 14 5e 91 3b 41 6e 8f 3d 56 1c 82 3d
       0.07303895 0.004436264 0.07003451 0.06353061
0001d0 9a 6d 20 bd 87 e3 38 bd 97 59 ec bc 58 2c 3e 3d
       -0.039167024 -0.045138862 -0.028851314 0.04642901
0001e0 38 74 a6 bd a3 dd 35 bb 60 1f a4 bd da 33 ad 3c
       -0.08127636 -0.0027750514 -0.08013797 0.021142889
0001f0 e6 94 80 bd ae 8a 94 3a 1e b7 44 bb 4d f3 8c 3d
       -0.062784 0.0011332834 -0.0030016373 0.068823434
000200 7d 35 89 bd 87 81 19 bd 2d f0 af 3d 9b 6a af 3d
       -0.06699655 -0.037477043 0.08590732 0.08565255
000210 54 24 00 bc 07 2b 8e bd 5e cc f8 3d 37 28 a4 bd
       -0.007821161 -0.069418006 0.12148355 -0.08015483
000220 ca f0 c9 3d c9 79 0f 3c 90 04 91 3d 0f 79 21 bd
       0.0986038 0.008757063 0.07080948 -0.03942209
000230 b4 d1 f0 bc 05 aa 56 bd 45 5d 21 bd 68 e7 31 bd
       -0.02939687 -0.052408237 -0.03939559 -0.043433577
000240 46 41 3a 39 6c 7b 22 3d c8 29 41 bd b8 59 15 3d
       0.00017762659 0.039668486 -0.047158986 0.036462516
000250 a6 62 0f 3d f2 bc 76 bc 78 89 42 3d 12 e5 f5 bb
       0.035006188 -0.0150596965 0.04749438 -0.007504114
000260 77 28 09 3d ad d0 64 3d 5e 06 4d bd ae 7d a9 bd
       0.033485856 0.05586307 -0.0500549 -0.082759246
000270 2d 64 60 3c 84 a3 d4 bc 1a 34 b6 bc c6 de 0c 3c
       0.013695759 -0.025956877 -0.02224164 0.008598035
000280 8e 5e 4d 3d a5 1e b7 3d ae bf 9a bc ac e6 98 bb
       0.050139003 0.08941392 -0.018890228 -0.00466617
000290 cd 7d d7 bb 42 92 30 3d df 53 c7 bd 22 72 0d 3d
       -0.006576276 0.043108232 -0.09732794 0.034532674
0002a0 89 6d 3f 3d d1 3f 2c bd 92 10 2a bd e8 eb ab bd
       0.04673532 -0.042053048 -0.04151971 -0.08394605
0002b0 30 dc 30 3c 90 2e 58 bd 41 2e 4d 3d 8e e3 72 3d
       0.010794684 -0.05277878 0.05009294 0.059299044
0002c0 04 54 2b 3d 21 cf 0c bc 33 7e 9f 3c 35 69 f3 ba
       0.04182817 -0.008594305 0.019469356 -0.0018570783
0002d0 c7 9a 14 bd b2 8c 2c bd 87 0e 66 bd 0f c3 89 3c
       -0.03628042 -0.042126365 -0.056166198 0.016816644
0002e0 93 57 8f bc 95 0e 14 bd b1 af c9 3d ae 4a 92 bc
       -0.017497813 -0.03614672 0.098479636 -0.017857876
0002f0 cf 9a 90 bd c1 27 2b 3d 8a e1 15 3d 6c 85 42 3d
       -0.070607774 0.04178596 0.036592044 0.047490522
000300 bf 43 bd bd 85 ff 92 3d d5 f9 99 bd 66 81 76 3c
       -0.09241437 0.07177643 -0.07518355 0.015045499
000310 22 9a 81 bc 25 b8 8e 3b d1 18 62 3c 50 93 11 3d
       -0.015820567 0.004355448 0.013799862 0.03554088
000320 ce 6a 1e 3d 17 32 de bc 2b 2f 2a 3d 24 a7 a9 bd
       0.038676076 -0.027123494 0.04154889 -0.08283833
000330 5e 7f 67 bd b8 3e 12 3d e0 4e 47 bd bc e0 38 3d
       -0.05651795 0.035704345 -0.048659205 0.0451362
000340 2c 6b 9f bc 6f 4e a1 bc 7b 0a 59 bd 5e ae a7 bc
       -0.019460283 -0.01969072 -0.05298851 -0.020468887
000350 6b 4a 3c bd cb 41 f6 bc 6f 48 73 3d cd 61 a2 bc
       -0.045969408 -0.03006067 0.05939525 -0.019822026
000360 4a 63 00 3d a1 2d 91 bc db c8 df bc 03 81 8e 3d
       0.03134469 -0.017721953 -0.027317455 0.06958201
000370 2f 13 14 3d 43 86 a3 3d 41 d4 a2 3c 8b da b5 bc
       0.036151107 0.07984593 0.019876601 -0.022198936
000380 bc aa ac 3d b3 75 71 3c 50 21 2e 3d 44 8f c7 3d
       0.084310025 0.014737534 0.042512238 0.097441226
000390 e9 74 fa 3c d8 be 33 bc b0 84 40 3d 56 47 d7 ba
       0.030573325 -0.010970794 0.04700154 -0.0016424458
0003a0 c9 64 e3 3c fa 3d 28 bd 1e fc b3 bc ef 73 f7 bc
       0.027758019 -0.04107473 -0.021970805 -0.030206649
0003b0 d1 31 ac 3d aa de 84 bd 96 cb 37 bd e2 cd 1e 3d
       0.08407939 -0.06487782 -0.04487189 0.038770564
0003c0 76 9e 96 3d 5c c9 54 3d 91 26 b5 3d 1b 3c 0b be
       0.07354443 0.051949844 0.088452466 -0.13597147
0003d0 ee 7b 7c 3d fe 93 84 3d 4e 62 89 bd ac 09 93 3d
       0.061641626 0.0647354 -0.06708203 0.07179579
0003e0 7c 7f 36 bd ab 3e e5 bb b3 e8 96 3d a3 10 96 3d
       -0.044555172 -0.006995996 0.073686026 0.07327392
0003f0 ef b9 8f ba 10 97 d7 3d af 4f d7 3d b2 e6 18 3d
       -0.0010965447 0.1052686 0.10513245 0.037329383

sequential/dense_1/MatMul f4 [61, 128]
000000 02 8b cf bd 5e 91 3d bc 46 26 14 3e 51 b5 2c 3d
       -0.101339355 -0.011570303 0.14467725 0.042165104
000010 d7 17 c0 bd 64 a3 c6 3d e9 e0 72 3d bb f8 cd bc
       -0.09379547 0.09699133 0.059296522 -0.025143018
000020 93 44 74 3d ae ac ac 3d 41 ae 0c bc ee ab e7 3c
       0.05963571 0.084313735 -0.008586467 0.028280225
000030 30 00 3d be dd 45 a8 3c 38 98 df bc 46 45 2a bc
       -0.18457103 0.020541126 -0.027294263 -0.010392493
000040 28 05 29 be a4 4d e0 3d 70 45 2e bd 73 e3 12 be
       -0.16505873 0.10952309 -0.04254669 -0.14344577
000050 c1 4a 1b 3e fa 62 3d 3d 59 8c 8c bd 2a 7c fb bd
       0.15165235 0.04623697 -0.06862707 -0.12279542
000060 e5 b9 ee 3d 42 dd b3 bd 3f bf 0a 3e 24 6e 7e 3b
       0.1165655 -0.08782436 0.13549517 0.0038822973
000070 f0 5a c1 3d 1f 2e 21 3c 60 cf 0f bd 7c 2d 92 bd
       0.09441173 0.009837656 -0.035109878 -0.07137582
000080 aa 11 24 be 83 78 5a bd 4a 7f d0 bc d3 17 10 3e
       -0.16022363 -0.053337585 -0.025451321 0.14071588
000090 51 36 24 3d ef fc 23 be 73 81 56 bc 1e 76 32 be
       0.040090863 -0.16014455 -0.013092387 -0.1742787
0000a0 41 c8 15 be 08 5d 27 be 21 37 bb 3d 92 60 9c bd
       -0.14627172 -0.16344082 0.091413744 -0.07635607
0000b0 82 e4 1a bd a6 e0 e0 3b 9d 78 24 3e 16 37 56 bd
       -0.03781558 0.0068627177 0.16061635 -0.052298628
0000c0 4d df 0b be aa fa 32 bd 8a 74 75 3d 26 8f fc bd
       -0.13659401 -0.043696083 0.059925593 -0.12331991
0000d0 64 78 98 bd fb ed 64 bc b1 66 da bd 8a a7 ac bc
       -0.07444838 -0.013972755 -0.10664118 -0.021075983
0000e0 f0 c8 e8 bd e3 53 a4 bd 5b a4 cf 3d 7d 89 44 3d
       -0.11366451 -0.080238126 0.1013877 0.04798268
0000f0 7d a0 2a be b9 0b c0 bc 37 1a 0c 3e cf c4 30 bd
       -0.16662784 -0.02344309 0.13681875 -0.04315644
000100 3b 10 b0 3d 50 5d a1 3c 43 3a 4e bd 08 1b 74 bd
       0.08596846 0.019697815 -0.05034853 -0.05959609
000110 5b 63 e8 bd 18 60 2b bd 80 b5 0f be 21 65 3b 3e
       -0.113470756 -0.04183969 -0.1403408 0.18300296
000120 7e b0 97 bd c7 ad a4 3c b6 fb 95 3d 9c 6d dc 3d
       -0.0740671 0.020102395 0.07323401 0.10763094
000130 96 bd 7a 3d 25 6a 9f bc 57 19 1d 3e fd 5d 46 3d
       0.06121596 -0.019459793 0.15341698 0.048429478
000140 0d 88 9c 3c 73 b0 0f bd 64 db e4 bd 09 dd 2c 3e
       0.019107843 -0.035080384 -0.11174658 0.16881193
000150 d8 6f 85 3d 9e 48 dc 3d 7f 28 ea 3c 40 33 5c bc
       0.06515473 0.10756038 0.028583763 -0.013439953
000160 17 e5 0b 3e d9 d4 16 3e 45 26 2f be f8 b9 67 3d
       0.1366161 0.14729632 -0.17104442 0.056573838
000170 5d c6 01 be f3 23 1c 3d 10 d1 24 be 44 1d d7 3d
       -0.12673326 0.03812022 -0.16095376 0.10503629
000180 00 b5 a8 3d 7e 06 99 bd e4 c7 3a be b8 89 07 be
       0.08237648 -0.074719414 -0.18240315 -0.1323613
000190 67 b1 00 bd 7c d4 1b be 73 dc d5 3c cf ad e5 3c
       -0.031419184 -0.15217775 0.026106095 0.02803698
0001a0 5b 35 bf 3d af 94 54 3d 9e c0 27 3d 7a 33 10 be
       0.093363486 0.05189961 0.04095518 -0.14082137
0001b0 19 e9 22 3e 24 8f f2 bd 9f 2d 2b be 5a 12 e3 bd
       0.15909232 -0.11843708 -0.16716622 -0.11087485
0001c0 d8 5b c9 bd 30 34 e3 bd 61 cc 3e 3d a0 1f 18 3d
       -0.09831971 -0.11093938 0.04658163 0.037139535
0001d0 9a 1d 78 3c 84 fa 3e be d4 d7 49 be 41 dd de bd
       0.015143776 -0.18650252 -0.19711238 -0.108820446
0001e0 26 e4 db bd 79 58 c2 bd 5b eb f3 bd 3a f1 59 3d
       -0.10736875 -0.09489531 -0.11910125 0.053208567
0001f0 8d 89 80 3d 48 4f 37 be ec 0d b7 3d d2 fe cf bd
       0.06276236 -0.17901337 0.08938202 -0.10156025
000200 ca 7e 20 3d ef e5 77 3d 4d b0 67 bc 2f 8e 45 bd
       0.039183415 0.060522016 -0.0141411545 -0.0482313
000210 67 f0 f8 bd b9 f3 2c 3e 5a 0f f6 bd 15 36 30 bd
       -0.12155228 0.16889848 -0.12014647 -0.043020327
000220 75 b1 ae 3d 6b f6 a4 3d bb 82 da bd a2 03 a9 3d
       0.08529941 0.08054813 -0.10669466 0.08252646
000230 e4 a0 9f 3d aa 52 41 3a 1b ee de bc b7 5c 0d 3e
       0.07794359 0.00073746836 -0.027213147 0.13804899
000240 9e 4a 11 be ab 38 ed 3d 26 9a 21 3e 4f de e9 bd
       -0.1418862 0.11583074 0.15781459 -0.11419355
000250 d9 1a c3 bd 0b 3f e5 bd 69 a3 26 be 00 39 a5 3a
       -0.09526605 -0.11193665 -0.16273274 0.0012605488
000260 81 7e 10 be 44 0a 73 bd c0 64 d6 3d 5d 8b 18 3e
       -0.14110757 -0.059335962 0.10468435 0.14896913
000270 cd 85 32 3e 80 e8 24 3e 38 50 92 3d 89 c0 a4 3c
       0.17433853 0.16104317 0.07144207 0.02011134
000280 c3 23 04 3e 11 5d ba 3c 66 64 b1 3b 66 de 05 3d
       0.12904267 0.022749456 0.0054135798 0.0326828
000290 85 42 0e be 5d 79 16 bd e9 f0 ed bc 9b 39 5e bd
       -0.13892563 -0.036736835 -0.029045539 -0.054254156
0002a0 26 3b e4 3d e7 fc 5d 3d 7a 7d 3b bc 4b 39 c9 3d
       0.11144094 0.054196265 -0.01144349 0.09825381
0002b0 c5 48 e1 3d e5 06 af bd e1 dd 8f bd 6b 7c 04 be
       0.11000208 -0.08546237 -0.07024742 -0.12938087
0002c0 43 c2 ba 3d 9b 4d 04 3e 74 16 00 be af 1c c2 3d
       0.09119084 0.12920229 -0.12508565 0.09478127
0002d0 fd 19 d1 3c d3 0f 26 3e 0b 93 f6 3d 41 e3 d6 bb
       0.025525087 0.16216974 0.12039765 -0.0065578525
0002e0 cf 37 24 be 06 45 0d 3e ea 40 13 bb 72 93 19 be
       -0.16036914 0.13795862 -0.0022469112 -0.14997652
0002f0 1c 8a 13 3c a2 89 19 be be b5 85 bd cf 77 f5 bd
       0.009005096 -0.14993909 -0.06528805 -0.11985742
000300 65 60 28 bc 84 b2 2c 3e d5 92 45 38 e5 7c 11 bd
       -0.0102768885 0.16864973 4.7105208e-05 -0.0355195
000310 5e 66 14 be b2 99 65 bd c7 bf 20 be 77 58 91 bc
       -0.14492175 -0.05605478 -0.15698157 -0.017742379
000320 fb f4 f9 bc 21 43 e6 bc d6 64 fe bd 6c 0e 49 3c
       -0.030512324 -0.028108181 -0.12421577 0.012271505
000330 2b 3a 3f 3e 7e 05 a8 bd 3d a7 c5 3a fe 16 14 be
       0.18674533 -0.082041726 0.0015079748 -0.14461896
000340 fa 63 25 3e 45 dd 19 3e 90 52 0a bd 2d 52 b7 bd
       0.1615142 0.15025814 -0.033770144 -0.08951221
000350 ba 39 25 3e 08 1d 6b 3d 62 25 45 bd 96 ed 6e bd
       0.16135302 0.057400733 -0.048131354 -0.05833205
000360 f1 15 db bd f7 18 59 bd dc 9e 11 ba 91 4e 79 bd
       -0.10697544 -0.053002324 -0.0005554983 -0.060865942
000370 f0 2a f6 bd 77 78 29 bd f6 3f e8 bc 57 bf 01 be
       -0.120199084 -0.04137465 -0.028350811 -0.12670647
000380 81 39 0a 3e 90 b7 ba bd dd 54 cd 3d 48 50 07 be
       0.13498498 -0.09117043 0.10025952 -0.13214219
000390 4a 67 47 be 45 25 44 3a 16 d2 33 bd 9b 0e b3 3b
       -0.19472995 0.000748236 -0.043901525 0.0054643876
0003a0 6d 44 cd 3d 25 66 96 bd b2 2f 2b bc bb b8 8e bd
       0.10022817 -0.07343701 -0.010448383 -0.06968828
0003b0 1f ae c7 bc 70 38 2f 3c 96 d9 cc 3d 4d 57 d1 3d
       -0.02437502 0.010694608 0.10002439 0.102217294
0003c0 51 e8 18 be dd 37 be bd e7 0f fc 3d 1f a9 3c be
       -0.14932372 -0.09287999 0.12307721 -0.1842389
0003d0 fe 5d 3a 3e 59 61 10 3e 0a 1c e6 3d 67 7c ff 3d
       0.18199918 0.14099635 0.11235817 0.124749
0003e0 47 56 3a 3c 53 67 b5 bb 93 87 61 bd 81 d0 0b be
       0.011373109 -0.005535999 -0.055060934 -0.13653757
0003f0 4c a4 c7 3c 1d 2d 87 3d c0 3c b8 bc 8b d7 08 3d
       0.024370335 0.066004016 -0.022489905 0.033408683
