model.tflite (tflite, 523504 bytes, 10 tensors)

sequential/conv2d/Relu;sequential/conv2d/BiasAdd;sequential/conv2d/Conv2D;sequential/conv2d/BiasAdd/ReadVariableOp f4 [16, 3, 3, 3]
00000000: 1de5 d7b9 4174 96b9 0dc7 bd39 eeea 183a
00000010: fe1d b237 a847 8939 d964 b939 b9cc 10ba
00000020: cfc1 8939 ad21 0aba b245 ca37 ae30 b6b8
00000030: bd05 d139 7029 d439 6530 87b7 a3af d039
00000040: d6ec 5eb8 284c fd39 ab0c eb39 09e5 3037
00000050: 2f9b 453a 7c14 ae39 da77 543a c6a6 1c39
00000060: a01e b9b9 2ed3 0a3a 22d8 893a ab35 bc39
00000070: a8c9 f0b8 d159 06ba 8036 39ba fc65 91b9
00000080: 9e30 ef39 ab96 3eb8 5ecf 1eb8 32d8 dab7
00000090: 7f94 36b9 0660 373a 0d2a 263a eeca 3aba
000000a0: 454a 153a b139 3bb9 7299 f1b9 4c00 3e3a
000000b0: 864d 4e38 28bd 30ba 09fa 373a 26a2 c839
000000c0: bf73 4d3a 3a71 ebb6 ee91 7b3a d5b0 b8b9
000000d0: 7b14 aa39 fba1 91b9 59d5 2ab9 fa96 5b3a
000000e0: d222 b539 bb17 1dba e4eb 9339 44d6 e0b9
000000f0: 6ccc 5b3a 7232 123a a7e4 0b3a 091b 27ba
00000100: 3ebb 07b9 a7fb 583a 93cf 4cba fbbb 04b9
00000110: 576f fc39 935d 26ba 41ff 6eb9 b206 4e3a
00000120: e8d2 d0b9 f1a4 1f3a 53e1 4d3a 3a66 bbb9
00000130: 8600 3939 8e20 2c3a 2e54 4639 fe89 b6b9
00000140: 6a47 81b9 961b 3b3a a31c 0c3a 4d20 d639
00000150: 1e67 8b3a 1c10 6b3a 5fc6 1d3a 80be 7e3a
00000160: 38e9 abb9 162f ac37 6e9e c839 f985 e8b9
00000170: 56ea 3239 500f f439 f35c 50b9 17f1 f539
00000180: 4740 fd39 e23a c139 89fd e0b9 1753 033a
00000190: dfb8 6db9 4d84 1fba 7a8e 573a 0a00 873a
000001a0: 9cf2 563a f5cc b539 16d0 bbb9 82bc bc38
000001b0: 7170 6cb9 3eb7 aeb9 cf85 7c3a a0f8 a539
000001c0: 4b15 733a 141c 853a 8460 013a 9189 003a
000001d0: 343d a639 6068 a539 6177 223a 927c c039
000001e0: 0f09 783a 9f6f 33b9 81d7 4a3a 8dea 203a
000001f0: c5a7 8e3a 1e2f 72b9 9496 c139 d357 30b8
00000200: 3616 9939 467a 56b9 8d2d e0b7 4ccf 223a
00000210: 569b 6d3a 582a 093a 9adc 8b3a c60f 86b8
00000220: 5852 3c3a cdae 673a 1c18 dab9 3393 9837
00000230: 6eeb 643a 5073 563a b4ad 7d39 59e5 613a
00000240: 57bc 20ba 5c2a 5039 53c9 02b8 0cc3 4139
00000250: 3a45 0e3a 0873 c9b6 8325 f5b8 a5cc 6bb9
00000260: 1c48 373a eeee 203a 5557 5e3a 49f7 5e3a
00000270: dee8 88b9 cadf 0e3a c803 4e3a 9d6b e3b9
00000280: 1479 503a 064c 393a 51c2 07ba 73ab a439
00000290: ed1c 243a d263 5139 68ba 1e3a 55f1 fe39
000002a0: 1014 97b9 7b66 61b9 ec2a 223a ed31 cf37
000002b0: 070f 343a 1e7a 103a a83e 223a f7d7 c3b9
000002c0: 023b 1f3a 53e0 4b39 d2e5 7e3a 5873 813a
000002d0: 3e2e 4a3a f2eb fa39 a5b0 d337 443b a0b9
000002e0: c49a 7eb9 4272 0a39 afd9 193a 9714 71b9
000002f0: 55e0 843a 6973 e6b9 16aa 353a 4433 fa39
00000300: 6f3e 7f37 06f0 8db8 f329 643a a27b 7fb9
00000310: a3f1 3c39 5d19 2ab9 ddcc a0b9 c051 ba39
00000320: 2cf8 d1b9 647c d9b9 2c9b 543a 2b38 e139
00000330: 54d8 2839 bd56 6c3a e0e1 d5b9 d801 dbb9
00000340: b13a 193a 7ac4 40b9 d7db fa37 797a b4b7
00000350: 27f9 f1b9 c86d 053a c2c5 aab9 4e72 a037
00000360: 32f2 073a 970d e1b8 1c4f 9cb8 cd63 dd38
00000370: 32ff 9db7 f58d 9ab9 0c70 b9b7 00ae 8cb9
00000380: e86c 313a 38e5 f0b9 686f 323a 8174 9238
00000390: 6591 1e3a c795 463a 58e5 623a 4f85 55b8
000003a0: 9ac9 5f3a 71d5 b439 f4e2 59b9 b4ae 343a
000003b0: 0907 9038 83a3 563a 3d44 e239 7017 ae39
000003c0: 5049 2b39 8625 203a 9cca 483a 0a89 393a
000003d0: f332 433a 9d57 333a 49a6 e7b9 6217 8bb7
000003e0: caa9 f7b9 c60c 45ba 7b6e 28ba 95dd f538
000003f0: 1e48 9eb9 cbcd 0738 c994 733a 0d4f ffb9
-0.00041178698 -0.00028696845 0.00036197194 0.0005833347 2.123322e-05 0.00026184064 0.00035361087 -0.000552367
0.00026275075 -0.00052693003 2.411273e-05 -8.6875036e-05 0.00039867862 0.00040466664 -1.611579e-05 0.0003980371
-5.3149495e-05 0.0004831266 0.0004483213 1.0543744e-05 0.0007538078 0.00033203128 0.00081050175 0.00014939447
-0.00035308767 0.00052957505 0.0010516683 0.0003589814 -0.00011481653 -0.0005125078 -0.0007065311 -0.0002773254
0.00045621855 -4.543985e-05 -3.786326e-05 -2.6088299e-05 -0.00017412192 0.00069952046 0.00063386635 -0.0007125576
0.0005694966 -0.00017855201 -0.00046081428 0.0007247969 4.9186427e-05 -0.00067420537 0.0007018154 0.00038267783
0.0007837377 -7.016727e-06 0.00095966354 -0.00035226965 0.00032440186 -0.0002777724 -0.00016291942 0.0008376684
0.00034548953 -0.0005992611 0.00028213777 -0.0004288425 0.0008384648 0.0005576975 0.0005336501 -0.0006374573
-0.00012944356 0.0008277245 -0.00078129134 -0.00012658529 0.0004814814 -0.0006346341 -0.00022792538 0.0007859274
-0.0003982999 0.0006089947 0.00078537053 -0.00035743584 0.0001764317 0.00065661303 0.00018914111 -0.00034816557
-0.00024658005 0.00071375945 0.00053448434 0.00040841327 0.001063559 0.0008966939 0.00060186343 0.0009717718
-0.00032789423 2.0525924e-05 0.00038265012 -0.00044350306 0.000170627 0.00046550715 -0.00019871052 0.00046909667
0.0004830381 0.000368557 -0.00042913508 0.0005009635 -0.00022670951 -0.0006085083 0.000822283 0.0010299694
0.0008199604 0.00034675715 -0.00035822456 8.999651e-05 -0.00022548602 -0.00033324392 0.0009632976 0.00031656493
0.0009272887 0.0010155463 0.00049353414 0.00049033115 0.00031707587 0.00031549018 0.00061975984 0.00036713906
0.0009461799 -0.00017112352 0.0007737801 0.00061384664 0.001088374 -0.00023096471 0.00036924018 -4.2043463e-05
0.00029198983 -0.00020454181 -2.6724092e-05 0.0006210699 0.00090639794 0.0005232445 0.0010670603 -6.392556e-05
0.0007183901 0.0008837998 -0.00041598163 1.8188357e-05 0.00087325915 0.0008180635 0.0002419267 0.00086172443
-0.00061315804 0.00019852206 -3.1181913e-05 0.00018478575 0.00054271857 -6.003658e-06 -0.000116894975 -0.00022487582
0.0006991641 0.0006139119 0.00084816414 0.0008505476 -0.0002611344 0.0005450217 0.000785884 -0.00043376992
0.00079526124 0.00070685183 -0.0005178797 0.00031408257 0.0006260414 0.00019968979 0.00060549984 0.00048626462
-0.00028815912 -0.00021495849 0.00061862054 2.4699571e-05 0.00068686943 0.0005511361 0.0006189146 -0.00037354205
0.00060741615 0.00019443156 0.0009723577 0.0009876294 0.0007712579 0.0004785951 2.5235417e-05 -0.00030561734
-0.00024280982 0.0001320327 0.0005868924 -0.00022991221 0.0010137657 -0.00043955006 0.0006929947 0.00047721912
1.5213721e-05 -6.768112e-05 0.00087037607 -0.00024364752 0.00018019094 -0.00016221912 -0.00030670213 0.00035537593
-0.0004004849 -0.00041482144 0.00081102806 0.00042957193 0.00016102317 0.00090156106 -0.00040794816 -0.0004177231
0.00058452325 -0.0001838374 2.9904693e-05 -2.1514703e-05 -0.00046152735 0.0005089906 -0.00032572268 1.9126714e-05
0.0005185931 -0.000107313674 -7.453395e-05 0.000105566905 -1.8834693e-05 -0.00029478935 -2.2105894e-05 -0.0002683252
0.00067682425 -0.00045947148 0.0006806762 6.983523e-05 0.0006048887 0.0007575419 0.00086553907 -5.090731e-05
0.0008536816 0.00034491302 -0.0002077928 0.0006892488 6.8677655e-05 0.00081878173 0.0004315692 0.00033205329
0.00016335142 0.0006109107 0.00076595857 0.00070776104 0.00074462517 0.00068413635 -0.00044183646 -1.658098e-05
-0.00047238014 -0.0007516857 -0.0006425154 0.00011723783 -0.0003018984 3.2378168e-05 0.0009291885 -0.00048696288

sequential/conv2d/BiasAdd/ReadVariableOp f4 [16]
00000000: 39a8 9c3b 3578 253d d549 b53c f57c 32bd
00000010: 18d0 6bbd 5671 42bb e69a 15bd c611 0c3d
00000020: c628 bfb9 cf0c 373d 16b4 c9bb 0c32 51bd
00000030: 6f72 a93d 2dcf 7dbd e476 493d f410 a23d
0.004780796 0.04039784 0.022129932 -0.0435762 -0.0575715 -0.0029669604 -0.036524676 0.034196638
-0.00036460737 0.04468995 -0.006155501 -0.05107312 0.082737796 -0.061965156 0.04918565 0.0791339

sequential/conv2d_1/BiasAdd/ReadVariableOp f4 [32]
00000000: 37cd 24bd f7b9 7bbb 13aa 683d e97d df3c
00000010: c29c 27bd 7aab cf3c 8d41 e43b 17ba 423d
00000020: f06e 14bd 5ce2 0e3d ad22 d53b f5c1 c9bc
00000030: 905d c6b9 c3ee a13c 634b a1bc bdca b1bc
00000040: 5c85 8cbc c03a f4bc eec9 e3bb 4058 033d
00000050: 61fb 273c a5a6 aabc 300a ecbc 63f6 0ebd
00000060: a4fd 06bd 8801 82bc 328e 623c e93d 9a3c
00000070: 9fb4 123d 6a43 1abd 1371 2abc 6331 043d
-0.04023477 -0.0038410404 0.05680282 0.027281718 -0.04092098 0.025350321 0.006965822 0.04754075
-0.03623861 0.034883842 0.006504378 -0.024628619 -0.00037835212 0.01976717 -0.019689268 -0.021703118
-0.017153434 -0.02981317 -0.006951562 0.032066584 0.0102528045 -0.020831415 -0.028813452 -0.03490294
-0.032956734 -0.01586987 0.013827847 0.01882835 0.035816785 -0.037661947 -0.010402936 0.03227366

sequential/conv2d_2/BiasAdd/ReadVariableOp f4 [64]
00000000: 2ae2 b3bc db07 933c c8d2 dfbb 30e2 8cbb
00000010: e0da acba 1f11 19bb 9cb5 0a3c b2b0 e8bb
00000020: 5c93 03bc 8f61 71bc a9b5 9dbb 8148 d4bb
00000030: 7d02 a4ba 0b12 173c 5057 3bba 4e85 983b
00000040: 8276 423c b902 a83b be81 b0bb fbdc 89bc
00000050: 80a5 58bc ccbf 36bc f9e8 bcbb d680 de3a
00000060: 22ad 103c 8b17 2f3c 7bd4 aa3b f43d a13b
00000070: 206c 573c 3574 5fbc 2006 ea3a c4b5 a83b
00000080: 5872 e1bb 2207 1b3a 5b85 9abb 85a2 b53b
00000090: 92c3 b73a 20c6 633b 9220 aebc 4aa9 63bb
000000a0: 3a19 043c 9ce4 cbbc 6de0 3a3c bb4e 823c
000000b0: ffdc 1abc d6ba 32bb 8e14 b3bb 7e90 a83c
000000c0: 3897 82b9 a0fe e6bb e4a7 81bb 7824 e7bb
000000d0: d63e dcbb 0010 72bb fd4d 8ebc ab09 80bc
000000e0: 8843 f1bb c953 8cbb cf86 8f3b 35f6 033d
000000f0: 45a9 6dbb 806d 58bc 5c2e c93c 94f0 843b
-0.02195843 0.017948082 -0.006830547 -0.0042994246 -0.0013187788 -0.0023356152 0.008466151 -0.007101142
-0.008030739 -0.014732732 -0.0048129153 -0.0064783697 -0.0012512949 0.00922061 -0.00071464945 0.004654563
0.011869075 0.0051272777 -0.00538656 -0.016829005 -0.013223052 -0.011154126 -0.005765077 0.0016975652
0.008830341 0.010686765 0.005213318 0.0049207155 0.013148338 -0.013638546 0.0017854609 0.0051486213
-0.006880086 0.00059138436 -0.0047156042 0.0055430555 0.0014020076 0.0034755543 -0.021255765 -0.0034738355
0.008062655 -0.024889283 0.011406046 0.015906682 -0.009452104 -0.0027272007 -0.005465097 0.020576712
-0.000249082 -0.0070493966 -0.0039567817 -0.007053908 -0.006721358 -0.0036935806 -0.017371172 -0.01562961
-0.0073627867 -0.004282449 0.004380084 0.032217223 -0.0036264223 -0.013209701 0.024558239 0.0040569995

sequential/conv2d_1/Conv2D f4 [32, 3, 3, 16]
00000000: e879 6f3d 7b7a efbd e4c2 c03c 8a65 d63c
00000010: f430 dd3d b5ef b9bd dc81 2abc 1930 6f3d
00000020: f98a b53d 4380 49bd fdd6 943d c220 603d
00000030: 93b5 97bd 9b5c eebc 8a09 843d e201 d23d
00000040: f4cf 193e b9ef c63d b249 36bd be7d df3d
00000050: 5acf e13d f16c 093e e629 c13d 5cc3 a03c
00000060: 4be0 d93d af81 f3bd a693 1cbc f6de 613c
00000070: a167 e1bc e8b3 273e 6da0 d4bc 03e5 30be
00000080: 66e2 383e f4ba 853d 52c1 b5bd f9f5 803d
00000090: efd3 293e 372d 0d3e 278c 173d a403 bd3d
000000a0: c1f4 1e3e e5bd 1bbe 674e e5bc 35d7 0e3e
000000b0: 5a13 e2bd 00ac 113e fbed bdbd 8c46 8fbd
000000c0: b8b7 4cbd fec5 cf3b 1d1c eebd aeea 85bd
000000d0: 4b1e 9fbd 8d2e 83bd 62ca d53d 77ee 613d
000000e0: 639b da3d 4f03 b1bd f415 92bd 9490 be3d
000000f0: b2f1 ac3c 5575 5e3d 685d 46bd f5d1 9bbd
00000100: a498 023e 218b d93c 8b64 8cbd 4781 b23d
00000110: be03 133e 9131 0f3e dfc2 85bd f072 da3d
00000120: 4abb 7dbd 2f27 e1bd a288 5b3d 183e 553d
00000130: 3818 32be 7099 103e fcb4 23be da2e 05be
00000140: ccf3 92bc a6c4 d23d e057 4ebb d57d e83d
00000150: a6e6 0bbd 0550 c7bc 5fdf 743d 9fbb 00bb
00000160: 9a32 653b 822a a5bd 0530 ec3d d9e0 743c
00000170: 901f 3dbd bca9 083e d0c2 a33d ef28 97bd
00000180: fb5d 3a3d 4066 8d3c 939f 9b3d 4fba fa3d
00000190: 0fb8 aebc 197c b3bc c9c5 6e3d 0a30 b23d
000001a0: 9ee8 e3bd d1bf 1dbe c897 25bd b91a 49bd
000001b0: 9ff7 c5bd 79d4 74bd ccef fdbd 4858 893d
000001c0: d74c b83d 84ac 16be 7ff7 e4bd 2028 da3c
000001d0: d12f 213c 322a 173e bda3 3f3d b629 b93d
000001e0: 512f 8a3d f614 20bd 3027 713d 748a 2cbd
000001f0: 2837 20be 2f5d f53d 49be 16be 2cc5 0fbe
00000200: 2c74 f6bd 0273 a03d d5fe 583d 7c11 263d
00000210: 1264 073e a2c8 863c 7118 72bb b327 323d
00000220: fa83 abbd d1d3 293d 9187 20bd bb90 9abc
00000230: bb78 bebd ca5a b7bc f90c 31bd c9f3 cb3d
00000240: 229d f03d a515 283e c31a 0e3e 884a e13d
00000250: 5824 203e bddd 543c dbcc 02bb 3585 b73c
00000260: 4cc2 da3d e002 a03d 3626 7dbd 453f 143e
00000270: 017c 523d 133a 163d 6900 4d3d 957a 613d
00000280: 3ec0 1f3e b197 8f3d 2f70 de3d 0aba dbbd
00000290: 18c9 673d 48e1 103e fb48 243e 36f9 a53d
000002a0: 674f c83d 17a4 353c b8bc f23d 98fb 7ebd
000002b0: 9da2 6dbc b3c9 b5bd 809d ad3d b1ac 183d
000002c0: b52e ea3d e544 ef3c 10f4 843d b00a bfbd
000002d0: 54f4 353d 7ba5 923d 2e2e e2bc 5091 133d
000002e0: 9966 e03d 9f05 90bd 57c2 1fbe 3386 3e3d
000002f0: d4c6 a1bd 8722 b3bd 3593 c93d bdba 86bc
00000300: 29c4 753d 8e93 cc3c 4889 a23c 9495 ac3d
00000310: 102f 113e dd72 db3d a784 6ebc 938c bd3c
00000320: c1dd 163e e83d 783d ef4c f73d 1660 44bd
00000330: 7197 10be a58f c3bc 52ea eaba 66c6 c03d
00000340: b3c3 5dbc a965 b43b f609 733c 7262 2e3d
00000350: a266 d43d 1384 0f3d ead1 a3bc 87cd 663d
00000360: 67a1 503d 6b15 fb3d a147 c13d 54c8 c93c
00000370: ea70 0c3c 50bd b13d a45d 4a3d c395 a13d
00000380: b3af c73d 3e26 87bd 42c7 803d 51e3 77bd
00000390: e10f 3cbd 2b53 753d 38e8 6a3c db5c 27bd
000003a0: e79c a53c 1636 113e d522 2abd a96c 8c3d
000003b0: f7a6 b4bc f29f 3cbd d834 9e3c 94ee ed3d
000003c0: e344 da3d b5dd 84bc f0ae 1f3e 23d9 a23d
000003d0: 0449 1f3d beb3 fb3d 5f85 303e a2b9 a63c
000003e0: cd2c 82bd e17d e43c 3f29 8f3d bb49 583d
000003f0: f0a4 cabd cdf1 1d3d 662b bfbd 1976 063d
0.05846587 -0.11693283 0.023530431 0.026171464 0.10800353 -0.090789236 -0.010406937 0.05839548
0.088643976 -0.049194586 0.07267568 0.05471874 -0.074076794 -0.029096892 0.06447132 0.10254265
0.15020734 0.09713692 -0.044503875 0.10912655 0.11025877 0.13420464 0.094318196 0.019624405
0.106384836 -0.118899696 -0.0095566865 0.013786068 -0.027515234 0.16377223 -0.025955403 -0.17274861
0.18055114 0.06529799 -0.088747635 0.062969156 0.16584753 0.1378678 0.036998894 0.0922921
0.15523054 -0.15209158 -0.027991487 0.13949282 -0.11038847 0.14225769 -0.09273907 -0.069958776
-0.049979895 0.006340741 -0.11626456 -0.06538902 -0.0776945 -0.06405363 0.10438992 0.05515906
0.10674169 -0.08643209 -0.071330935 0.0930492 0.021111343 0.054311115 -0.048428923 -0.076084055
0.1275354 0.0265556 -0.068551145 0.08716064 0.14356896 0.13983752 -0.06531309 0.10666454
-0.06194619 -0.10993802 0.0535971 0.05206117 -0.17392051 0.14121032 -0.15987009 -0.13006154
-0.017938517 0.10291414 -0.0031485483 0.113521256 -0.03415551 -0.024330148 0.059783336 -0.001964308
0.0034972788 -0.08064748 0.115325965 0.014946186 -0.04617268 0.13345999 0.07996142 -0.07380854
0.045499783 0.01726067 0.07598796 0.12242567 -0.021328 -0.02190976 0.05829409 0.08700569
-0.111283526 -0.15405203 -0.040427953 -0.04909775 -0.096663706 -0.059772942 -0.12399253 0.067062914
0.08999031 -0.14714247 -0.11180019 0.026630461 0.0098380605 0.1476219 0.046787012 0.09041159
0.06747306 -0.03908249 0.058875263 -0.042124227 -0.1564604 0.11980664 -0.14721026 -0.14040059
-0.12033877 0.07834436 0.0529774 0.04054402 0.13221768 0.016453091 -0.0036940838 0.04349489
-0.08374782 0.04146177 -0.039191786 -0.018867841 -0.09300371 -0.022382159 -0.043225262 0.09958608
0.11748721 0.16414507 0.13877396 0.11000544 0.15638864 0.01299232 -0.001995853 0.022402385
0.106815904 0.07813048 -0.06180402 0.1447726 0.05138779 0.036676478 0.05004922 0.055048544
0.15600678 0.07011355 0.10861241 -0.107288435 0.056588262 0.14148438 0.16043465 0.08104174
0.0978077 0.011086485 0.118524015 -0.062251657 -0.014504102 -0.08876362 0.08477306 0.037274066
0.1143469 0.029207656 0.06491864 -0.0932821 0.044422463 0.07160469 -0.02760991 0.036027253
0.10957069 -0.07032322 -0.15601479 0.0465147 -0.078992516 -0.0874682 0.09842531 -0.016446466
0.060001526 0.024972703 0.019840851 0.08426967 0.14178109 0.10715268 -0.014557994 0.02313832
0.1473303 0.060605913 0.12075221 -0.047943197 -0.1412027 -0.023872206 -0.0017922616 0.094128415
-0.013535428 0.005505283 0.014833918 0.042574354 0.10371138 0.035038065 -0.019997556 0.05634835
0.050935175 0.122599445 0.0943749 0.024631657 0.008571843 0.086786866 0.04940571 0.07889893
0.09750309 -0.06599091 0.062880054 -0.06051952 -0.04591358 0.05989377 0.014337592 -0.04086004
0.020216418 0.14180788 -0.041537125 0.06856663 -0.022052271 -0.046050973 0.019312307 0.11617771
0.1065767 -0.016219 0.15594077 0.07951572 0.038887993 0.122901425 0.17238377 0.020352188
-0.06356201 0.027892055 0.06990289 0.05280469 -0.098947406 0.038560677 -0.093344495 0.03282747

sequential/conv2d_2/Conv2D f4 [64, 3, 3, 32]
00000000: 5942 953d 3424 04bd cb1f b13c fc1a 10bd
00000010: 5046 4bbb 27a1 a43c be34 81bd 3bba b6bd
00000020: c4a1 8c3c 349a 79bd 6e50 5a3c 2e00 5c3d
00000030: e0e6 b2b8 32d3 e93c bce9 9bbc 9af5 ffbc
00000040: 642e 843c 64d5 8c3d 6be0 92bd 0503 c13c
00000050: 214a c3bd 330c 0b3c 31ba d739 4120 b63d
00000060: 0d44 1b3d 108a 93bb 71c1 d13d c75b 39bd
00000070: 4fad 563d b3f8 96bd f1b8 123d e680 38bd
00000080: cf33 9f3d 105a 083d 96cf 66bd 6c15 d3bd
00000090: f30d bf3d 1f35 36bd 2d3d dbbd 19ee 793d
000000a0: 8eb3 a53d bbd6 563d 1a19 e2bc cdf7 a93d
000000b0: 0f79 a83d 8e73 8fbc feed 6d3d 0559 bbbd
000000c0: 3e09 443d 9a7c 4d39 7452 4ebc b353 993d
000000d0: a4d4 74bd 6d99 38bd 894d f53c e3aa 9c3d
000000e0: f68d 9d3d e920 0fbd 2772 df3c 2913 11bd
000000f0: 346b 21bd 3f2a 813d ec95 8a3d f832 c2bd
00000100: f3d2 193c 1b8e 033b 50b7 bcbd acf3 82bd
00000110: bf95 6abc 4d2d a73c 6739 75bc cb7f e93c
00000120: d1c0 883d bbb6 2bbd d60a d4bc 5f91 97bc
00000130: 5e96 52bd 9058 24bd 9f5b a1bc 4102 e23d
00000140: c419 173d 4597 003e 4bd1 6d3d abee 0cbd
00000150: be60 a3bc 5e2d 933d 2d4d 013d db54 6a3d
00000160: 4014 c3bc 0368 4fbc d941 2bbd b854 5a3d
00000170: b4db 31bd 4921 873d db3f a1bc 69c1 5a3d
00000180: b459 c13d 7408 6f3d 999a ecbc 2cac 47bd
00000190: 0abe 7bbd 8a01 6e3c 57df a3bd f6cb a83d
000001a0: f3f8 68bd 4866 ba3d f190 71bc baa1 8c3d
000001b0: ed0f 7c3d 01fb 56bd 7c89 bf3c 84cf c53d
000001c0: 92fa d93d 5d5a 673d e111 c1bd c027 86bd
000001d0: 4f37 34bc cb3f 8f3d 634e 093d daf0 d5bc
000001e0: d8b0 473c fef0 053d 493c 853d 6612 033c
000001f0: 46f0 91bd d134 263c c3f4 4b3d 4688 99bd
00000200: 0b46 fb3b 8d94 733d 98a1 b6bc 2f3e 5e3d
00000210: 767f b33d 44e2 5d3d bed8 d13c a92c f1bc
00000220: a217 2d3d fb57 a9bd a676 b3bd 07fc 8b3d
00000230: 8b63 9abc de38 b9bd f469 813d a18d 89bd
00000240: 44d5 b63c 16db 71bd 0a2b 863d 2dc4 f73c
00000250: 0bca e1bd 77b9 82bd 8aeb 32bc ba14 b53c
00000260: 57b8 403d 4c0f 3a3d 7aaa c8bc cad4 e9bd
00000270: b63c 8dbd 1757 143d 6afd 6f3d f675 e33a
00000280: f5b6 013e 8c4e d2bc 3c4b 253c bb34 b5bd
00000290: a927 c83d a5eb d03b 21aa 4dbd 6fef 323d
000002a0: a025 6f3d 9e37 06be 0f46 d13c 892a 0fbd
000002b0: e05d bb3c 5163 20bd e904 d73d 0602 b63d
000002c0: f362 aebd 7a29 883d e100 45bb 35ed fbbc
000002d0: bd42 33bd afa7 a13d d37a b3bc 3523 ab3d
000002e0: 813c 40bd 29c6 303d 001b d63c c12d d2bd
000002f0: 1444 7cbd ad24 683d 25be 993d f4a6 633d
00000300: ef8f aa3d e647 4e3d 8e0f a2bc 27f0 50bd
00000310: ea00 78bd 578b fabc db86 923d bd7b d4bd
00000320: 50cb 423b 7d29 3cbd 0cd3 77bc 36a3 11bd
00000330: be53 a43d 1a10 3b3d c104 e93d 4e76 f5bc
00000340: 6133 543d e6f3 93bb 3ee0 513d 2d47 85bd
00000350: 7195 0fbd fe4e bebb 43c9 4ebd 56a1 a63d
00000360: a7b2 313c b364 4cbd c079 023d f092 3e3c
00000370: ed9b 093d 1ead 37bd c071 fe3c 5e6c e93c
00000380: 135d fbbc 7a90 36bd 9fb7 95bd 39ca 213d
00000390: aaba dd3c c880 ddbd b39f 5abc 7e46 d2bc
000003a0: 41e0 a13d ca62 91bc cc1c b8bb 0412 123c
000003b0: 1a7c 89bd 3923 88bd 3d54 c4bc 6afe de3c
000003c0: cd2c 42bd 38ed 1fbc 679a a63d 78f8 4d3c
000003d0: 487f a8bd fc4f c43c 77b1 5f3d 2d39 fd3c
000003e0: 984d 1abd 30de c8bb 5c2b fcbc b380 123d
000003f0: 352a 45bc 65d9 9abd 3c90 88bc 5e6f f53c
0.072880454 -0.03226109 0.021621605 -0.035181984 -0.0031017251 0.020096375 -0.06308888 -0.089222394
0.01716698 -0.060938075 0.01332484 0.05371111 -8.530705e-05 0.028543089 -0.019032352 -0.031245042
0.016135402 0.068766385 -0.071717106 0.02356101 -0.09535623 0.008486795 0.0004114672 0.08892871
0.037906695 -0.0045025423 0.10241974 -0.04525354 0.052411374 -0.07371654 0.035820905 -0.045044802
0.077735536 0.033289015 -0.056350313 -0.1030682 0.093288325 -0.044484254 -0.10705028 0.061018083
0.08090888 0.052450877 -0.02759986 0.082992174 0.08226215 -0.017511155 0.058088295 -0.091478385
0.047860377 0.00019596741 -0.012592901 0.074866675 -0.059773102 -0.045068193 0.029944198 0.076497816
0.076930925 -0.034943495 0.027276112 -0.035418663 -0.039408877 0.06306886 0.067668766 -0.09482378
0.009388673 0.0020073715 -0.092146516 -0.06394133 -0.014317929 0.020407343 -0.014967299 0.02850332
0.06677402 -0.041922312 -0.025884073 -0.018501936 -0.051412933 -0.040123522 -0.019697009 0.11035586
0.036889806 0.12557705 0.058060925 -0.0344073 -0.019943591 0.071863875 0.03156774 0.05720983
-0.023813367 -0.012659076 -0.041810844 0.05330345 -0.043422416 0.065981455 -0.019683769 0.053407107
0.09440938 0.05835767 -0.028882312 -0.04874818 -0.061460532 0.014526734 -0.08001583 0.082420275
-0.05687804 0.0910154 -0.014744029 0.068667844 0.061538626 -0.05248547 0.023380987 0.09658721
0.106434956 0.05648266 -0.09427238 -0.065505505 -0.010999515 0.069945894 0.03352202 -0.026115824
0.012188159 0.03270053 0.06505639 0.007999992 -0.07125907 0.010144428 0.04979397 -0.07496695
0.007668262 0.05946784 -0.02229385 0.05425852 0.087645456 0.05417086 0.025616046 -0.029440241
0.042258866 -0.08268734 -0.08762865 0.0683518 -0.018846294 -0.0904405 0.06319037 -0.06716467
0.02231849 -0.059046827 0.06551178 0.030244911 -0.11024865 -0.06383031 -0.010920415 0.02210461
0.0470508 0.045424744 -0.024495352 -0.114175394 -0.06896345 0.036215868 0.058591284 0.0017353881
0.12667449 -0.02567222 0.010088738 -0.08847948 0.097731896 0.0063757473 -0.050211076 0.043685373
0.05838549 -0.13107154 0.025546102 -0.034952674 0.022871912 -0.039157216 0.104989834 0.08887105
-0.08514967 0.06648536 -0.0030060338 -0.030752758 -0.04376482 0.07893311 -0.021909153 0.083563246
-0.0469327 0.04315773 0.026135921 -0.10262633 -0.06158836 0.0566756 0.0750697 0.05557914
0.083282344 0.050361536 -0.019782808 -0.051010277 -0.060547747 -0.03058402 0.07154628 -0.10375164
0.0029723234 -0.045938004 -0.015126001 -0.03555604 0.08023785 0.045669653 0.1137786 -0.029963639
0.05180681 -0.004515159 0.051239245 -0.06507716 -0.035054628 -0.0058077564 -0.050484907 0.08136241
0.010845817 -0.04990072 0.03185439 0.011631712 0.033595968 -0.04484283 0.0310601 0.028494056
-0.03068403 -0.044571377 -0.073104136 0.039499495 0.027066547 -0.10815579 -0.013343739 -0.025668379
0.07904101 -0.017747302 -0.005618667 0.008915428 -0.067131236 -0.06647343 -0.02396595 0.027220923
-0.047406007 -0.009761147 0.08134919 0.012571447 -0.08227402 0.02396392 0.054612603 0.030911053
-0.037671655 -0.0061300024 -0.030782394 0.03576727 -0.012033989 -0.07560996 -0.016670339 0.02996033

sequential/dense/BiasAdd/ReadVariableOp f4 [128]
00000000: 0000 0000 544b 783c 690f 66bb 8810 a5bb
00000010: 90b9 adba a672 e73a ea44 0dbc 6ebf c4bb
00000020: 710a 193c 5840 b5bb d65d eb3a 08a5 213c
00000030: e67d c4bb ed40 ea3b c6c8 7cba 1732 09bc
00000040: 9e02 9dbb d38e d0bb 0058 563c b2c9 34bb
00000050: 9186 dabb 6f04 813c ce1a 8fbb 0000 0000
00000060: 58b1 edbb a7bf 013b df22 c8bb 7850 3e3b
00000070: 9844 4fbb 0215 ccbb 7917 99ba e2cd debb
00000080: 748c 243a 0f30 10bb 5b6e 073c c171 19bc
00000090: b34a a33b 3703 b6bb 84a5 763c 8ef2 103b
000000a0: fbad c33b 1f59 da38 0f68 d5bb 8a9e 953b
000000b0: b5e6 b83b 5312 a43b d852 acbb 72c6 b5bb
000000c0: 1343 163c a486 a5bb 7eeb aebb c6c6 1abc
000000d0: a656 803c 2423 9bbb c086 0dbc 0000 0000
000000e0: 2d10 f3bb c0bc c4bb d7c5 a5bb 3495 05bc
000000f0: 0000 0000 7249 d9bb 3ea6 85bb c99a 2cbc
00000100: fed5 f5bb 5e8c c4bb 4cc4 00bc e12f cbbb
00000110: 0000 0000 2177 2cbb c4c4 973b 60a1 ecbb
00000120: 5416 103c f9e0 07bc 5478 b8bb bdd9 c8bb
00000130: e9dc 3c3c 0000 0000 0ce5 92bb 7396 393c
00000140: 77a9 84bb ccba 37bc 0000 0000 0000 0000
00000150: e219 033c 1ba4 c0b9 f4ec 323c d413 e4bb
00000160: 0000 0000 b741 76bc 525f 4e3c cbab 2d3c
00000170: f425 803c 4b4b aa3c 3bd7 efbb f082 6c3c
00000180: 0000 0000 6897 f43b b900 36bb 5c3d 0ebb
00000190: c8f9 fb3b 63f4 b73c 4215 b7bb 56be b4bb
000001a0: 5ffe e23a 0000 0000 9cbb c4bb 3ea0 be3b
000001b0: 0000 0000 67f9 07bc b63d 70bb 78db 5b3b
000001c0: 1355 bebb 4cac 833b 7a85 edbb 2be7 88bb
000001d0: 76bf 1b3c 82e0 053c f623 21bb d140 64bc
000001e0: a212 c1bb 9ea4 f3ba 6f8b c4bb 83eb 373c
000001f0: 0000 0000 1d0d 48b9 18de 0abc ab47 a03b
0.0 0.015154678 -0.00351044 -0.005037371 -0.0013254154 0.0017658069 -0.008622387 -0.0060042655
0.009340868 -0.005531352 0.0017957042 0.009866007 -0.0059964536 0.007148853 -0.00096429547 -0.008373759
-0.0047915718 -0.006364682 0.013082504 -0.002758604 -0.0066688736 0.015749184 -0.004367209 0.0
-0.007253807 0.0019798072 -0.0061076726 0.0029039662 -0.0031626578 -0.0062280903 -0.0011679969 -0.0067994455
0.00062770327 -0.0022001301 0.008266057 -0.0093655 0.00498327 -0.0055545825 0.01505411 0.002211723
0.005971668 0.0001041165 -0.006512649 0.0045660185 0.005642737 0.005007067 -0.005258899 -0.005547338
0.009171265 -0.005051451 -0.0053381315 -0.009446805 0.015666317 -0.0047344137 -0.008638084 0.0
-0.0074177 -0.006003946 -0.0050589847 -0.008153249 0.0 -0.00663107 -0.0040786555 -0.0105349505
-0.0075023165 -0.0059981784 -0.007859301 -0.006200776 0.0 -0.0026316124 0.0046316106 -0.007221386
0.008794386 -0.008293384 -0.0056295786 -0.006129472 0.011527278 0.0 -0.004482871 0.011327374
-0.004048522 -0.011213969 0.0 0.0 0.008001776 -0.00036743362 0.010920752 -0.0069603715
0.0 -0.015030316 0.012595968 0.010600041 0.015643097 0.020787856 -0.0073193586 0.014435515
0.0 0.007464338 -0.0027771427 -0.0021704054 0.0076896884 0.0224554 -0.005587251 -0.005515854
0.001731824 0.0 -0.00600381 0.005817442 0.0 -0.008299208 -0.0036657876 0.0033547562
-0.0058084815 0.004018342 -0.0072485777 -0.004177948 0.009506097 0.008171203 -0.0024588085 -0.013931469
-0.005892114 -0.0018588488 -0.005998067 0.011225584 0.0 -0.00019078371 -0.008475803 0.004891356

sequential/dense_1/BiasAdd/ReadVariableOp f4 [61]
00000000: 6039 c33b ff72 dbb9 d0f1 c3ba e146 c43b
00000010: c4fc bdbc b9c4 f83b 2191 6fbc 14f0 2eba
00000020: 2973 223b 591f 4c3b 868e c1bb 11b1 48bb
00000030: 4eb7 473c 2f1f f6bb 930e afbc 2084 8fbc
00000040: 8b9b cdbb 5489 2b3b a191 2abb aee0 2fbc
00000050: aebe 893c 8550 98bc 2685 8fbc 58a4 923c
00000060: c956 573c 7294 07bc b9ee 663c e3f4 db3b
00000070: f032 98bc 96fe 693b 9aa7 b33b 784b bbbb
00000080: acd5 27ba a813 aa3c 0c2a 813c b0ba e1ba
00000090: bdd3 4c3c fffd 7b3a b1f0 febb 480d 0abc
000000a0: 76bf 57bc cb79 df3b 427b 75bc 7350 a23b
000000b0: 8c5a 85bc a769 8abc 6ad5 b7bc 6c80 ecbb
000000c0: b1d3 3f3c 46b4 a2ba a4c2 313b 3637 09bc
000000d0: 83d0 4a3c ddf0 363b 104e 10bc 99d3 bfba
000000e0: e565 f9ba edab 043c 8629 9e3a 1c26 3a3c
000000f0: 13ff 383c
0.0059577674 -0.00041856614 -0.0014949385 0.0059898947 -0.023191817 0.0075918105 -0.014622004 -0.00066733477
0.002478788 0.0031146614 -0.0059068827 -0.0030623118 0.012189699 -0.0075110416 -0.021369254 -0.017519057
-0.0062746457 0.0026174383 -0.0026026743 -0.01073472 0.016814556 -0.018593082 -0.017519545 0.01790063
0.01314325 -0.008275138 0.014095002 0.0067125424 -0.018578976 0.0035704724 0.005482626 -0.0057157837
-0.0006402384 0.020761326 0.01576712 -0.0017221775 0.012501654 0.00096127385 -0.0077801575 -0.008426018
-0.013168206 0.006819939 -0.014983 0.004953438 -0.016278528 -0.016896082 -0.022440631 -0.0072174575
0.011708186 -0.0012413345 0.0027124071 -0.00837498 0.012378815 0.0027914562 -0.008807674 -0.0014635205
-0.0019027559 0.008097631 0.0012066818 0.011361625 0.011291283

sequential/dense/MatMul f4 [128, 768]
00000000: ca6c d6bc 8e2e 063d 981f 6a3c 41d8 4cbd
00000010: fc32 6e3d c47b 5b3d a43b 86bd fa03 0bbd
00000020: cc9e 94bc 1e83 833d 40e5 38bc 9c55 a53c
00000030: 85b1 83bd 501d 44bc bff5 4fbd 7203 51bd
00000040: 34bf 6abd e292 c2bc 7c60 423d ce52 e1bc
00000050: 6090 8cbb af78 24bd 3e5b 35bd d81c 4e3d
00000060: 7020 bb3b 54b3 af3c 5fec 60bd e40d 83bc
00000070: 3080 94bd e2c1 1cbd ac6a de3c f0f4 293d
00000080: 38a5 473d d68a c0bc 76ec bcbc 5cd9 323d
00000090: 2f23 84bd 804e 17bb b458 3b3d fcad 42bd
000000a0: 30ce a33d 4998 84bd b2c8 9b3d b6b2 003d
000000b0: b4bf 483d 3063 533d de52 233d 5c73 123d
000000c0: 4018 813b e09c 3d3d fff9 3bbd 5c3a 973d
000000d0: da4d 953d 20b3 84bb d0bc 57bd fe2c d9bc
000000e0: d07b a43c 4cb2 51bd f226 a3bc 3f22 97bd
000000f0: f4af 83bd 1a54 203d 4b21 38bd 10bd a0bd
00000100: 4855 19bd 08dc c93c 6439 7a3d c89a 303c
00000110: 78bc 59bd 943e b13c d0bf 423d d070 57bd
00000120: e4c7 8bbd 34f2 a2bd ea1e 873d 5f8f 99bd
00000130: 60c5 013b f4dd 113d 3a8d a43d 28dd 8d3c
00000140: 24df 8d3d a829 99bc 88a3 dd3c c064 033c
00000150: 10b0 a03d 684d a13d 7826 453d 00c1 3eba
00000160: 90de 253c f3f1 1dbd 8e15 a13d b9dd 9abd
00000170: ae29 82bd 1eec f5bc b5cf 8fbd 9063 7b3d
00000180: 5089 d7bb 6e57 1b3d ead1 a03d e846 8a3d
00000190: f529 95bd da1b 88bd 207a 13bc f0a4 743d
000001a0: 386e 3a3d 3c2b d5bc d742 83bd d42a a33d
000001b0: 142b 8c3d 5ce0 8fbd a69f 843d d62c 853d
000001c0: a676 9dbd 4f97 1ebd a18b 72bd 6002 0bbb
000001d0: e06b a1bb cae3 a53d 8830 903c 43f8 84bd
000001e0: d4c2 0d3d 3a67 8ebd b8d9 60bc 4db2 17bd
000001f0: 7b9e a3bd 22ce 62bd cae0 903d 2274 ebbc
00000200: 578b 3dbd 00eb 5cbd 3efb 92bd 4855 cf3c
00000210: 8cbb 753d 907e a53c 86db 133d c0f8 7e3c
00000220: 1dbe 58bd d0c2 f1bb fda5 a4bd a8e6 1f3d
00000230: c266 8b3d a846 8f3d bc8b ee3c 3060 ae3b
00000240: e003 80bc ba75 9dbd fc37 61bd 00cc ac39
00000250: 3a2e edbc 209f b43c dce0 923c b828 56bc
00000260: a463 febc 6abb 91bd 2893 1b3c b071 3a3d
00000270: 0a9d 76bd 38fd 42bd 6037 25bc e09b 03bd
00000280: 71a7 1fbd 10f9 fa3c aca8 643d d61a 52bd
00000290: 140e 82bd a753 41bd e8c5 0bbc 0011 8939
000002a0: 3511 6cbd 8011 2f3a 9e21 a33d c81a fc3c
000002b0: f0d6 093d 0e70 8dbd d0bd af3c 887a 67bd
000002c0: 18ba 953c a4bf 99bd e208 883d d0dd 80bb
000002d0: d0a2 433c 246c a73c 1843 593d 9060 9c3b
000002e0: 708c 0a3d e87d 573d 6368 9bbd 10e3 223d
000002f0: 1c59 363d c4bb 83bd 597b 78bd 1a51 acbc
00000300: c0f5 78bb 4018 2b3c a0f3 5a3d 2cb6 df3c
00000310: f499 3b3d 4050 b7ba 4821 3e3d 3150 8fbd
00000320: 00d9 b4b9 50ba 42bc b88b f53c e05c f43b
00000330: 0c71 de3c c0ac 7c3b 5c35 b43c 463e 94bd
00000340: d091 8fbc 7e88 08bd 70e0 9a3b 94a6 febc
00000350: d0de 413d cfc6 5ebd 8702 9ebd 8c33 c23c
00000360: 648a a2bd 3437 3f3d 30fd 37bd 86bb f6bc
00000370: 6034 4cbb 1003 463d 4a9b 063d 24ba 87bd
00000380: c37d 8ebd 1acf 933d 1e0a 923d 143b 58bd
00000390: f2ac afbc 1c30 553d b2ba 29bd 4082 6e3c
000003a0: f60c 823d a029 d83c 2830 8abd 50d8 4c3d
000003b0: 331c 8dbd 03c3 85bd 70ba 993d 0a7f 923d
000003c0: c4d3 8cbd 40db a9bb 702f 503c dcc5 ce3c
000003d0: b437 483d 804c 433b 80fb 6bbb d4ca a8bc
000003e0: 807b 07bb 8079 1abd e094 373b 2853 a4bd
000003f0: fbac 0dbd 2080 a33b 00a3 c1bb fce7 113d
-0.026174922 0.03275924 0.014289759 -0.050010923 0.05815409 0.05358483 -0.06554344 -0.03393934
-0.018142127 0.06421493 -0.011285126 0.020182423 -0.064303435 -0.011969879 -0.05077147 -0.051028676
-0.05731125 -0.02375168 0.047455296 -0.027505305 -0.004289672 -0.040154155 -0.04427647 0.050320476
0.005710654 0.021447815 -0.05491292 -0.015997835 -0.07251012 -0.03827084 0.027150474 0.041493356
0.04874155 -0.023503702 -0.023061972 0.04366432 -0.06452023 -0.002308756 0.04573889 -0.047529206
0.079983115 -0.064743586 0.07606639 0.031420432 0.049010947 0.051608264 0.03987395 0.035754547
0.0039396584 0.046292186 -0.04589271 0.07384178 0.0729024 -0.0040496737 -0.0526703 -0.026510712
0.02007857 -0.051195428 -0.019916032 -0.07379579 -0.06430045 0.039142706 -0.044953626 -0.07848561
-0.037434846 0.024641052 0.06108989 0.01077909 -0.053158253 0.021636285 0.047546208 -0.05259782
-0.068252355 -0.07956353 0.06597693 -0.07498049 0.0019801483 0.03561206 0.08034749 0.01731737
0.06927326 -0.018696621 0.027055517 0.008019626 0.07846081 0.07876092 0.04813239 -0.0007276684
0.010123864 -0.03856082 0.07865439 -0.075618215 -0.06355606 -0.030019816 -0.07022039 0.061374247
-0.006577648 0.037925176 0.07852538 0.067518055 -0.07283393 -0.06645937 -0.009001285 0.05972761
0.04551527 -0.026021592 -0.06409233 0.07967153 0.06844154 -0.07025215 0.06475763 0.065026924
-0.07688646 -0.038718518 -0.05921519 -0.0021211132 -0.00492619 0.08100088 0.017601267 -0.06492665
0.03460963 -0.06953283 -0.013723783 -0.037035275 -0.07989212 -0.055372365 0.07074125 -0.0287419
-0.046275463 -0.05393505 -0.07176827 0.02530922 0.05999331 0.020201951 0.036098026 0.015562236
-0.05291568 -0.00737796 -0.08039472 0.03903833 0.06806709 0.069958985 0.029119365 0.005321525
-0.015626848 -0.0768847 -0.05498503 0.00032958388 -0.028952707 0.022048533 0.017929487 -0.013071232
-0.031053372 -0.071158245 0.009495534 0.045518577 -0.060208358 -0.04760477 -0.010084003 -0.032131076
-0.038978044 0.03063634 0.05582492 -0.051295124 -0.063503414 -0.047198918 -0.008531071 0.00026143342
-0.057633597 0.0006678328 0.07965396 0.030774489 0.033652246 -0.06906138 0.021452814 -0.05651334
0.018277213 -0.07507256 0.06642319 -0.003932692 0.011940673 0.020437308 0.0530425 0.0047722533
0.033825338 0.052610308 -0.075882696 0.039767325 0.044518575 -0.06432298 -0.06066451 -0.021034766
-0.0037988275 0.010442793 0.053454995 0.027308546 0.045801118 -0.0013985708 0.04641846 -0.06997717
-0.00034493953 -0.011885241 0.02997385 0.0074573606 0.027153514 0.0038555115 0.0219981 -0.0723844
-0.017525584 -0.033333294 0.004726462 -0.03108529 0.04733163 -0.054388817 -0.07715326 0.02370622
-0.07936552 0.046683505 -0.044919193 -0.030118715 -0.0031159148 0.048342764 0.03286294 -0.066273004
-0.06957581 0.07217236 0.07130836 -0.052790716 -0.021444771 0.052047834 -0.041437812 0.014557421
0.06350128 0.026387036 -0.06747466 0.05001098 -0.06890144 -0.06531336 0.07506263 0.07153137
-0.068763286 -0.0051836073 0.0127066225 0.025240831 0.048881248 0.0029800236 -0.003600806 -0.020604528
-0.0020672977 -0.037713528 0.002801232 -0.08023673 -0.034588795 0.004989639 -0.0059093237 0.03562163

sequential/dense_1/MatMul f4 [61, 128]
00000000: bc3e 92bd 5186 70bd e359 96bd 2eea 9b3d
00000010: b7f0 64bd 960e bcbd 2e75 9ebc 7050 39be
00000020: a4c8 1cbe 0c31 173e 129e 083e 25ee 253c
00000030: 96aa a83b acd0 db3d 3b31 03bd af4e 913d
00000040: 45a6 f13d b915 9ebd 049b fe3c 8d26 043d
00000050: 8e2d 803d fa63 ce3d 5900 43be 941a 593d
00000060: cd0a c73d 3746 623c 6cae 81bd 4da7 b6bd
00000070: 7156 debd 9673 8b3d 7945 193d 8ec7 36bc
00000080: fa19 3cbe e6e1 8d3d 2b68 f4bd 3b7d 553d
00000090: db2e 2c3c 5389 0c3e fffc b23d 9fea 33bd
000000a0: d19b a43c 051f e5bd 7bb5 04be 971a 473e
000000b0: 084c 0ebe 1187 16bd 031d 08be 691c 9a3d
000000c0: 5a13 14be fbd8 133e 9311 07bb c967 243e
000000d0: fb4f 9d3d a9a7 d6bc d56f 6dbd 40e0 2abd
000000e0: d85d d5bd 1855 b93c f648 f83d 06ae 02be
000000f0: 3e8d 343e 9546 13be dfa0 5b3d cd0a 163d
00000100: 6a58 033e b3f7 3bbe 0112 1d3e 487a 8bbd
00000110: 684e 9d3d 77b0 16be b5fd 01be 9594 12be
00000120: 1981 3f3e 0ec8 053d e83b 39be 8121 c8bd
00000130: 8d48 ebbd be55 63bd 2f07 07be adac d7bb
00000140: 01f6 cbbd 5912 1fbd f810 113d eab5 2e3e
00000150: a8da 86bd 65a2 003c 2e45 d8bd e1cf 16be
00000160: 24aa 063e 5382 00be a888 8e3d 7df8 3a3d
00000170: 93cd 8e3d d7c8 6ebd d2a7 233e 2a14 943d
00000180: 08d0 aa3c 9b1e 87bc 92af 71bc 0aaa a9bc
00000190: 59ea 683c 6ad0 7e3c f91f d73c 191c 513c
000001a0: 434a 0b3d 08cf b23d edba 203e e545 f4bd
000001b0: 9866 fd3d 8263 263e e1a2 5c3c 6034 0c3e
000001c0: 03e2 6e3d b9cf 3d3c 7dd2 12bd a93c 7d3d
000001d0: 0761 42bd 698b 203d 2514 253e 7825 4fbe
000001e0: 371f a33c 218a 34be 43d4 303e 1a2c a03c
000001f0: 58da 9dbc e991 39be 4e31 e93d 215c e1bd
00000200: 7649 22be 42d4 e6ba 8de9 cabc c324 b2bd
00000210: ebca 353e 6f80 693d 9248 113e c089 b93d
00000220: c11d 4c3d 6e67 e9bd 0d68 1a3d c8f6 19be
00000230: 50e5 33bd 6879 ebbd de5b 373e 0c0d 85bc
00000240: 3d48 f83a aef4 e13d e488 bf3d 06bc 353b
00000250: eb8b 19be 97f3 343d 1c95 25be c62a f1bd
00000260: af28 ed3d 8af5 0cbe 331e 003e 5a28 fdbd
00000270: d578 213e 5ab9 3fbd 8dfd 093e b311 5cbd
00000280: 883c 18bd 1c68 ea3d 2383 febd 584a 08be
00000290: 6720 b13d 7c99 773d e5b2 17bd ea55 80bd
000002a0: 6c8f 6cbd 4022 15be 91b0 3f3d a796 35be
000002b0: 653a d73c 81dc 863d d070 a3bd d561 853d
000002c0: e094 123e 614b 24be 7ee2 d13c 3fd3 c3bc
000002d0: 56c6 533d 0b2a 073c 244c b0bd 146f df3d
000002e0: 7707 163e 77c6 2ebd d32d 24be e088 283e
000002f0: 1f5d f5bd 7520 003e acfc a43d 24b5 9a3d
00000300: 5642 303e f38d 27be 5195 e73d 7761 2a3e
00000310: e44a 0cbe 231a f9bd 47ac 123e df4f 94bd
00000320: 6194 d2bd 9466 0ebe 9586 18be bd80 a9bd
00000330: 0a9d 723d b02b 23bd 47eb d7bc 8342 c0bd
00000340: 95bb 133c 5a3f ba3c f0bc eb3c ec0a 713d
00000350: fe74 20bc 27b5 ddbd 953e c3bd 9d94 15be
00000360: 20ed 023e 584f a73d c56c b8bb d36a 593e
00000370: 57c4 2e3e f227 0abe 782f b83b 2dd5 323d
00000380: b233 30be a270 80bc 37c4 b1bc 6bbe a13d
00000390: 4018 a2bd 2572 5cbc 1703 3137 7ec3 70bd
000003a0: d6c2 c93d 6e12 043e f65a d3bc 832b 45be
000003b0: 30dd 793d 122c 153d 6159 ac3d daac b33c
000003c0: 0a63 c03d 9ab7 bdbc e910 b6bd ef90 eabd
000003d0: 93f1 f4bd 3db0 493d 5c94 88bd 811a 183e
000003e0: 6e89 e13d 1ece dc3d ecf7 2a3e ca78 693d
000003f0: e5b0 98bd a600 28be 0495 343c 0e43 00bd
-0.07140872 -0.058721844 -0.07341363 0.076130256 -0.055893626 -0.091824695 -0.019342985 -0.1809709
-0.15310913 0.14764804 0.13341549 0.010127579 0.0051472886 0.107331604 -0.03202937 0.07095086
0.117992915 -0.07718987 0.031079777 0.032263327 0.06258689 0.10077663 -0.19043101 0.053003863
0.09718857 0.013810686 -0.063320965 -0.08918629 -0.10856331 0.06809156 0.03741977 -0.011155976
-0.18369284 0.06927852 -0.11933931 0.052121382 0.010509218 0.1372426 0.087396614 -0.043924924
0.02009383 -0.11187557 -0.12959854 0.19443737 -0.13896191 -0.036749903 -0.13292317 0.0752495
-0.14460507 0.1443824 -0.002060984 0.16055216 0.07681271 -0.026202993 -0.05796798 -0.041717768
-0.1041829 0.022623584 0.12123291 -0.12761697 0.17632005 -0.14382394 0.053620216 0.036631394
0.12826696 -0.18356209 0.15338899 -0.06810433 0.076809704 -0.14715753 -0.12694438 -0.14314492
0.1870159 0.03266149 -0.18089259 -0.09772015 -0.11488447 -0.055501692 -0.13186334 -0.006581864
-0.09959031 -0.038835857 0.035416573 0.17061582 -0.06584674 0.007851218 -0.1056007 -0.14727737
0.13150841 -0.12549715 0.06959659 0.045647133 0.06972804 -0.058297005 0.15981987 0.072304085
0.02085115 -0.016494086 -0.014751332 -0.020710964 0.014216029 0.0155526195 0.026260363 0.012763047
0.03400637 0.08730894 0.15696307 -0.11927394 0.12373084 0.16248897 0.013466568 0.13691854
0.05832101 0.0115851695 -0.03584527 0.06182543 -0.047455814 0.039195452 0.16120966 -0.20229137
0.019912345 -0.17630817 0.17268471 0.01955228 -0.019269153 -0.18122067 0.11386357 -0.110039
-0.15848336 -0.0017610865 -0.024769569 -0.08698418 0.17753188 0.05700725 0.1418784 0.09059477
0.049833063 -0.11396681 0.037696887 -0.15035546 -0.04391986 -0.11497766 0.17906138 -0.016241573
0.0018942427 0.11032997 0.09352282 0.002773048 -0.1499478 0.044177618 -0.16170162 -0.117757365
0.115800254 -0.1376554 0.1251152 -0.12361212 0.1576875 -0.046807624 0.13475628 -0.053727817
-0.037167102 0.114456385 -0.12427356 -0.1330961 0.086487584 0.06044911 -0.03703584 -0.06266387
-0.057753965 -0.14563847 0.046799246 -0.1773325 0.026272962 0.065850265 -0.07980502 0.065128006
0.14314604 -0.1604438 0.025620695 -0.02390444 0.05170282 0.00824977 -0.08608273 0.10909858
0.14651285 -0.04266974 -0.16033106 0.16458464 -0.11980652 0.12512381 0.08056006 0.07554081
0.17212805 -0.16362743 0.11307777 0.16638742 -0.13700444 -0.12163188 0.14323531 -0.07241797
-0.10282207 -0.13906318 -0.14895089 -0.08276508 0.059231795 -0.039836586 -0.026357306 -0.09387686
0.009016891 0.022735287 0.028776616 0.058848307 -0.009793518 -0.10825568 -0.09533421 -0.14607473
0.12785769 0.081694305 -0.0056282007 0.21232156 0.17067085 -0.134918 0.005620893 0.04366033
-0.1720722 -0.015678708 -0.021700008 0.078976475 -0.079147816 -0.013454949 1.05507415e-05 -0.058780186
0.09851615 0.12897655 -0.02580021 -0.1925488 0.061001956 0.03641898 0.08415485 0.021933008
0.0939389 -0.023158837 -0.08889944 -0.11453425 -0.11960139 0.04924034 -0.06668922 0.1485386
0.11012541 0.10781501 0.16696137 0.05699996 -0.07455615 -0.16406497 0.011021856 -0.03131395
