model.tflite (tflite, 525840 bytes, 13 tensors)

sequential_2/conv2d/Relu;sequential_2/conv2d/BiasAdd;sequential_2/conv2d/Conv2D;sequential_2/conv2d/BiasAdd/ReadVariableOp f4 [16, 3, 3, 1]
0	0xb9fe97e9	-0.00048559837
1	0xb9806ecc	-0.00024496613
2	0xba1e52d7	-0.0006039566
3	0xba402ac9	-0.0007330594
4	0xba22ada6	-0.0006205685
5	0x39da4faf	0.0004163957
6	0xb930f1f7	-0.00016874807
7	0xba198b8d	-0.00058572815
8	0x392e694e	0.00016633162
9	0x3b1d7f0c	0.0024032025
10	0x3b21c8ef	0.0024686416
11	0x3b391660	0.0028242096
12	0x3b36fa99	0.0027920364
13	0x3b044bb8	0.0020186733
14	0x3b22154d	0.0024731935
15	0x3b0ea488	0.0021765549
16	0x3b2cd1fb	0.0026370275
17	0x3b3f064f	0.0029148047
18	0xbb041b10	-0.0020157732
19	0xba34926c	-0.00068882736
20	0xbad4626e	-0.0016203651
21	0xba89a1e2	-0.0010500515
22	0xba56ef29	-0.000819909
23	0xba510ea6	-0.00079749
24	0xba9fcd40	-0.0012191907
25	0xbacf4205	-0.0015812522
26	0xbacc0065	-0.0015564082
27	0xba519480	-0.00079948455
28	0xba39dadb	-0.0007089802
29	0xba80b948	-0.0009820843
30	0x38974c00	7.214397e-05
31	0x381f03eb	3.7912203e-05
32	0xb8d1e8d0	-0.00010009261
33	0x37f315c3	2.8977991e-05
34	0xba5a73f9	-0.00083333213
35	0xba9856c1	-0.0011622534
36	0xbaaa2a5e	-0.0012982597
37	0xbafb5229	-0.0019174266
38	0xbaaea2b3	-0.0013323635
39	0xbab1ce9d	-0.0013565604
40	0xba6b2d6b	-0.00089713064
41	0xbafe2c55	-0.0019391874
42	0xbac11974	-0.0014732317
43	0xbada3333	-0.0016647339
44	0xbaf314f5	-0.0018545674
45	0xbb1b57ea	-0.0023703524
46	0xbaf6173f	-0.0018775238
47	0xbb256890	-0.0025239326
48	0xbaeae98d	-0.0017922387
49	0xbad91156	-0.0016560953
50	0xbaff5992	-0.001948165
51	0xbb1b6125	-0.0023709026
52	0xbaf3d5ab	-0.0018603107
53	0xbb115058	-0.0022173133
54	0xb9d7721b	-0.0004109301
55	0x3882d577	6.238644e-05
56	0xb98fae89	-0.00027405124
57	0x397a6a02	0.00023881349
58	0x3a2527f6	0.0006300205
59	0xba3c4d01	-0.00071831053
60	0x399a3a24	0.00029416487
61	0xba375cca	-0.00069947226
62	0x3979ef23	0.00023835576
63	0x3a24c7fa	0.00062859023
64	0x3a08b3aa	0.00052147603
65	0x3979907d	0.00023800317
66	0xba3bab06	-0.00071589684
67	0x3a36847e	0.0006962492
68	0x3a22d394	0.0006211337
69	0xba15d382	-0.0005715416
70	0xb9d6cc8e	-0.00040969666
71	0xba27b68e	-0.0006397747
72	0x3afc2b38	0.0019238954
73	0x3afa2e8a	0.0019087356
74	0x3b016436	0.0019743568
75	0x3a3aaae3	0.0007120801
76	0x3ae65f11	0.001757594
77	0x3aa2eb69	0.0012429777
78	0x3abbd77f	0.0014331191
79	0x3ac5be84	0.0015086685
80	0x3ac067f6	0.001467942
81	0x394ebccd	0.00019716025
82	0xb9570254	-0.00020504865
83	0x3a2c98ca	0.00065840466
84	0x3a2fd897	0.00067079946
85	0xba2f8152	-0.00066949904
86	0xb8433458	-4.6540372e-05
87	0xba11ce25	-0.0005562029
88	0x39df6dcc	0.0004261568
89	0xb8d8146c	-0.000103034865
90	0x39198595	0.0001464098
91	0x39eb8a74	0.00044925848
92	0x3a09b1be	0.0005252621
93	0x3764ac00	1.3629906e-05
94	0xb977ec99	-0.00023643895
95	0xba3514bb	-0.0006907691
96	0xb9338d59	-0.00017123426
97	0x3a02de92	0.0004992272
98	0xb9915580	-0.00027720258
99	0xbafaf126	-0.0019145354
100	0xbaf09884	-0.0018356
101	0xbb1cf9f7	-0.0023952702
102	0xbb0c39b1	-0.0021396691
103	0xba8b3ddb	-0.0010623293
104	0xbb003b58	-0.0019566622
105	0xbad31abb	-0.0016105989
106	0xbaba7093	-0.0014224224
107	0xbb20b8a6	-0.0024524122
108	0xb9abc0d1	-0.0003275932
109	0xb97045e6	-0.00022914223
110	0xba019559	-0.0004943214
111	0xb9c325f4	-0.00037221576
112	0xb98139d5	-0.00024647886
113	0xb911e38d	-0.00013913047
114	0xb8974215	-7.21255e-05
115	0x3a524f0c	0.0008022643
116	0xba2f7942	-0.0006693789
117	0xbb25851c	-0.0025256341
118	0xbafbc9e5	-0.001920995
119	0xbb13b2f3	-0.0022537082
120	0xbafb6970	-0.0019181203
121	0xbb10f134	-0.0022116425
122	0xbb08df0d	-0.0020884902
123	0xbb1facf3	-0.002436456
124	0xbb11f18c	-0.0022269217
125	0xbaea4cda	-0.0017875687
126	0xba602e19	-0.0008551791
127	0xba353329	-0.00069122255
128	0xbab55b62	-0.0013836438
129	0xba1a64a7	-0.0005889632
130	0xba1af47e	-0.0005911066
131	0xbabccf93	-0.0014405124
132	0xb9f7e584	-0.00047282514
133	0xb9f265b1	-0.00046233603
134	0xbad659ef	-0.0016353707
135	0xbb1b20fd	-0.0023670786
136	0xbb032e00	-0.0020016432
137	0xbad929cb	-0.0016568241
138	0xbb1ef9ec	-0.0024257852
139	0xbb08f104	-0.002089561
140	0xbb1b5b3f	-0.002370551
141	0xbb185aa9	-0.0023247397
142	0xbac0e5a6	-0.0014716878
143	0xbb257aed	-0.0025250271

sequential_2/conv2d/BiasAdd/ReadVariableOp f4 [16]
0	0xbc3476a7	-0.011014617
1	0x3d0d3a40	0.03447938
2	0x3cdc90bb	0.026924482
3	0x3d5f5409	0.0545235
4	0x3c9966f8	0.018725857
5	0x3cda30e5	0.026634643
6	0xbc1249d5	-0.008928736
7	0xbc6b02e0	-0.014343947
8	0x3d1ff673	0.03905339
9	0xbc21c7f5	-0.009874334
10	0xbc5d1484	-0.013493661
11	0x3cb7f73e	0.022456761
12	0xbc20bfb3	-0.00981133
13	0x3cfc88c4	0.030826934
14	0x3cb100f1	0.021606894
15	0x3ce9dae1	0.028546752

sequential_2/conv2d_1/BiasAdd/ReadVariableOp f4 [32]
0	0x3d86ccae	0.06582008
1	0x3d1c46f4	0.038153604
2	0x3d3983bd	0.04529165
3	0x3d3ad48c	0.045612857
4	0x3d786d58	0.060651153
5	0x3d65efdd	0.056136955
6	0x3d4dda61	0.05025709
7	0xbbe83f69	-0.007087637
8	0xbbacec67	-0.005277205
9	0x3d388fd5	0.045059044
10	0x3d31ddac	0.043424293
11	0x3d353369	0.04423848
12	0x3d0b2f87	0.033980872
13	0xbb98dade	-0.004664763
14	0x3d42ce97	0.0475603
15	0x3d45bf54	0.048278168
16	0x3d74c74a	0.05976037
17	0x3d040295	0.032229025
18	0x3d305127	0.043046143
19	0x3d6498f3	0.055809926
20	0x3d06d33e	0.0329163
21	0x3d23d2f6	0.03999611
22	0x3d2b33ce	0.04179745
23	0x3d2863b5	0.041110713
24	0x3d495e9b	0.04916249
25	0x3d395daa	0.04525534
26	0x3d3e1b4f	0.046412762
27	0x3d35e55b	0.044408184
28	0x3d2cac59	0.04215655
29	0x3d903a27	0.07042342
30	0xbbe9adbe	-0.0071313074
31	0x3da9ad80	0.082850456

sequential_2/conv2d_2/BiasAdd/ReadVariableOp f4 [64]
0	0x3a487113	0.0007646244
1	0x3d32c406	0.043643974
2	0xbdc793f0	-0.09745014
3	0x3d3ba646	0.045812868
4	0x3cdbec01	0.026845934
5	0xbc0f770a	-0.0087564085
6	0xbc0451af	-0.0080761155
7	0x3d1d73f4	0.03844066
8	0x3c01e541	0.007928194
9	0xbc135b45	-0.008993928
10	0xbc4b2fd6	-0.012401542
11	0xbbcb43b6	-0.00620314
12	0xbbe4400e	-0.0069656437
13	0x3cde6511	0.027147802
14	0xbc6c044a	-0.0144053195
15	0x3c8d7ad6	0.017270487
16	0xbb539e90	-0.0032290556
17	0xbcc083d9	-0.02350037
18	0x3c9a5777	0.018840535
19	0x3d5d4d47	0.054028776
20	0x3ca53fd1	0.020172032
21	0x3d1f6fa4	0.03892483
22	0xbbc4c621	-0.006005064
23	0x3c6c06b3	0.014405894
24	0x3cb8fae9	0.02258058
25	0x3d527f10	0.051390707
26	0x3cdc3c06	0.02688409
27	0x3cddbb0c	0.02706673
28	0xbc6b47a7	-0.014360345
29	0x3d1a9037	0.03773519
30	0xbcfa0b0b	-0.030522844
31	0x3d210ae4	0.039317027
32	0xbcf1f30b	-0.029534837
33	0xbcd2be64	-0.025725551
34	0xbc48c0c6	-0.012252992
35	0x3c4a6f54	0.012355644
36	0xbdadaf06	-0.08480649
37	0x3cf91ac2	0.030408267
38	0x3910125c	0.0001373975
39	0xbd047178	-0.032334775
40	0xbbcc4fb9	-0.0062350896
41	0x3d2f5bb7	0.042812075
42	0xbbfc5783	-0.007700862
43	0x3d0ccb31	0.034373466
44	0x3c955f2f	0.018233864
45	0xbbde8191	-0.006790348
46	0x3b963d2a	0.004584928
47	0x3ca9abb0	0.02071175
48	0x3d0ba766	0.03409519
49	0xbb99c87d	-0.0046930895
50	0x3d855ed5	0.065122284
51	0xbc81611c	-0.015793376
52	0x3c939973	0.018017506
53	0xbc0a86a0	-0.008454949
54	0x3ccf2b60	0.025289237
55	0x3c32dfe5	0.010917638
56	0xbc7fc0af	-0.015609904
57	0xbc17ad81	-0.009257675
58	0xbc6827f8	-0.014169686
59	0x3d1ff392	0.039050646
60	0x3d3d5bf4	0.04623027
61	0x3d82b303	0.063818
62	0x3c8ce805	0.01720048
63	0x3c9f6b96	0.01946048

sequential_2/conv2d_1/Conv2D f4 [32, 3, 3, 16]
0	0xbda0380a	-0.078231886
1	0x3eb30286	0.34962863
2	0x3dbe3925	0.09288243
3	0xbce76339	-0.028245555
4	0x3dbbad1c	0.09163877
5	0xbdb9f9a6	-0.0908082
6	0x3b53326c	0.0032226099
7	0xbd77c65c	-0.060491905
8	0x3da3fb74	0.08006945
9	0xbcdc63b6	-0.026903015
10	0xbd8f2d89	-0.06991107
11	0xbdf85cc0	-0.12127066
12	0x3d85f272	0.065403834
13	0xbda87377	-0.08225148
14	0x3bf1b968	0.0073768385
15	0xbd2c70b1	-0.04209966
16	0xbdb2431b	-0.087042056
17	0x3e81acb3	0.25327072
18	0x3dc295b5	0.095012106
19	0x3cb983ed	0.022645915
20	0xbdbd81bc	-0.092532605
21	0xbdd781af	-0.10522782
22	0x3c98b93f	0.01864302
23	0x3c7b7160	0.015346855
24	0x3dba7390	0.09104073
25	0x3db50f5e	0.08840822
26	0xbccbcc53	-0.024877703
27	0xbe3e5ce8	-0.18590128
28	0xbddc4f39	-0.10757298
29	0xbe3eaea1	-0.18621303
30	0x3d56fc43	0.05248667
31	0xbe1dcf26	-0.15411052
32	0x3d0b3cd1	0.033993546
33	0x3ebe56c5	0.37175575
34	0xbdabd3e9	-0.08390028
35	0x3d4080bd	0.046997774
36	0x3d14a556	0.03629049
37	0xbd807b97	-0.06273573
38	0xbdde0d4d	-0.10842381
39	0xbce6336f	-0.028100697
40	0x3e2560a9	0.16150154
41	0x3d3edbc9	0.046596322
42	0x3be92e0b	0.0071160845
43	0xbd4178d6	-0.04723438
44	0x3d3fee4b	0.046858113
45	0xbca34e22	-0.019934718
46	0x3d6cf339	0.057849143
47	0xbe18468e	-0.14870664
48	0x3d23592e	0.03987997
49	0x3e857ff8	0.26074195
50	0x3d9cb7ad	0.07652221
51	0x3e052774	0.13003331
52	0xbd54c469	-0.051945124
53	0xbd2d59f1	-0.042322103
54	0xbcc4e2fb	-0.024034014
55	0x3d58e470	0.05295223
56	0x3e84c7be	0.2593364
57	0xbd7779c8	-0.060418874
58	0x3dd36659	0.10322256
59	0xbdb7a94a	-0.08967836
60	0xbb83b25b	-0.0040190644
61	0xbd8c5448	-0.06852013
62	0xbd03c512	-0.032170363
63	0xbe199d9d	-0.15001531
64	0xbc4c75c5	-0.01247925
65	0x3e639333	0.22224121
66	0xbd07e373	-0.033175897
67	0xbd8e3546	-0.06943755
68	0xbdd25f9e	-0.10272144
69	0xbdeb0372	-0.114752665
70	0x3ce9120e	0.028450992
71	0x3bd79c91	0.0065799435
72	0x3e3e210c	0.18567294
73	0x3cce812d	0.02520808
74	0xbd99c089	-0.07507426
75	0xbd9350a4	-0.07193115
76	0x3dcb31f7	0.099216394
77	0xbe4cf509	-0.20015348
78	0x3dc003e1	0.0937574
79	0xbdda9e2f	-0.106747024
80	0xbdd0cc03	-0.10195162
81	0x3ec6ec91	0.3885236
82	0xbd68949a	-0.056782342
83	0x3d6c9b8c	0.05776553
84	0x3da53ab4	0.08067837
85	0xbe4e2693	-0.20131902
86	0x3c8e14a4	0.017343827
87	0xbddc9f03	-0.107725166
88	0x3db3ca40	0.087788105
89	0x3dd40e98	0.10354346
90	0xbd71a6f2	-0.058997102
91	0xbe0b8e06	-0.13628396
92	0xbdcb8b68	-0.09938699
93	0xbe391edf	-0.18078183
94	0x3d628034	0.055298045
95	0xbe5e8177	-0.21729074
96	0x3ddca370	0.10773361
97	0x3ec8611d	0.39136592
98	0xbd5ebe2a	-0.054380573
99	0x3d9d47bf	0.076797
100	0x3c5a14d7	0.013310633
101	0xbe1a6734	-0.15078431
102	0x3cc64e15	0.024207154
103	0xbbafa423	-0.005360143
104	0x3e5cf268	0.21576846
105	0x3ced9705	0.029002676
106	0xbd9b54d2	-0.075845376
107	0xbd193e24	-0.037412778
108	0x3c9240b4	0.017853118
109	0xbe02c270	-0.12769485
110	0xbdd0858c	-0.10181722
111	0xbe890c43	-0.26767167
112	0x3cc52e46	0.024069916
113	0x3eba97cf	0.36443946
114	0xbd2fe8a0	-0.042946458
115	0x3db37255	0.087620415
116	0xbdf81735	-0.121138014
117	0xbca7814e	-0.0204474
118	0xbd974cd7	-0.07387703
119	0x3d3e15f0	0.04640764
120	0x3e55b069	0.20868076
121	0x3cea40c9	0.028595345
122	0x3dd79d9f	0.10528111
123	0xbdd1a91b	-0.102373324
124	0x3dde993a	0.108690694
125	0xbdb2751b	-0.08713742
126	0x3d1835a6	0.037160538
127	0xbdbb664e	-0.091503724
128	0xbc2a37e0	-0.010389298
129	0x3eb181fa	0.34669477
130	0x3d6406b1	0.055670444
131	0xbd2a973f	-0.041648146
132	0xbd91cd56	-0.07119243
133	0xbe16b719	-0.14718284
134	0xbd8d1217	-0.06888216
135	0xbdc5783a	-0.09642072
136	0x3e69ad0f	0.22819923
137	0x3d88ae04	0.06673816
138	0x3d0172c8	0.031603605
139	0xbd6f9cde	-0.05849921
140	0x3d3f0a62	0.04664076
141	0xbc0e02a7	-0.008667625
142	0x3d325cff	0.04354572
143	0xbe20dae5	-0.15708502
144	0xbda7304e	-0.0816351
145	0x3e610baf	0.21977113
146	0x3db84e7e	0.08999346
147	0xbd301d5c	-0.04299675
148	0xbd7bd604	-0.061483398
149	0x3d1c73d6	0.038196407
150	0xbcccd781	-0.025005104
151	0x3ca54f19	0.020179318
152	0x3cae95cb	0.021311661
153	0x3ca4612c	0.020065866
154	0xbdb9b879	-0.090683885
155	0x3d573cb0	0.05254811
156	0xbcc5465b	-0.0240814
157	0xbda02ef2	-0.07821454
158	0x3dd754b5	0.105142035
159	0xbe454279	-0.19263639
160	0xbd9ea8f0	-0.07747066
161	0x3e657037	0.22406088
162	0xbd32a303	-0.04361249
163	0x3d560cb0	0.052258193
164	0xbc5c54b9	-0.013447934
165	0xbcd33e21	-0.025786461
166	0x3d966a3d	0.07344482
167	0x3df15b2f	0.1178497
168	0x3e16a461	0.14711143
169	0x3da93fca	0.0826412
170	0xbcc83825	-0.024440834
171	0xbdf45748	-0.1193071
172	0xbc0fb624	-0.008771453
173	0xbdca3b40	-0.09874582
174	0x3adb2174	0.0016718344
175	0xbe4ae44c	-0.19813651
176	0xbdd7fe53	-0.10546555
177	0x3e8a03f1	0.26956132
178	0xbd46f941	-0.04857755
179	0x3d681ffb	0.056671124
180	0x3d7a8c8f	0.061169203
181	0xbdd3025e	-0.10303186
182	0xbcc5c26a	-0.024140555
183	0x3d89f6f2	0.06736554
184	0x3dbe7b76	0.09300892
185	0xbc8bffe4	-0.017089792
186	0xbd077c41	-0.033077482
187	0x3d07561d	0.03304111
188	0x3d9105ef	0.0708121
189	0xbe222d7e	-0.15837666
190	0xbdce7914	-0.100816876
191	0xbceabf6c	-0.02865573
192	0x3d5bd823	0.05367292
193	0x3e0d1870	0.13778853
194	0xbda3d800	-0.08000183
195	0xbdae8880	-0.08522129
196	0x3d959a74	0.0730485
197	0xbe17d08d	-0.1482565
198	0x3d597d9b	0.053098302
199	0xbda92cac	-0.082604736
200	0x3dfce90a	0.12349136
201	0x3d6ddee5	0.058073897
202	0x3ccbb552	0.024866734
203	0xbe2e01d5	-0.16992886
204	0x3d6156ac	0.055014297
205	0xbd70b25e	-0.058763854
206	0xbd3f13e9	-0.046649847
207	0xbc80d109	-0.015724676
208	0x3de336ea	0.110944584
209	0x3df37065	0.11886672
210	0x3da68718	0.08131236
211	0x3d9d183b	0.07670637
212	0x3d982661	0.07429195
213	0x3c14f78f	0.009092226
214	0x3db0182b	0.0859836
215	0xbd3eb1e4	-0.04655637
216	0x3e39604e	0.18103144
217	0x3dd2e97f	0.10298442
218	0xbd89db4e	-0.06731282
219	0xbe2fe08c	-0.17175502
220	0xbc16479b	-0.0091723455
221	0xbd92241d	-0.07135794
222	0xbcac18d7	-0.021007938
223	0xbd9cac9d	-0.07650111
224	0x3ddd1ab0	0.10796106
225	0x3ea387d9	0.3193958
226	0x3d478176	0.048707448
227	0xbc8a543e	-0.016885873
228	0xbc65ec7f	-0.014033436
229	0xbe444018	-0.19165075
230	0xbd6664e8	-0.056248575
231	0x3d2dffa2	0.04248012
232	0x3e2ea699	0.1705574
233	0xbc569864	-0.013097856
234	0xbd05901a	-0.03260813
235	0xbbfd28c8	-0.007725809
236	0x3d966408	0.07343298
237	0xbe4a4f2a	-0.19756761
238	0xbd93f392	-0.07224192
239	0xbe0bf6d1	-0.13668372
240	0xbdc1b618	-0.0945856
241	0x3da8696c	0.082232326
242	0xbc4f8b79	-0.01266753
243	0xbdc21295	-0.094762005
244	0x3d94da81	0.07268239
245	0x3d8c62e3	0.06854799
246	0x3caef15c	0.021355323
247	0x3d097edb	0.033568244
248	0x3df9d52f	0.12198865
249	0xbca87bf2	-0.020566914
250	0x3be91120	0.007112637
251	0xbdc182a4	-0.09448746
252	0xbc9065c1	-0.017626645
253	0xbaf3b055	-0.001859198
254	0xbc3e231d	-0.011605051
255	0x3cfcc8bc	0.030857436

sequential_2/conv2d_2/Conv2D f4 [64, 3, 3, 32]
0	0xbc0284e4	-0.007966254
1	0x3dbd5614	0.09244934
2	0x3cd3cc4d	0.025854254
3	0xbddc9ea9	-0.107724495
4	0x3d96029b	0.07324716
5	0x3da4439d	0.08020709
6	0x3c0f80cb	0.008758734
7	0xbd90cc14	-0.07070175
8	0x3d06f09c	0.032944307
9	0xbdb02c0f	-0.086021535
10	0xbd5d7db5	-0.05407496
11	0xbc978b2c	-0.01849898
12	0xbdc025c8	-0.09382206
13	0x3d9262c0	0.07147741
14	0xbdd44cdf	-0.103662245
15	0x3cf41670	0.029795855
16	0xbd905103	-0.07046702
17	0xbcc7aaee	-0.024373498
18	0xbcd218cd	-0.025646592
19	0xbdeeb11a	-0.11654873
20	0x3ad9c8cb	0.0016615627
21	0xba0d7e1a	-0.0005397514
22	0xbbff8cab	-0.0077987514
23	0xbdafa087	-0.0857554
24	0x3c3c798d	0.011503589
25	0xbb9280aa	-0.0044709044
26	0x3c834b8c	0.016027234
27	0xbc59b266	-0.013287162
28	0x3e1ba47e	0.15199468
29	0x3b708796	0.003670191
30	0xbd910129	-0.070802994
31	0xbd11a0f0	-0.035553873
32	0x3eb1e65e	0.3474607
33	0x3e8c5913	0.27411708
34	0xbdc212b7	-0.09476226
35	0xbdf6a554	-0.120432526
36	0x3ec3a26e	0.38209862
37	0x3e96b817	0.29437324
38	0x3e76cdea	0.24101987
39	0x3d90c725	0.07069234
40	0x3d83b7e7	0.06431561
41	0xbd4f5852	-0.05062134
42	0xbe058031	-0.13037182
43	0xbe6221f1	-0.2208326
44	0xbd04de62	-0.032438643
45	0x3d91758c	0.071024984
46	0xbe03e31b	-0.12879603
47	0xbe15fe6e	-0.14647838
48	0x3d7fa17d	0.062409867
49	0xbe244449	-0.16041674
50	0xbe38cb10	-0.18046212
51	0xbd700e01	-0.058607105
52	0xbe31379f	-0.17306374
53	0xbe60cd83	-0.21953396
54	0xbd82b6bc	-0.0638251
55	0xbdbb4be7	-0.091453366
56	0x3e7da3df	0.24769543
57	0x3e1d933f	0.15388201
58	0xbde5af89	-0.11215121
59	0x3e5ec4d9	0.21754779
60	0x3eb68090	0.3564496
61	0x3e8d7344	0.27627003
62	0xbcc2abb9	-0.023763524
63	0x3e4b8046	0.19873151
64	0x3dcc12c3	0.09964516
65	0x3dd96b05	0.106161155
66	0xbc0568a2	-0.008142622
67	0xbd843b12	-0.06456579
68	0x3e7d7c8d	0.24754544
69	0x3cb3aa9f	0.021931944
70	0x3e3f14a2	0.18660215
71	0x3b586286	0.003301771
72	0xbd97ef86	-0.07418732
73	0xbba8c9da	-0.0051510157
74	0xbd152fae	-0.036422424
75	0xbdb26fa1	-0.08712698
76	0xbc9cb4f7	-0.01912926
77	0xbc07486c	-0.008257013
78	0x3d7eb3c9	0.062183175
79	0x3cb44521	0.02200562
80	0xbc9212a9	-0.017831163
81	0xbda88fc0	-0.08230543
82	0x3da9abe1	0.082847364
83	0x3dbb1e17	0.091365986
84	0x39ff5990	0.0004870412
85	0xbd92bb56	-0.07164638
86	0xbcf10faa	-0.029426415
87	0x3caa8a11	0.020817788
88	0x3dc286e5	0.09498385
89	0x3d362922	0.04447282
90	0xbd0e78cb	-0.034783166
91	0x3e25e178	0.16199291
92	0x3de787a9	0.11305172
93	0x3e25fe82	0.16210368
94	0xbd9655bc	-0.07340571
95	0xbb9f1ca5	-0.0048557096
96	0xbcc18565	-0.023623178
97	0x3c50ddce	0.012748195
98	0xbe13cbec	-0.14433259
99	0xbe3803b6	-0.17970166
100	0x3e2b229a	0.16712418
101	0x3d1d394e	0.038384728
102	0x3e0e64e3	0.13905673
103	0x3d9eab69	0.07747538
104	0xbd45543c	-0.048176035
105	0xbe303218	-0.17206609
106	0xbe682e9a	-0.22674027
107	0xbdc8c46d	-0.0980309
108	0xbe47eca0	-0.19523859
109	0xbc3f231c	-0.011666086
110	0xbdeb9bf1	-0.11504353
111	0xbe3c92c5	-0.18415363
112	0xbe1efdf2	-0.1552656
113	0xbdbaa119	-0.09112758
114	0xbe413ab6	-0.18870053
115	0xbd552217	-0.052034464
116	0xbd9ed701	-0.077558525
117	0xbe511d9c	-0.20421451
118	0xbe3f08d5	-0.18655713
119	0xbe41bd92	-0.18919972
120	0xbc45e39a	-0.01207819
121	0x3cf2b580	0.029627562
122	0xbe8003da	-0.25002939
123	0x3e159e14	0.14611083
124	0xbc187516	-0.009305259
125	0x3de327de	0.110915884
126	0xbd0dbaad	-0.034601856
127	0x3d2fbcb3	0.042904567
128	0x3e50e651	0.20400359
129	0x3e9ed4a0	0.31021595
130	0xbe4bb6ee	-0.19894001
131	0xbe8de469	-0.27713326
132	0x3eb4a92f	0.35285327
133	0x3e805995	0.25068346
134	0x3e8c4fa9	0.27404526
135	0xbd266c61	-0.040630702
136	0x3d17ab55	0.03702863
137	0xbe622034	-0.22082597
138	0xbe8490c3	-0.25891694
139	0xbe8c84b2	-0.27444988
140	0xbe87ebea	-0.26547176
141	0x3d03487c	0.03205155
142	0xbe62a516	-0.22133288
143	0xbe868e93	-0.2628065
144	0xbbbbd324	-0.005731957
145	0xbe5f3336	-0.21796879
146	0xbe5cfa5f	-0.21579884
147	0x3d3c8f41	0.046035055
148	0xbe3eb1ae	-0.18622467
149	0xbeb58c1d	-0.3545846
150	0xbe603ae8	-0.21897471
151	0xbe1ef294	-0.15522224
152	0x3ea8e1f9	0.32984903
153	0x3e1dad7d	0.15398212
154	0xbeb19f54	-0.3469187
155	0x3ec2cc96	0.38046712
156	0x3e9342c1	0.28761867
157	0x3e96eb16	0.2947623
158	0xbd632783	-0.055457603
159	0x3e9fb67d	0.31193915
160	0x3e701418	0.23445165
161	0x3e73b432	0.23799208
162	0xbe1da122	-0.15393499
163	0xbd5e5a82	-0.054285534
164	0x3e3c9855	0.18417485
165	0x3d88b105	0.06674389
166	0x3db3574e	0.087568864
167	0xbc085651	-0.008321361
168	0xbd2f09b2	-0.042733856
169	0xbde967eb	-0.11396774
170	0xbdc53e0b	-0.096309744
171	0xbcd5ca0a	-0.026097316
172	0xbd4ccf54	-0.05000241
173	0x3d51d285	0.051226158
174	0xbdcfebc7	-0.10152393
175	0xbc8c9e75	-0.017165402
176	0xbda8acda	-0.08236094
177	0xbd3a1673	-0.045431565
178	0xbd159362	-0.03651751
179	0x3d4d252c	0.050084278
180	0xbc52d1b7	-0.012867383
181	0xbc93a8b3	-0.018024778
182	0xbd7d283b	-0.061805945
183	0xbd68bd6e	-0.05682128
184	0x3e60540d	0.21907063
185	0x3db02b50	0.08602011
186	0xbd64ea1d	-0.05588733
187	0x3e4cf338	0.20014656
188	0x3e323e37	0.17406546
189	0x3e74e5c1	0.23915769
190	0x3d9df760	0.07713199
191	0x3d637ea8	0.05554071
192	0xbd8b9a96	-0.06816594
193	0x3d08d3db	0.033405166
194	0xbdd765d1	-0.10517467
195	0xbe2f4a58	-0.17118204
196	0x3da581fd	0.08081434
197	0xbdedf208	-0.116184294
198	0xbcf70feb	-0.030158957
199	0xbcba4a88	-0.022740617
200	0xbb3c2f09	-0.0028714559
201	0xbe2b4c91	-0.16728427
202	0xbe2d54cc	-0.16926879
203	0xbe2ce47d	-0.16884036
204	0xbe2390e2	-0.15973237
205	0x3cb98bf4	0.022649743
206	0xbdbd01ff	-0.09228896
207	0xbe44e3d4	-0.19227535
208	0xbe02a1f4	-0.12757093
209	0xbe04bb95	-0.12962182
210	0xbda794c1	-0.081826694
211	0xbdd95442	-0.10611774
212	0xbdebfafd	-0.115224816
213	0xbde5b9e8	-0.112170994
214	0xbd20d572	-0.039266057
215	0xbe11853e	-0.14210984
216	0xbd1e4fa5	-0.038650174
217	0xbd3f550a	-0.04671196
218	0xbd8aee75	-0.06783763
219	0xbd51da3f	-0.051233526
220	0x3c60b8bd	0.01371592
221	0xbcbf8f7d	-0.02338385
222	0xbc65c2d8	-0.014023505
223	0x3d1d7979	0.038445923
224	0x3e71cfb2	0.23614386
225	0x3e4c7423	0.19966178
226	0xbd9fd413	-0.07804122
227	0xbe16d11e	-0.1472821
228	0x3e88f3c5	0.2674848
229	0x3e107d34	0.14110261
230	0x3ea72a08	0.32649255
231	0x3c6c95f3	0.014440048
232	0x3d7c820f	0.06164747
233	0xbdc1b740	-0.0945878
234	0xbe262164	-0.16223675
235	0xbe280b21	-0.16410495
236	0xbe2079dc	-0.15671486
237	0xbd519b95	-0.051173765
238	0xbce7a32f	-0.028276054
239	0xbdef30fe	-0.116792664
240	0xbcc926e8	-0.024554685
241	0xbd92a1ff	-0.071598046
242	0xbe10a23b	-0.14124386
243	0xbd9e9c13	-0.077446125
244	0xbd9dffce	-0.077148065
245	0xbe4d629e	-0.2005715
246	0xbd0c455c	-0.034245834
247	0xbd7dfbc1	-0.06200767
248	0x3e90156d	0.28141347
249	0x3db44b82	0.088034645
250	0xbd1b96fe	-0.037985794
251	0x3e91f342	0.28505903
252	0x3e83b9ad	0.25727597
253	0x3e92cafd	0.28670493
254	0xbd1811f6	-0.037126504
255	0x3ea703d4	0.32620108

sequential_2/dense_1/BiasAdd/ReadVariableOp f4 [61]
0	0x3ac8ea93	0.0015328698
1	0xbbe08a81	-0.0068524485
2	0xbb584e28	-0.003300557
3	0xbc873272	-0.016503546
4	0x3d488fb3	0.048965167
5	0xbd0a3327	-0.03374019
6	0xbb6ec8c4	-0.0036435584
7	0x3d62969b	0.05531941
8	0xbca0e223	-0.01963908
9	0x3ca7120a	0.020394344
10	0x3d069c01	0.03286362
11	0xbcde75e9	-0.027155833
12	0xbcdcd2a8	-0.026955917
13	0x3cd4110d	0.025887037
14	0xbc38ca8d	-0.011278761
15	0xbcb88449	-0.022524016
16	0xbce44990	-0.027867109
17	0xba240f6c	-0.00062584016
18	0xbca8cf86	-0.020606767
19	0xbcf18c45	-0.029485831
20	0x3c1b12c7	0.009464926
21	0x3d1b9333	0.037982177
22	0xbc33ee2f	-0.01098208
23	0x3cefdb89	0.029279487
24	0x3c85e4df	0.016344486
25	0x3c693151	0.014232949
26	0x3d84c40f	0.06482708
27	0xbb8879ec	-0.004164925
28	0xbd1cb46c	-0.038258
29	0x3d06542d	0.03279512
30	0x3bb4cf5b	0.0055178828
31	0x3b32aad1	0.002726246
32	0x3c3c9e7b	0.011512394
33	0xbd393721	-0.04521859
34	0x3caa9ef0	0.02082774
35	0xbd156348	-0.036471635
36	0x3cbbf8fe	0.022945877
37	0xbbcea6a2	-0.0063064853
38	0xbc91f890	-0.01781872
39	0xbbcd173e	-0.006258874
40	0xbc6c172d	-0.014409822
41	0xbb815482	-0.0039468417
42	0x3d0ed58e	0.03487163
43	0x3bec800e	0.0072174137
44	0xbb938258	-0.004501622
45	0xbbf22b7a	-0.0073904367
46	0xbcf00d0b	-0.029303094
47	0xbd0a1ea2	-0.03372062
48	0x3c8d0210	0.017212898
49	0xbb37cce2	-0.0028045704
50	0xbd098342	-0.033572443
51	0x3cb84d81	0.022497894
52	0x3bc78a0e	0.0060894554
53	0xbc60adb4	-0.013713289
54	0x3cf7e05b	0.030258348
55	0x3c74318c	0.014904391
56	0x3d0085b2	0.0313775
57	0xb960daa8	-0.0002144376
58	0x3bec55dd	0.007212384
59	0xbc8658ac	-0.016399704
60	0xbd50fbae	-0.05102127

sequential_2/dense/BiasAdd/ReadVariableOp f4 [128]
0	0xbaf72ac7	-0.0018857353
1	0x3b066887	0.002050908
2	0x3ab5d470	0.0013872515
3	0x3ccc0369	0.02490397
4	0xbd0abe2b	-0.033872765
5	0x3cb42d18	0.021994159
6	0x3baa9cff	0.0052067037
7	0x3c69474f	0.014238193
8	0xbbb63a06	-0.005561116
9	0xbbd56047	-0.0065117213
10	0xbd6ba10a	-0.057526626
11	0xbbad2658	-0.005284112
12	0x3cc571d7	0.024102135
13	0x3b87e457	0.0041470933
14	0xbbcae7fb	-0.006192205
15	0xbbc83cdf	-0.006110772
16	0xbc983d22	-0.018583838
17	0x3cfa4891	0.03055218
18	0x3ccc8367	0.024965001
19	0xbbc4bca8	-0.006003935
20	0x00000000	0.0
21	0xbc40fc27	-0.011778868
22	0xbb591b26	-0.0033127754
23	0xbd935cfe	-0.07195471
24	0xbcaf5741	-0.02140391
25	0x3d014e8c	0.03156905
26	0xbbe2ac56	-0.0069175167
27	0xbc04eafd	-0.008112666
28	0xbcc31f5c	-0.023818664
29	0xbc877e1c	-0.016539626
30	0x3be9a7ed	0.007130614
31	0xbbf7a9f2	-0.007558101
32	0x3ca2dc28	0.01988037
33	0x3cb5410e	0.022125747
34	0x3cb84559	0.022494005
35	0xbd459ec7	-0.048247125
36	0x3ad81ba4	0.001648773
37	0xbcf55e82	-0.029952291
38	0xbbc4be67	-0.006004143
39	0xbc6090ab	-0.0137063665
40	0xbb215040	-0.0024614483
41	0xbb8e27ee	-0.004338256
42	0xbbc45b5d	-0.0059923367
43	0xbd67cf1d	-0.056594003
44	0xbbb60b6b	-0.0055555603
45	0x3ac0a4ec	0.0014697588
46	0x3d0b775a	0.03404937
47	0x3d0c8aea	0.034312166
48	0xbc102c1b	-0.008799578
49	0xbc73b16f	-0.014873846
50	0x3d91f93a	0.07127614
51	0xbd104b70	-0.035228193
52	0xbb2a921e	-0.0026027034
53	0xbb4987ff	-0.0030751226
54	0xbc3e80db	-0.011627401
55	0x3d09ed04	0.0336733
56	0xbcbbca74	-0.022923686
57	0xbbf27061	-0.0073986505
58	0x3d4240e3	0.047425162
59	0xbc15d825	-0.009145771
60	0xbc0ffa8a	-0.0087877605
61	0xbc735031	-0.014850662
62	0x3d8ded5e	0.0693004
63	0x00000000	0.0
64	0x3c672305	0.01410747
65	0xbc9b5b0f	-0.018964319
66	0xbbc6826c	-0.006058028
67	0xbc962089	-0.01832606
68	0x38b0bb2f	8.4272e-05
69	0xbbc8346f	-0.006109766
70	0xbc36f136	-0.011165908
71	0xbc0d23a9	-0.008614459
72	0xbc788a3a	-0.0151696745
73	0xbc41ca82	-0.011828067
74	0xbbd1a0ef	-0.0063973586
75	0xbcbd4351	-0.023103388
76	0xbc3a520d	-0.0113721015
77	0xbcef2e2e	-0.029196825
78	0x3d203511	0.039113108
79	0x3dd9364b	0.10606059
80	0x3c8337a5	0.016017744
81	0x3d1923cb	0.03738765
82	0x3d87df3f	0.06634378
83	0xbc155790	-0.009115115
84	0xbbe56520	-0.0070005804
85	0x3cbd1fe1	0.02308649
86	0xbb960776	-0.004578526
87	0x3bd7e377	0.006588395
88	0x3d29e4f5	0.041478116
89	0x3cc1f200	0.023674965
90	0xbc98a111	-0.01863149
91	0xbc038f87	-0.008029825
92	0xbc748667	-0.014924622
93	0xbc53e367	-0.012932635
94	0x3d0f0ebd	0.034926165
95	0x3c9e65c2	0.019335631
96	0xbc2445cd	-0.010026407
97	0xbc1a0902	-0.009401562
98	0xba4c38b7	-0.00077904336
99	0xbbc4a8ee	-0.0060015833
100	0xbc6f8313	-0.014618653
101	0x3d2195a6	0.039449356
102	0xbb99fd8a	-0.0046994137
103	0x00000000	0.0
104	0xbcc4cacf	-0.024022488
105	0xbc014a12	-0.007891195
106	0xbc0a21d8	-0.008430921
107	0xbc60ff58	-0.013732754
108	0x3c57e497	0.013177059
109	0x3c5863c8	0.013207383
110	0xbc941f7a	-0.018081415
111	0xbd23e222	-0.04001058
112	0xbbc4bf8b	-0.006004279
113	0xbba5bebf	-0.005058139
114	0xbca528af	-0.020161001
115	0x3d816b7b	0.063193284
116	0x3cec68f7	0.028858645
117	0xbc186f0a	-0.0093038175
118	0xbbd38c06	-0.006455901
119	0x3b4876d8	0.0030588415
120	0x3d43e75f	0.047828075
121	0xbbc4c0f7	-0.0060044485
122	0x3c7c598f	0.015402212
123	0xbbf3abe1	-0.007436261
124	0xbc10f6f2	-0.008847939
125	0xbc173c17	-0.009230635
126	0xbbefb61b	-0.00731541
127	0xbca69f6c	-0.02033969

sequential_2/sequential/batch_normalization/FusedBatchNormV3 f4 [3]
0	0x3d05d7c5	0.032676477
1	0x3d0ccbc9	0.034374032
2	0x3ce577a6	0.028011154

sequential_2/sequential/batch_normalization/FusedBatchNormV31 f4 [3]
0	0xc00792f1	-2.1183436
1	0xc00af515	-2.1712086
2	0xbff870f7	-1.9409474

sequential_2/sequential/lambda/rgb_to_grayscale/Tensordot/MatMul1 f4 [1, 3]
0	0x3e99096c	0.2989
1	0x3f1645a2	0.587
2	0x3de978d5	0.114

sequential_2/dense/MatMul f4 [128, 768]
0	0x3c832ccf	0.016012577
1	0x3d4b8e82	0.049696453
2	0xbcfc2cb3	-0.030783033
3	0xbcaa72de	-0.020806726
4	0xbdaa787e	-0.08323763
5	0xbcc45064	-0.023964114
6	0xbd337515	-0.04381283
7	0xbd0f487c	-0.034981236
8	0xbd7d2add	-0.061808456
9	0xbc90717a	-0.017632235
10	0xbd96e045	-0.07366995
11	0x3cba94c5	0.022776017
12	0xbd1634fe	-0.03667163
13	0xbd5f5f4e	-0.05453425
14	0x3d8addd7	0.06780594
15	0xbd23961d	-0.03993808
16	0x3d6b8763	0.05750216
17	0xbd6c30e6	-0.05766382
18	0xbda259a4	-0.07927254
19	0xbc3f1bd3	-0.011664349
20	0xbd96e9e4	-0.0736883
21	0xbd74f45a	-0.059803344
22	0xbc341550	-0.010991409
23	0x3d5f9616	0.054586492
24	0xbd448331	-0.047976676
25	0x3d2ad74b	0.041709226
26	0xbd5d55d4	-0.05403693
27	0x3c8b79ab	0.01702579
28	0x3cf51254	0.029915966
29	0xbd69d957	-0.057092037
30	0xbda075eb	-0.07834991
31	0x3d8aaca9	0.067712136
32	0x3c782569	0.015145638
33	0xbd5fcc67	-0.054638293
34	0x3caa4823	0.02078635
35	0xbd883c38	-0.06652111
36	0xba7e8954	-0.00097097945
37	0x3cc69a6c	0.024243556
38	0x3d87ee31	0.06637228
39	0xbb67c844	-0.003536717
40	0x3d88779c	0.06663439
41	0xbceae825	-0.028675148
42	0x3d92065b	0.071301185
43	0xbc677392	-0.014126675
44	0x3da02644	0.078197986
45	0xbcaaf459	-0.020868467
46	0x3be2ab37	0.006917383
47	0x3d5c2352	0.05374462
48	0xbcb0607f	-0.021530388
49	0xbd955d7c	-0.07293221
50	0xbd94a967	-0.072588734
51	0x3d4380ec	0.04773037
52	0xbcc230f5	-0.023704985
53	0x3d028e54	0.031874016
54	0xbd90ae55	-0.07064501
55	0xbca72208	-0.02040197
56	0x3d1ad072	0.037796445
57	0xbd0e296c	-0.03470747
58	0x3caae5d5	0.020861546
59	0x3b20f29b	0.0024558667
60	0xbcce9fbe	-0.025222655
61	0xbd9b27b4	-0.07575932
62	0x3d45062c	0.04810159
63	0x3ca3e27b	0.020005455
64	0x3dacb642	0.084332004
65	0x3d9c09b7	0.076190405
66	0x3cee7cb1	0.029112192
67	0x399a1640	0.00029389746
68	0x3d50b14b	0.05095033
69	0xbd8f7ca0	-0.07006192
70	0xbd9caf5e	-0.07650636
71	0xbdad9eed	-0.08477578
72	0x3d241501	0.040059093
73	0x3d8e7694	0.06956211
74	0xbda54fdc	-0.080718726
75	0x3d7d2179	0.0617995
76	0xbd10599d	-0.035241712
77	0xbd8ce405	-0.06879429
78	0x3c7960f6	0.015220871
79	0xbd827cb8	-0.063714445
80	0x3d6acff8	0.05732724
81	0x3d6ed168	0.058305174
82	0x3a51e11c	0.0008006261
83	0x3cf8fb24	0.03039319
84	0x3d41585a	0.0472034
85	0xbd4b7029	-0.04966751
86	0x3bd73db1	0.0065686335
87	0xbd0cc955	-0.034371693
88	0x3c9924e6	0.018694352
89	0xbdad355c	-0.08457443
90	0x3d49f326	0.04930415
91	0x3d3dd148	0.046342164
92	0x3d5a5744	0.05330588
93	0xbd5b33e8	-0.0535163
94	0xbd98c3f2	-0.074592486
95	0xba08d62c	-0.00052199024
96	0xbd8ba1b3	-0.06817951
97	0x3c657a61	0.014006228
98	0xbd6ac3bd	-0.057315577
99	0xbd9cface	-0.07665025
100	0xbd3e1d5e	-0.046414725
101	0xbd8dec19	-0.06929798
102	0xbd321336	-0.043475352
103	0x3c97a460	0.018510997
104	0x3dad3be9	0.084586926
105	0x3d0ad801	0.033897404
106	0xbd440cd9	-0.047863815
107	0xbd5b76f4	-0.05358024
108	0xbcf7a23d	-0.030228728
109	0xbd4ba8b6	-0.049721442
110	0xbcaa0243	-0.020753032
111	0x3d80bd5a	0.06286116
112	0x3d933206	0.071872756
113	0xbd9a6f15	-0.075407185
114	0xbc25c7a7	-0.010118402
115	0x3dac2488	0.08405405
116	0xbd10bd14	-0.03533657
117	0xbbcf7e05	-0.0063321614
118	0xbd5aaae5	-0.053385634
119	0xbd536da3	-0.05161823
120	0xbd08cf59	-0.033400867
121	0x3c8f4361	0.017488183
122	0x3d8c76e8	0.06858617
123	0x3d871fd2	0.06597866
124	0x3d934aab	0.07191976
125	0xbda6792c	-0.081285805
126	0xbdabdc27	-0.083916
127	0x3d3f0a48	0.046640664
128	0xbc830459	-0.015993284
129	0x3d9b5629	0.07584793
130	0x3d38b2f5	0.04509254
131	0xbcefe355	-0.029283205
132	0x3cad0159	0.021118807
133	0x3c5ea20b	0.013588439
134	0xbd5f7b26	-0.054560803
135	0xbcad3b3b	-0.021146407
136	0x3d5efaa4	0.05443825
137	0x3da8af5a	0.08236571
138	0xbd7627a2	-0.06009639
139	0xbd6d5cf1	-0.057949964
140	0x3d3c84d2	0.046025105
141	0x3d808303	0.062749885
142	0x3c59b3ab	0.013287465
143	0xbca50045	-0.02014173
144	0x3d31d388	0.043414623
145	0xbbe937fe	-0.0071172705
146	0x3d9931d0	0.07480204
147	0x3c557c82	0.013030173
148	0xbd215d33	-0.039395522
149	0xbd631e4c	-0.055448815
150	0x3d62ca67	0.055368807
151	0xbcab248f	-0.020891456
152	0xbb0b62d7	-0.002126863
153	0x3c9f7a28	0.019467428
154	0xbd160a88	-0.036631137
155	0x3d8b3939	0.06798024
156	0xbd8b0c29	-0.06789429
157	0xbceceea3	-0.028922385
158	0x3d633d7f	0.05547857
159	0xbb509fd6	-0.003183355
160	0x3dabb1c3	0.08383515
161	0x3b049e16	0.0020235828
162	0x3c178765	0.009248589
163	0xbd81a664	-0.063305646
164	0x3d778c67	0.060436632
165	0xbda55683	-0.080731414
166	0x3d9697ad	0.073531486
167	0xbcf17e17	-0.02947907
168	0xbd40fc06	-0.04711535
169	0x3c923ea3	0.017852133
170	0xbd0decda	-0.034649707
171	0xbd10a998	-0.035317987
172	0x3c874216	0.016511004
173	0x3d60fabe	0.054926626
174	0xbd9040eb	-0.07043632
175	0x3d9e8eea	0.077421024
176	0xbce2fa14	-0.027707137
177	0xbd533200	-0.051561356
178	0x3cfc26ce	0.030780222
179	0xbbb712fd	-0.0055869804
180	0x3c99f90f	0.018795518
181	0x3d4d4e3f	0.05012345
182	0xbca18368	-0.01971598
183	0x3ce3fed8	0.02783148
184	0x3d11ec80	0.035625935
185	0x3c239818	0.009984992
186	0x3c9f7318	0.01946406
187	0x3d89f522	0.067362085
188	0x3cd53627	0.026026798
189	0xbbefa64b	-0.007313525
190	0xbd87b776	-0.06626789
191	0x3c899b04	0.01679755
192	0xbcff9de2	-0.031203214
193	0xbd2a2d47	-0.041547086
194	0xbd769ee8	-0.06021014
195	0x3b4d72ce	0.0031348947
196	0x3d8a84c5	0.06763605
197	0x3d925d38	0.07146686
198	0xbbdf44d8	-0.0068136267
199	0x3cc0a2e3	0.02351517
200	0x3d5c8fac	0.053847954
201	0xbd253754	-0.040335968
202	0x3da4e8fc	0.08052251
203	0xbd1a4317	-0.037661638
204	0x3cd89b50	0.026441246
205	0x3ceffca0	0.029295266
206	0x3d7dc1bf	0.06195235
207	0xbd4e7c68	-0.05041161
208	0xbc04ffd8	-0.0081176385
209	0x3aafe16a	0.0013418619
210	0xbd24e349	-0.04025582
211	0x3d439e92	0.047758646
212	0xbd99018e	-0.07471
213	0x3d8bdce3	0.0682924
214	0x3c8c60d0	0.017136008
215	0xbd7ad263	-0.061235797
216	0x3b007e4b	0.0019606526
217	0xbd7d3600	-0.061819077
218	0xbd46ceff	-0.04853725
219	0x3cce20e2	0.025162164
220	0xbd8d726e	-0.06906591
221	0x3c0c90d8	0.008579455
222	0x3d80d15e	0.062899336
223	0xbda33163	-0.07968404
224	0xbd7fd087	-0.062454727
225	0xbd4edae1	-0.050501708
226	0x3be709ff	0.007050752
227	0xbb88f16c	-0.0041791704
228	0x3d9bcd44	0.07607511
229	0xbc0010be	-0.007816492
230	0x3d7b442c	0.06134431
231	0x3cf5f891	0.030025752
232	0x3d22305f	0.03959691
233	0x3d02fb48	0.03197792
234	0xbd526b1d	-0.051371682
235	0x3d692995	0.05692442
236	0xbd0a9adb	-0.033839088
237	0xbd80543a	-0.06266065
238	0x3d29ab9d	0.04142343
239	0xbd400c89	-0.046886954
240	0xbc8a6b8a	-0.016896982
241	0xbd70a128	-0.05874744
242	0xbb96c006	-0.0046005277
243	0x3dab497f	0.08363628
244	0x3d8acb0d	0.0677701
245	0xbcdd7f8f	-0.027038364
246	0xbd2e8820	-0.042610288
247	0x3d036249	0.032076154
248	0xbd52200f	-0.051300105
249	0xbd53d73f	-0.051718947
250	0x3d6eee34	0.058332637
251	0x3d0d4970	0.034493864
252	0x3d76d78d	0.06026416
253	0xbcac0129	-0.020996647
254	0x3d290f18	0.04127416
255	0xbbe62c00	-0.007024288

sequential_2/dense_1/MatMul f4 [61, 128]
0	0x3be5e71e	0.0070160767
1	0xbb7ba1d7	-0.0038396025
2	0x3dc34005	0.09533695
3	0x3e195748	0.14974701
4	0xbc97635a	-0.018479992
5	0xbdd13be1	-0.10216499
6	0xbe97af26	-0.29625815
7	0xbe05ab48	-0.1305362
8	0xbdc2be4f	-0.09508955
9	0xbf5b6051	-0.8569384
10	0xbef1cd68	-0.47227025
11	0xbe25d4eb	-0.16194503
12	0xbeee9104	-0.46595013
13	0xbe64cee1	-0.22344543
14	0x3ca90afe	0.020635124
15	0x3c5170f9	0.012783282
16	0xbe4ca3ac	-0.19984311
17	0xbc408f9c	-0.011752989
18	0xbe66fb17	-0.2255672
19	0x3c91ee39	0.017813789
20	0xbe23536e	-0.15949795
21	0x3d735de5	0.059415717
22	0xbd9ad572	-0.07560243
23	0x3e3e2222	0.18567708
24	0xbd8e9ff8	-0.06964105
25	0xbd818ebe	-0.06326054
26	0xbda0fa7c	-0.07860276
27	0x3da51353	0.080603264
28	0x3d39e7f1	0.045387212
29	0xbe10e59d	-0.1415009
30	0x3d1199be	0.03554701
31	0xbe142b2e	-0.14469597
32	0x3db3e030	0.08782995
33	0x3e17710a	0.14789215
34	0x3e653c6b	0.22386329
35	0xbcd8967d	-0.026438946
36	0x3e11cbcb	0.14237897
37	0xbecda18b	-0.4016231
38	0x3dace18e	0.08441459
39	0x3e07026c	0.13184518
40	0x3bd2fe89	0.0064390344
41	0xbd6b56e7	-0.057455923
42	0x3d54633d	0.051852454
43	0x3c0887cb	0.008333157
44	0xbdc0c0f7	-0.09411805
45	0x3dd50f06	0.10403256
46	0xbd06ac31	-0.03287906
47	0xbe79d12d	-0.243962
48	0x3d3c868b	0.046026748
49	0xbe364523	-0.17799811
50	0xbc414e07	-0.011798388
51	0x3ca898aa	0.020580608
52	0xbdbb66e3	-0.091504835
53	0xbe0e3a26	-0.1388937
54	0x3d91080b	0.07081612
55	0xbe6776cf	-0.22603916
56	0x3e223291	0.15839602
57	0x3e0e8359	0.13917293
58	0xbb1eafb6	-0.0024213619
59	0xbed4ae4f	-0.41539237
60	0xbe937602	-0.2880097
61	0xbe44772e	-0.19186088
62	0xbdf9e630	-0.12202108
63	0x3e139cba	0.14415255
64	0xbd0e0bf3	-0.034679364
65	0xbdb988e8	-0.09059316
66	0xbd9645b6	-0.07337515
67	0xbe06d70c	-0.13167971
68	0xbed30384	-0.4121362
69	0xbdd95a2b	-0.10612901
70	0xbddc4f23	-0.10757282
71	0x3d8b3323	0.06796863
72	0x3d500799	0.050788496
73	0xbd428c55	-0.047497112
74	0xbc3abd07	-0.011397607
75	0xbcdb5b15	-0.02677683
76	0xbd8d4166	-0.068972394
77	0xbd84735b	-0.06467315
78	0xbe3799e7	-0.17929803
79	0x3d52ba56	0.051447235
80	0x3de88092	0.11352648
81	0x3e34f7c3	0.17672639
82	0x3d3a1321	0.0454284
83	0x3c9e7133	0.019341087
84	0xbb84cfd0	-0.0040530935
85	0xbdb213cd	-0.08695183
86	0xbd937b3a	-0.07201238
87	0xbeeea7e4	-0.46612465
88	0x3e32e529	0.1747023
89	0x3dbde4c7	0.092721514
90	0x3b5caecd	0.0033673525
91	0xbe23a877	-0.15982233
92	0x3d66852f	0.056279358
93	0x3d7c94d6	0.06166538
94	0xbe0536fe	-0.13009259
95	0x3e4cc725	0.19997843
96	0x3b45f70d	0.0030207068
97	0xbe277cf6	-0.16356263
98	0xbda464a5	-0.08027009
99	0x3d88bbe6	0.06676464
100	0xbe17b092	-0.1481345
101	0x3db781f0	0.089603305
102	0xbdc2ffa0	-0.09521413
103	0xbdc779da	-0.09740038
104	0x3d561363	0.052264582
105	0x3dfe86f4	0.12428084
106	0xbd362e3d	-0.04447769
107	0xbe05c56a	-0.13063589
108	0xbf0e6223	-0.55618495
109	0xbe49b2ea	-0.19697157
110	0xbe1cbc37	-0.15306173
111	0xbdc397de	-0.09550451
112	0xbde2eaf1	-0.11079968
113	0x3d15f498	0.036610216
114	0xbd3f72c9	-0.046740327
115	0x3d01fa3f	0.031732794
116	0xbde24070	-0.11047447
117	0x3d28d044	0.041214243
118	0x3d775baf	0.06039017
119	0xbe103843	-0.14083962
120	0x3e4bb15a	0.19891873
121	0xbdc7fbc4	-0.09764817
122	0xbe0f0a39	-0.13968743
123	0xbe1771d1	-0.14789511
124	0xbd92082b	-0.07130464
125	0xbd202443	-0.039097082
126	0x3c98b22a	0.018639643
127	0xbe37aac0	-0.1793623
128	0xbe384ca2	-0.17997983
129	0xbe621578	-0.22078502
130	0x3d7d0d54	0.06178029
131	0xbe1287e6	-0.14309654
132	0x3d6284f8	0.05530259
133	0xbe437fca	-0.19091716
134	0x3e003d9c	0.12523502
135	0x3e188eb8	0.14898193
136	0xbdebbe22	-0.11510874
137	0xbca84c40	-0.020544171
138	0xbe26750a	-0.16255584
139	0x3d886aa5	0.06660966
140	0x3e34852d	0.17628928
141	0xbe47d3c6	-0.19514379
142	0xbd448daa	-0.047986664
143	0x3da16c9a	0.07882042
144	0xbdd2e4a1	-0.10297514
145	0x3d9df96c	0.07713589
146	0xbd75d4f8	-0.060017556
147	0x3d2c3258	0.0420402
148	0xbdb2283e	-0.08699082
149	0xbd94aaca	-0.07259138
150	0xbdd8946c	-0.10575184
151	0x3d7b084d	0.061287213
152	0x3e20891a	0.156773
153	0x3dc8aa92	0.09798159
154	0x3e20e6ce	0.15713045
155	0x3b152504	0.0022757659
156	0xbd3e73f8	-0.046497315
157	0xbe140648	-0.14455521
158	0x3d86374a	0.06553514
159	0xbe16bddb	-0.14720862
160	0xbe62852f	-0.22121118
161	0xbdbad101	-0.091218956
162	0x3cbbd323	0.022927826
163	0x3cefbcf6	0.029264908
164	0xbe45b858	-0.19308603
165	0xbeba25cc	-0.36356962
166	0x3dd09b63	0.10185888
167	0xbd08ce26	-0.033399723
168	0xbe286e55	-0.16448338
169	0x3e28079d	0.16409154
170	0xbbd28c1b	-0.0064253933
171	0xbd872505	-0.06598858
172	0xbe34e9e5	-0.17667349
173	0xbd13719d	-0.035997022
174	0xbdf66d8c	-0.12032613
175	0xbe116d87	-0.14201938
176	0x3d93e15b	0.072207175
177	0x3e0639c8	0.1310798
178	0xbdc23894	-0.09483448
179	0xbd4b054f	-0.04956561
180	0x3e29ca6a	0.16581121
181	0xbd5b2f32	-0.053511806
182	0xbc6732c3	-0.014111224
183	0x3d83e8b5	0.0644087
184	0xbe3c9193	-0.18414907
185	0x3d2ac6cb	0.04169349
186	0xbe00929a	-0.12555924
187	0xbe6544c9	-0.2238952
188	0xbe20d68c	-0.15706843
189	0x3d81d5d0	0.063396096
190	0xbc9128b7	-0.01771961
191	0x3d8d3c42	0.06896259
192	0x3ddec515	0.10877434
193	0xbe47b613	-0.1950305
194	0x3d96ad37	0.07357257
195	0xbcc0809d	-0.023498828
196	0xbd822c86	-0.063561484
197	0x3e0f42d8	0.13990343
198	0x3e57f1db	0.21088354
199	0x3e0392f8	0.12849033
200	0x3e2e8d85	0.17046173
201	0x3e1beaa2	0.15226224
202	0xbcec493a	-0.02884351
203	0x3de429b8	0.1114077
204	0xbd656d1d	-0.05601226
205	0x3e611599	0.21980895
206	0x3e690718	0.22756612
207	0x3e1966f5	0.14980681
208	0x3da8f782	0.08250333
209	0xbda20a38	-0.07912105
210	0xbe23d581	-0.15999414
211	0x3cf5be41	0.029997947
212	0xbe15a5f8	-0.14614093
213	0xb996acf7	-0.00028739098
214	0xbceb6f9e	-0.028739747
215	0x3db96c11	0.09053815
216	0x3bb173fa	0.005415437
217	0xbddd80ac	-0.10815558
218	0x3e119a7e	0.1421909
219	0x3e151a35	0.14560778
220	0x3e0911fd	0.13385768
221	0x3e27ca6c	0.16385812
222	0x3c869ce0	0.016432226
223	0x3e0c1c51	0.13682677
224	0xbd0dd911	-0.03463084
225	0x3dba754c	0.09104404
226	0xbe4438d9	-0.1916231
227	0x3e266b6a	0.16251913
228	0x3e257663	0.16158442
229	0x3d3ede85	0.04659893
230	0xbe2346d3	-0.15944986
231	0xbd1923d8	-0.0373877
232	0xbe7d1584	-0.24715239
233	0x3de6b000	0.11264038
234	0xbd4dba3a	-0.050226428
235	0xbdf2273f	-0.11823892
236	0xbcf07fd9	-0.029357838
237	0x3c58e209	0.013237485
238	0x3e13f258	0.14447916
239	0x3d0f6f0b	0.03501801
240	0xbcaea103	-0.02131701
241	0x3de57171	0.11203278
242	0x3d598e58	0.053114265
243	0xbd868659	-0.065685935
244	0xbe9299d9	-0.28633
245	0x3bfe9b92	0.0077700103
246	0xbe2ce935	-0.16885836
247	0xbc8b04cd	-0.016970063
248	0xbea58cb6	-0.32333916
249	0xbdaa36f0	-0.0831126
250	0x3e0300fd	0.12793346
251	0xbe236d12	-0.15959576
252	0x3a26b239	0.00063589547
253	0xbd9afa4a	-0.0756727
254	0xbe2c7720	-0.16842318
255	0x3e1192c7	0.14216147
