model.tflite (tflite, 526356 bytes, 13 tensors)

sequential_2/conv2d/Relu;sequential_2/conv2d/BiasAdd;sequential_2/conv2d/Conv2D;sequential_2/conv2d/BiasAdd/ReadVariableOp f4 [16, 3, 3, 1]
0	0x3a27ea4d	0.0006405458
1	0x38aeff0e	8.344474e-05
2	0x39f41bde	0.0004656007
3	0xb912c0f1	-0.00013995521
4	0xb889865c	-6.5576955e-05
5	0xb993fcd5	-0.000282264
6	0x3712c3dd	8.747881e-06
7	0xba172702	-0.00057660055
8	0xb9d3567f	-0.000403095
9	0x3b2293d6	0.0024807355
10	0x3b4373ae	0.002982359
11	0x3b55e833	0.0032639622
12	0x3b3badd2	0.002863754
13	0x3b1d88e0	0.0024037883
14	0x3b458380	0.0030138195
15	0x3b4d1a70	0.0031296276
16	0x3b2af495	0.0026085724
17	0x3b67189d	0.0035262473
18	0xba08213b	-0.000519294
19	0xba2e290a	-0.00066436885
20	0x37a994de	2.0215692e-05
21	0xb9754cbd	-0.00023393608
22	0x3a46895f	0.00075735705
23	0xb94b0730	-0.00019362266
24	0x3a642c23	0.00087040866
25	0x39184e17	0.0001452494
26	0x39caf886	0.00038713607
27	0x3a6b52d3	0.00089768803
28	0x3a19f689	0.00058732234
29	0x37223965	9.669316e-06
30	0x3a61df05	0.00086163013
31	0xb85843a8	-5.1561423e-05
32	0xb9517655	-0.00019975875
33	0x3a6f1b75	0.0009121218
34	0xb9ba7fe0	-0.0003557196
35	0xb997395b	-0.00028843698
36	0xbadd0c99	-0.0016864716
37	0xbac75d40	-0.0015210286
38	0xba6c64a8	-0.00090176845
39	0xba6f0b58	-0.0009118817
40	0xbada4a0c	-0.0016654148
41	0xba2bdf48	-0.0006556404
42	0xbae60a40	-0.0017550662
43	0xbaf5d95b	-0.0018756794
44	0xba73a2dc	-0.00092939823
45	0xba439772	-0.0007461227
46	0x39634469	0.00021673892
47	0xba1d4159	-0.0005998812
48	0x3993ea8b	0.00028212773
49	0xba0c685e	-0.0005356128
50	0x39726fbf	0.00023120547
51	0xb94eba9c	-0.00019715208
52	0xba1bc451	-0.0005942034
53	0x3a13b152	0.0005634028
54	0x3aed56be	0.0018107516
55	0x3a8054ee	0.0009790936
56	0x3adbef19	0.0016779631
57	0x3acb95f3	0.0015532359
58	0x3a8d4d2b	0.0010780444
59	0x3ae58fa8	0.0017514126
60	0x3aaddfd7	0.0013265562
61	0x3ad484a6	0.0016213849
62	0x3b0443c9	0.0020182005
63	0xbb16b8a3	-0.0022998236
64	0xbb18f07d	-0.0023336702
65	0xbb121784	-0.0022291848
66	0xbb2b6e14	-0.002615814
67	0xbb1b4083	-0.0023689575
68	0xbb21c169	-0.0024681932
69	0xbb06c95a	-0.0020566792
70	0xbb03988c	-0.0020079939
71	0xbb3d08e1	-0.0028844404
72	0xbb0c2d18	-0.0021389183
73	0xbb12af38	-0.002238227
74	0xbaee9566	-0.0018202483
75	0xbb145f64	-0.0022639865
76	0xbae4d1ec	-0.0017457581
77	0xbb15ac43	-0.0022838272
78	0xbb006319	-0.0019590317
79	0xbaea90f2	-0.001789598
80	0xbb1e8595	-0.0024188508
81	0x3a24b321	0.0006282796
82	0xb99aec93	-0.0002954943
83	0xb779647d	-1.4864953e-05
84	0x39ff6851	0.00048715112
85	0x37cdad04	2.4518471e-05
86	0xb9a793e2	-0.00031962903
87	0xba5b8124	-0.00083734305
88	0x39bdcdc0	0.00036202185
89	0xb9f7f797	-0.0004729598
90	0x39d3bf1f	0.00040387452
91	0x38db4839	0.00010456186
92	0xb9e53aac	-0.00043721998
93	0xb9ef29e8	-0.00045616855
94	0x37adb1e2	2.070604e-05
95	0x38bc6ce6	8.9848225e-05
96	0x3911986c	0.00013885059
97	0x3895847b	7.12955e-05
98	0xba304277	-0.0006723771
99	0x399ab113	0.000295051
100	0x39c121e4	0.0003683708
101	0xb8072711	-3.222289e-05
102	0x39a41f10	0.0003130366
103	0x385549cd	5.085189e-05
104	0xba31b476	-0.0006778905
105	0x39196684	0.00014629407
106	0xb9aa41c8	-0.00032473938
107	0xb9fbb951	-0.00048012522
108	0x3b03874d	0.002006966
109	0x3aa32024	0.0012445492
110	0x3b079eef	0.0020694097
111	0x3b039ce6	0.0020082532
112	0x3af0dc60	0.0018376224
113	0x3b023b98	0.0019871946
114	0x3b0359b8	0.002004249
115	0x3ad8542c	0.0016504577
116	0x3ae4f8bb	0.0017469147
117	0x390a7dd3	0.00013207579
118	0xb9f58323	-0.00046827746
119	0x3a02eb7c	0.00049941964
120	0x37963b7b	1.7909091e-05
121	0xb9cc3a02	-0.0003895313
122	0x384eedd1	4.933571e-05
123	0x3a140d85	0.00056477665
124	0x39b11a2e	0.00033779576
125	0xba2e2989	-0.00066437625
126	0x39f375d5	0.00046436363
127	0xba1c1671	-0.0005954272
128	0xb9fcc3b0	-0.00048210984
129	0xba005d2f	-0.0004896698
130	0xb9f19d8f	-0.00046084492
131	0x39de732d	0.00042428952
132	0x3a0153e7	0.0004933462
133	0xba20a671	-0.00061283173
134	0xb979f84f	-0.00023838993
135	0xbb2e253a	-0.0026572482
136	0xbb249b6b	-0.002511705
137	0xbb3cd90d	-0.0028815896
138	0xbaad9e15	-0.0013245965
139	0xbb3e5e80	-0.0029048026
140	0xbb3ab516	-0.0028489283
141	0xbb2ac945	-0.0026059907
142	0xbad7977c	-0.0016448344
143	0xbb57c9db	-0.0032926712

sequential_2/conv2d/BiasAdd/ReadVariableOp f4 [16]
0	0xbc34c4dd	-0.011033264
1	0x3d2b6b03	0.0418501
2	0xbcac0110	-0.0209966
3	0xbd23b982	-0.039971836
4	0x3d0235c8	0.03178957
5	0xbcca015d	-0.024658853
6	0x3cc88257	0.024476213
7	0x3d30a533	0.043126296
8	0x3d185cec	0.037197992
9	0xbcde74cb	-0.0271553
10	0xbbde1202	-0.006777049
11	0xbca5d247	-0.02024187
12	0x3d157ea9	0.036497746
13	0xbc263bfb	-0.010146136
14	0xbc345408	-0.011006363
15	0x3d2aa566	0.041661642

sequential_2/conv2d_1/BiasAdd/ReadVariableOp f4 [32]
0	0x3d835cf9	0.064142175
1	0x3d676397	0.05649146
2	0x3d71e399	0.059054945
3	0x3d1271a3	0.035752904
4	0xbc875ff3	-0.016525244
5	0x3d74ea56	0.059793793
6	0x3d44558e	0.047933154
7	0x3d970d36	0.07375567
8	0xbc26dff7	-0.010185233
9	0x3d838350	0.0642153
10	0xbc0d50c4	-0.008625213
11	0x3d7012ed	0.0586118
12	0x3d58479d	0.05280267
13	0x3d5fa9cc	0.05460529
14	0xbc097373	-0.008389342
15	0x3d6d3288	0.05790952
16	0x3d55ff19	0.052245233
17	0x3d049151	0.032365147
18	0xbc530592	-0.012879746
19	0x3d69a010	0.057037413
20	0x3d6ade77	0.057341065
21	0xbbfe0320	-0.0077518374
22	0xbbcfd2fd	-0.0063422904
23	0xbbbf741c	-0.0058426987
24	0x3d4309a9	0.047616635
25	0x3d0cd5a9	0.03438345
26	0x3d203378	0.039111584
27	0x3d80a62b	0.06281694
28	0xbbf5a02c	-0.0074959006
29	0xbcd3bff2	-0.025848363
30	0x3d3c2319	0.04593191
31	0x3d5a4a24	0.053293362

sequential_2/conv2d_2/BiasAdd/ReadVariableOp f4 [64]
0	0x3cda3fce	0.026641753
1	0x3d6336a3	0.055472028
2	0x3cf3f91c	0.02978187
3	0x3d8945e2	0.06702782
4	0x3d86800b	0.06567391
5	0xbd60e528	-0.05490604
6	0x3d8dfe9e	0.0693333
7	0xbbe69752	-0.0070370818
8	0x3d774cb5	0.060375888
9	0xbc8008cc	-0.015629195
10	0xbc890ca4	-0.01672966
11	0xbc1a70ca	-0.009426305
12	0xbbe4d490	-0.0069833472
13	0x3d876b27	0.066122346
14	0x3d9d36b2	0.07676448
15	0xbbebe451	-0.0071988483
16	0xbc8ab751	-0.016933115
17	0xbc5f1792	-0.013616459
18	0x3d59579f	0.053062078
19	0xbc46cd5c	-0.012133922
20	0x3d567a98	0.05236301
21	0x3cbedfe2	0.023300115
22	0x3d4cf1c2	0.050035246
23	0x3c8445de	0.016146597
24	0x3d6a855f	0.0572561
25	0xbbcd9e98	-0.0062750094
26	0x3cfa8838	0.030582532
27	0x3c9f04c4	0.019411452
28	0x3d1424a9	0.036167774
29	0x3b3bd430	0.002866041
30	0xbc1fedef	-0.009761318
31	0xbca68927	-0.020329071
32	0x3d4a74c7	0.049427774
33	0xbabac45e	-0.0014249196
34	0x3cfef6bd	0.031123513
35	0xbc131710	-0.0089776665
36	0xbbd69217	-0.006548177
37	0x3caac957	0.02084796
38	0x3d58ecca	0.052960195
39	0x3a9249ef	0.001116095
40	0x3cf38444	0.029726155
41	0xbce091d2	-0.027413283
42	0x3d1d8591	0.038457457
43	0xbc24a20c	-0.010048401
44	0x3d322bd3	0.043498825
45	0x3d5f08a0	0.054451585
46	0xbb9c90d0	-0.004778005
47	0xbbcecb54	-0.0063108597
48	0xbdd503fa	-0.10401149
49	0x3cf80e97	0.030280394
50	0xbe104dbb	-0.14092152
51	0x3a5dc828	0.00084603066
52	0x3da2b77f	0.07945155
53	0xbc46713d	-0.012111959
54	0x3d0f4fa5	0.034988064
55	0x3d8103bd	0.06299541
56	0xbc4c8608	-0.012483127
57	0xbb22f7e4	-0.0024866993
58	0x3d8b1ea3	0.06792953
59	0xbc2d8672	-0.010591136
60	0xbc953ea9	-0.018218355
61	0xbc583b0a	-0.01319767
62	0x3d59fc33	0.05321903
63	0x3d8dd707	0.06925779

sequential_2/conv2d_1/Conv2D f4 [32, 3, 3, 16]
0	0x3db10f67	0.08645516
1	0x3e85cde1	0.26133636
2	0x3d099b50	0.033595383
3	0xbd89974e	-0.06718312
4	0xbd264085	-0.040588874
5	0x3d465a48	0.048425943
6	0x3da47ce1	0.08031631
7	0x3dabf210	0.08395779
8	0x3da5bc64	0.08092573
9	0xbbaebd66	-0.0053326366
10	0x3cc8824b	0.024476191
11	0xbd1dbdff	-0.038511273
12	0x3dadf446	0.08493857
13	0xbd5acde7	-0.05341902
14	0xbcf0f855	-0.029415289
15	0xbe1f1f29	-0.1553923
16	0x3d0e33ee	0.034717493
17	0x3e48fd57	0.19627891
18	0x3d920752	0.071303025
19	0xbda9db52	-0.08293785
20	0x3da8bad8	0.082387626
21	0xbd9d784c	-0.076889604
22	0x3c82edbb	0.0159825
23	0xbc627505	-0.013821845
24	0x3db3adca	0.08773382
25	0x3de85e6b	0.11346134
26	0x3daa7f45	0.08325056
27	0xbdd370c0	-0.1032424
28	0x3c99571b	0.018718293
29	0xbd3f0ee4	-0.04664506
30	0x3c4f70a4	0.012661133
31	0xbe1d55c3	-0.15364747
32	0x3b2ec313	0.0026666566
33	0x3cee7490	0.029108316
34	0x3dc63220	0.09677529
35	0x3d3b1d00	0.045681953
36	0x3d26763c	0.0406401
37	0xbd929f75	-0.0715932
38	0xbd91f8b3	-0.07127514
39	0xbce7ee41	-0.02831185
40	0x3d016025	0.03158583
41	0xbd5c26ac	-0.053747818
42	0x3d56e699	0.05246601
43	0x3b6afffc	0.0035858145
44	0x3e15947f	0.14607428
45	0x3ccbc88d	0.024875904
46	0xbd1626b4	-0.036658004
47	0xbc2bdadf	-0.010489195
48	0xbdd9bc39	-0.10631604
49	0x3e8b1809	0.27166775
50	0xbd80eaf5	-0.062948145
51	0x3d3bc6e2	0.045843966
52	0xbe02423a	-0.12720576
53	0xbd9ef4bd	-0.07761524
54	0x3e2e18bc	0.17001623
55	0xbd9c73c8	-0.07639271
56	0xbc96ad7d	-0.018393273
57	0xbd90050f	-0.07032215
58	0xbdbb4e96	-0.091458485
59	0x3cf004c2	0.029299144
60	0x3e5b3d40	0.21410084
61	0x3b9c9f34	0.0047797207
62	0x3df55e5c	0.11980888
63	0xbc92b9d2	-0.017910872
64	0x3cc204ca	0.023683924
65	0x3e00a4df	0.12562893
66	0xbd01290c	-0.031533286
67	0x3d9e974b	0.077437006
68	0xbde0ea4f	-0.10982191
69	0x3d98cb20	0.07460618
70	0x3dff6b62	0.124716535
71	0xbe15044a	-0.14552417
72	0xbc9cec6f	-0.01915571
73	0x3d969089	0.07351787
74	0x3df32674	0.11872569
75	0x3c85adfd	0.016318316
76	0x3e59aa99	0.21256484
77	0xbdd3a7ec	-0.10334763
78	0x3d8cc28b	0.068730436
79	0xbdab2173	-0.08355989
80	0x3d93b08c	0.07211408
81	0x3caed79a	0.021343041
82	0xbd977e9b	-0.07397195
83	0x3d405c85	0.046963234
84	0xbcf00e47	-0.029303683
85	0xbd7689e5	-0.0601901
86	0x3cfd19b7	0.03089605
87	0xbdbff39a	-0.09372635
88	0xbd28e77b	-0.041236382
89	0x3dc9ec8a	0.09859569
90	0xbdc015a9	-0.09379131
91	0x3deaedbd	0.11471126
92	0x3e2675fa	0.16255942
93	0xbdf17107	-0.117891364
94	0xbdaffb1a	-0.08592816
95	0x3da7c197	0.08191221
96	0xbdb748fa	-0.08949466
97	0x3e49c267	0.19703065
98	0xbdcbfaab	-0.099599205
99	0xbdb8060e	-0.0898553
100	0x3bf7b8ce	0.007559872
101	0xbda49d04	-0.08037761
102	0x3e0579c8	0.13034737
103	0x3c5cc06d	0.013473612
104	0xbe0dbb0d	-0.13840885
105	0xbcdbf700	-0.026851177
106	0xbdb3c46b	-0.08777698
107	0x3dd9a43c	0.10627028
108	0x3e2fd675	0.17171653
109	0xbdbb7326	-0.09152822
110	0x3d2206fb	0.03955744
111	0xbddf55b9	-0.10905022
112	0xbd9bc644	-0.076061755
113	0x3e0a6ed8	0.13518846
114	0xbdb5cb1c	-0.08876631
115	0x3df328f9	0.11873049
116	0xbe25735f	-0.16157292
117	0xbd604c47	-0.054760244
118	0x3e95f47d	0.29288092
119	0xbe49d13b	-0.19708721
120	0xbe4045ec	-0.18776673
121	0x3d2b0d8e	0.041760974
122	0xbdaecad7	-0.085347824
123	0xbd973a88	-0.07384211
124	0x3e3dacaf	0.18522905
125	0x3ccf8238	0.025330648
126	0xbc1539d7	-0.009108028
127	0xbdb2dec4	-0.087338954
128	0xbc81acdc	-0.015829496
129	0x3e481b38	0.19541633
130	0xbc8dfce2	-0.017332498
131	0xbdd10a1a	-0.10207005
132	0x3d7d89df	0.061899062
133	0x3d898f2a	0.067167595
134	0x3d00477e	0.03131818
135	0x3d6bbc07	0.057552364
136	0xbe03894b	-0.12845342
137	0x3dbdfefd	0.09277151
138	0x3d16784e	0.036735825
139	0xbdee42ad	-0.11633811
140	0x3e576c63	0.2103744
141	0x3c743c86	0.014907008
142	0x3d62f8f2	0.055413194
143	0x3d6ff9f5	0.058587987
144	0x3dd7dc8a	0.10540111
145	0x3df2f7e0	0.11863685
146	0xbd8e3b18	-0.06944865
147	0xbd4b6b6a	-0.049662985
148	0xbcde7e94	-0.027159967
149	0x3c5a5127	0.013325012
150	0x3ddcf9b9	0.10789818
151	0xbe06a3c7	-0.13148414
152	0xbd812219	-0.06305332
153	0x3d8f1cce	0.06987916
154	0xbd82d1e6	-0.06387691
155	0xbd9b7a3d	-0.075916745
156	0x3e1a2fe1	0.15057327
157	0xbd973cd7	-0.07384651
158	0xbdd27c0f	-0.102775685
159	0xbd53e0d4	-0.051728085
160	0x3d23e04c	0.040008828
161	0x3e89b24c	0.26893842
162	0xbd8e0f2d	-0.06936488
163	0x3d1aacf2	0.03776259
164	0xbce20508	-0.02759029
165	0x3d388e62	0.04505766
166	0x3d9cc116	0.07654016
167	0xbe15c5e2	-0.14626268
168	0xbd377f83	-0.04479934
169	0x3ba66b0a	0.005078678
170	0x3d0f3735	0.03496476
171	0xbc778573	-0.0151075
172	0x3dec747a	0.11545654
173	0x3d6d6feb	0.05796806
174	0x3dbbb906	0.0916615
175	0xbdabdfb0	-0.083922744
176	0x3cd96eec	0.02654215
177	0x3de5543d	0.11197708
178	0xbdb4d2f9	-0.08829302
179	0x3d0b974f	0.034079846
180	0x3da35eb9	0.07977051
181	0x3c46c69b	0.012132312
182	0x3e4eec2a	0.20207277
183	0x3cc393dd	0.023874218
184	0xbdb23c1a	-0.0870287
185	0x3c5a67a2	0.013330372
186	0x3a0ae062	0.0005297718
187	0x3dced2be	0.1009879
188	0x3e58c6d7	0.21169601
189	0x3ca12a4e	0.019673493
190	0x3d953b34	0.07286683
191	0xbe3e1963	-0.18564372
192	0x3d7a149b	0.061054807
193	0x3e6af420	0.22944689
194	0xbb748c39	-0.0037315025
195	0x3dd979f3	0.10618963
196	0x3dbe0bc3	0.09279587
197	0xbd119fcd	-0.03555279
198	0x3e407018	0.1879276
199	0xbd1e68c1	-0.03867412
200	0xbe0e65f8	-0.13906085
201	0x3d686b04	0.056742683
202	0x3dc2e1fe	0.09515761
203	0xbdab46cf	-0.08363115
204	0x3d7c58a6	0.06160798
205	0xbd9652e3	-0.07340028
206	0x3dc2ef2c	0.09518275
207	0xbd9a5b96	-0.07537
208	0x3dc6c48a	0.097054556
209	0x3e16d6d9	0.14730395
210	0xbdb5569c	-0.0885441
211	0xbda18209	-0.0788613
212	0x3d0eaf4f	0.034835156
213	0x3d494971	0.049142305
214	0x3e421e65	0.18956907
215	0x3c6c23cd	0.014412832
216	0xbe258511	-0.16164042
217	0xbd68e052	-0.056854554
218	0xbd84e32c	-0.06488642
219	0x3dd490a9	0.10379154
220	0x3da4dacc	0.08049545
221	0x3d88f8d6	0.06688087
222	0x3c0dfc46	0.008666104
223	0xbd4abbf6	-0.04949566
224	0x3dd559a3	0.104174875
225	0x3e2068b6	0.15664944
226	0xbdc54bd6	-0.09633605
227	0xbcaf558a	-0.021403093
228	0x3c8b21d6	0.016983908
229	0x3c50b508	0.012738474
230	0x3e1a613d	0.15076156
231	0xbdabb311	-0.083837636
232	0xbd084bac	-0.03327529
233	0x3dcc68da	0.09980936
234	0xbdb54262	-0.08850552
235	0x3dcb55f1	0.099285014
236	0x3d0aed51	0.03391773
237	0xbbe7e948	-0.00707737
238	0x3dce49c7	0.10072666
239	0x3c854432	0.01626787
240	0xbce75886	-0.028240453
241	0x3de244da	0.11048289
242	0x3c918f8c	0.017768644
243	0x3ceb4e35	0.028723815
244	0xbd0f4586	-0.034978412
245	0xbe0644c6	-0.13112172
246	0x3d9c4918	0.07631129
247	0x3de549b4	0.111956984
248	0x39cf639c	0.00039556331
249	0x3c95c0cb	0.018280407
250	0x3da5df9f	0.08099293
251	0xbdd6bee9	-0.10485632
252	0x3ca7b0b6	0.020470005
253	0xbcc438e8	-0.023952916
254	0x3d11472e	0.035468273
255	0xbe0a6222	-0.13513997

sequential_2/conv2d_2/Conv2D f4 [64, 3, 3, 32]
0	0x3d4d6e7b	0.05015419
1	0x3c0eb7fe	0.008710859
2	0x3e11e3ab	0.14247005
3	0xbe6d2b01	-0.23160936
4	0x3ca74625	0.02041919
5	0xbdf591fd	-0.11990736
6	0x3daedc17	0.085380726
7	0xbe310571	-0.17287232
8	0xbd3881fd	-0.04504584
9	0x3df2c544	0.11854032
10	0xbd89c86a	-0.06727679
11	0x3d6047cb	0.054755967
12	0x3d6fb847	0.05852535
13	0x3d479ecf	0.048735436
14	0xbd6efabd	-0.05834459
15	0x3df8dff8	0.12152094
16	0x3e22acd5	0.15886243
17	0xbe4344fd	-0.19069286
18	0x3da640a4	0.08117798
19	0x3e250c62	0.16118005
20	0xbc84e5dd	-0.016222889
21	0x3c7e3965	0.015516614
22	0x3d079fa7	0.03311124
23	0xbd58389e	-0.05278837
24	0x3c9e88cc	0.01935234
25	0xbec12328	-0.37722135
26	0xbd738858	-0.0594562
27	0x3db75aa4	0.08952835
28	0x3d0da1c7	0.03457811
29	0x3c96d5a3	0.018412417
30	0xbe6dd039	-0.23223962
31	0x3e21e5e2	0.1581035
32	0xbd48010c	-0.048829123
33	0xbd894fed	-0.06704698
34	0x3ca103a9	0.019655066
35	0xbe198787	-0.14993106
36	0x3d96e730	0.07368314
37	0xbc855523	-0.016275948
38	0x3dbd37c9	0.09239156
39	0xbeaf4964	-0.3423568
40	0xbda87649	-0.08225686
41	0x3e1069e9	0.14102902
42	0xbac673d3	-0.001514072
43	0x3c993af4	0.018704869
44	0x3df6dabf	0.12053441
45	0xbcfda5c2	-0.030962829
46	0xbb0bc458	-0.0021326747
47	0x3d713267	0.058885958
48	0x3d04b6e6	0.032400988
49	0xbe8c1716	-0.27361363
50	0x3d86285f	0.06550669
51	0x3e0e31a3	0.13886122
52	0x39a8a4da	0.0003216628
53	0x3d8754bb	0.06607958
54	0xbd99c8d6	-0.075090095
55	0x3cdc96df	0.02692741
56	0xbd9005fe	-0.07032393
57	0xbeb3defc	-0.3513106
58	0x3d149baa	0.036281265
59	0x3e0247d2	0.1272271
60	0x3d8f247d	0.069893815
61	0x3c8f982f	0.017528621
62	0xbe1351cd	-0.14386673
63	0x3c9c5e29	0.019087868
64	0x3ced3b1f	0.028958855
65	0x3c7c61e5	0.015404199
66	0x3dfe15d1	0.12406505
67	0xbe4d1c2f	-0.20030282
68	0x3d691087	0.056900527
69	0xbd6daa73	-0.05802388
70	0x3e2b595e	0.1673331
71	0xbe8e19d1	-0.2775407
72	0xbd078ddd	-0.033094276
73	0x3d6fa0b5	0.05850287
74	0xbd0c38ae	-0.03423374
75	0x3dcb2394	0.09918895
76	0x3db5931d	0.0886595
77	0x3c4b640b	0.012413989
78	0x3cbc8191	0.023011
79	0x3e0d211d	0.13782163
80	0x3db4f015	0.088348545
81	0xbe933887	-0.28754064
82	0xbc8de7f6	-0.017322522
83	0x3def8d05	0.11696819
84	0x3d7bc3d1	0.061466042
85	0x3d9989a5	0.07496957
86	0x3c90915c	0.017647438
87	0xbd64e72e	-0.055884533
88	0xbdfcc6c9	-0.12342603
89	0xbeaf3f2e	-0.3422789
90	0xbca71096	-0.020393651
91	0x3e390197	0.18067013
92	0xbbaeb43d	-0.0053315447
93	0xbde58af1	-0.112081416
94	0xbdc70cd4	-0.09719244
95	0x3e01d9d5	0.12680753
96	0xbc880fc0	-0.016609073
97	0xbc702ef1	-0.014659629
98	0x3cb665a7	0.022265268
99	0xbeb8084b	-0.35943827
100	0xbb6143cd	-0.0034372688
101	0xbd6078c4	-0.05480267
102	0x3dd3898c	0.10328969
103	0xbe6703a9	-0.2255999
104	0xbd969d64	-0.07354239
105	0x3db26f6e	0.0871266
106	0xbb9145c4	-0.0044333655
107	0x3d17d009	0.037063632
108	0x3c04cd1c	0.0081055425
109	0x3d2dd1c4	0.042436376
110	0xbc7a0a31	-0.015261219
111	0x3d6869c1	0.05674148
112	0xbd202bd8	-0.039104313
113	0xbe2d1737	-0.16903387
114	0x3c909db0	0.017653316
115	0x3dbfe11a	0.093691066
116	0xbd80a96e	-0.06282316
117	0x3c0ee72e	0.00872211
118	0xbd0edb3b	-0.034877043
119	0x3cf5008a	0.029907484
120	0x3bfbf902	0.007689596
121	0xbe0f6504	-0.14003378
122	0x3d0d5eba	0.034514166
123	0x3d944500	0.07239723
124	0xbd2fa031	-0.04287738
125	0x3bade096	0.0053063137
126	0xbe298496	-0.16554484
127	0x3d461b15	0.04836567
128	0x3db4b461	0.08823467
129	0x3c72fbe4	0.014830563
130	0x3dae750d	0.085184194
131	0xbed5bf0c	-0.4174732
132	0xbcd0f26b	-0.025506219
133	0x3de796a6	0.11308031
134	0xbd596574	-0.05307527
135	0xbdc608b4	-0.09669629
136	0xbd2a7cf2	-0.041623063
137	0x3cea5e6a	0.028609473
138	0xbda6a085	-0.081360854
139	0x3acfa0bc	0.0015840749
140	0x3d156dd9	0.036481712
141	0x3d75e733	0.060034942
142	0xbd059a3b	-0.03261779
143	0xbcf5ff2c	-0.030028902
144	0x3c8841b9	0.016632902
145	0xbe9e93ff	-0.30972287
146	0xbcd371d0	-0.025811106
147	0xbd0c62ce	-0.034273915
148	0x3db4e6fb	0.088331185
149	0x3ae5c7fc	0.0017530913
150	0x3d903953	0.07042184
151	0xbd012d7e	-0.031537525
152	0x3c5e55fc	0.013570305
153	0xbe58d021	-0.21173145
154	0xbc926115	-0.017868558
155	0xbd07e7c7	-0.033180024
156	0xbd9c726f	-0.07639014
157	0x3d029416	0.031879507
158	0x3ce4b14e	0.027916577
159	0xbd41e2b6	-0.04733535
160	0x3d5901fc	0.052980408
161	0x3d41ed7c	0.047345623
162	0x3c5bfc03	0.0134267835
163	0xbe903796	-0.2816741
164	0xbd0024c8	-0.031285077
165	0x3da24f7f	0.07925319
166	0xbd816224	-0.06317547
167	0xbe62a42c	-0.22132939
168	0xbd9c4124	-0.07629612
169	0x3d9b5573	0.075846575
170	0xbd62c3ab	-0.055362385
171	0x3da6f5d4	0.08152357
172	0x3d730b2d	0.05933683
173	0x3c327057	0.010891042
174	0xbcb10ee9	-0.021613555
175	0x3ddfa75a	0.10920592
176	0xbb542d04	-0.0032375464
177	0xbecdcf6c	-0.40197313
178	0xbb486cc6	-0.0030582412
179	0x3be0b35a	0.006857318
180	0x3dac3ef9	0.084104486
181	0x3d80208f	0.0625621
182	0x3d0e2cbf	0.034710642
183	0x3cc20c53	0.023687517
184	0xbc93fe42	-0.018065576
185	0xbe7c4d16	-0.24638781
186	0x3dbafc16	0.09130113
187	0x3c9e6d4a	0.019339222
188	0xbc9bbdc5	-0.019011388
189	0xbda26fb3	-0.07931461
190	0xbd8e9418	-0.069618404
191	0x3d8914e6	0.06693439
192	0x3da2e7a3	0.079543374
193	0x3ddd85f2	0.10816564
194	0xbd3f92d1	-0.046770874
195	0xbeb3b916	-0.35102147
196	0xbd935423	-0.07193782
197	0x3e48f529	0.19624771
198	0x3dce09bf	0.10060453
199	0x3b9b1f9f	0.004733994
200	0x3c600c53	0.013674813
201	0x3cb915d4	0.022593416
202	0x3d9554d3	0.072915696
203	0x3dfe348f	0.124123685
204	0xb9efb4d9	-0.00045720374
205	0x3d8b3474	0.06797114
206	0x3d89167b	0.06693741
207	0x3ceb5387	0.028726352
208	0x3d878119	0.0661642
209	0x3de7a94f	0.1131159
210	0xbd009156	-0.031388603
211	0x3d93fec0	0.07226324
212	0x3e051c16	0.12998995
213	0x3d948e27	0.07253676
214	0xbd936279	-0.071965165
215	0xbbacffde	-0.005279525
216	0x3e3b9afb	0.18320839
217	0x3d60e008	0.054901153
218	0x3e1ea668	0.15493166
219	0x3dda0157	0.10644787
220	0xbd8a965b	-0.06766959
221	0x3d98d80b	0.07463082
222	0x3ce616d5	0.028087059
223	0xbc91a3f3	-0.017778372
224	0x3e6fabf5	0.2340544
225	0x3e53ff12	0.2070277
226	0xbe4cfb1e	-0.20017669
227	0xbf3bf304	-0.7341769
228	0xbba67c46	-0.0050807325
229	0x3e882c39	0.2659624
230	0x3dc0e3db	0.0941846
231	0x3e811790	0.2521329
232	0x3aaf0bf1	0.0013354999
233	0x3ca1e224	0.019761153
234	0x3d8bba33	0.06822624
235	0x3d9443e8	0.072395146
236	0xbe878a3f	-0.2647266
237	0x3e30f66b	0.17281501
238	0xbd1b7587	-0.03795388
239	0xbdae0538	-0.08497089
240	0xbdc1812e	-0.09448467
241	0x3e62f3f0	0.22163367
242	0xbda30ead	-0.079617836
243	0xbe4092a6	-0.18805942
244	0x3e114527	0.14186536
245	0x3d0e91ac	0.034806892
246	0x3c471473	0.012150872
247	0xbc7ba1ca	-0.015358398
248	0x3e9a704f	0.3016381
249	0x3e961fd7	0.29321167
250	0x3dd93c83	0.10607245
251	0xbdf383c3	-0.11890366
252	0xbd4e5349	-0.050372396
253	0x3da3b01d	0.07992575
254	0x3e96443a	0.29348928
255	0xbe443b7c	-0.19163316

sequential_2/dense_1/BiasAdd/ReadVariableOp f4 [62]
0	0xbd3875e3	-0.0450343
1	0xbabb2eba	-0.0014280893
2	0x3c22840a	0.009919176
3	0xbb89b53b	-0.0042025126
4	0x3d8592c7	0.06522136
5	0xbd129611	-0.035787646
6	0xbcc20bd5	-0.023687283
7	0x3d0ad5fb	0.033895474
8	0xbc697c25	-0.01425079
9	0x3cbfacd3	0.023397839
10	0xbbcc8853	-0.006241837
11	0xbd8569c2	-0.06514312
12	0xbc88d039	-0.01670085
13	0x3a8d5d95	0.0010785336
14	0xbb8c2382	-0.004276694
15	0xbd8e567c	-0.06950089
16	0xbc55af10	-0.013042226
17	0xbac206fd	-0.0014803108
18	0xbd420115	-0.047364313
19	0xbcc29ba9	-0.023755865
20	0xbc952a8d	-0.018208766
21	0x3d2d4d53	0.04231007
22	0xbc13f7ad	-0.0090312185
23	0x3d8509a8	0.064959824
24	0x3d0da4d9	0.03458104
25	0xbc9c3284	-0.019067056
26	0x3d95837a	0.07300468
27	0xbcc7d420	-0.024393141
28	0xbd94630a	-0.07245453
29	0x3c2f9d16	0.010718605
30	0xbbe66a9a	-0.007031751
31	0xbd26c94e	-0.040719323
32	0x3be27247	0.0069105956
33	0xbc3e4e04	-0.01161528
34	0x3cd7c833	0.02634058
35	0xba8b3bf6	-0.0010622728
36	0x3d2ea0f8	0.04263398
37	0x3c64529e	0.013935713
38	0xbcb5a2c4	-0.02217234
39	0xbc897ce4	-0.016783185
40	0xbd499a50	-0.04921943
41	0xbba0b4a1	-0.004904345
42	0x3bc42d1e	0.0059868237
43	0x3d058688	0.032599002
44	0xbdaa9199	-0.08328552
45	0x3cad5b11	0.021161588
46	0xbd9bd06c	-0.07608113
47	0xbbb00ede	-0.005372866
48	0x3b5c4c53	0.0033614829
49	0x3c1fbc8f	0.009749546
50	0xbcb5717d	-0.022148842
51	0x3c00353f	0.007825195
52	0x3d0bb092	0.034103937
53	0xbd13c2d9	-0.036074493
54	0x3d31d5df	0.043416854
55	0x392fdff8	0.00016772735
56	0xbb8bac32	-0.0042624706
57	0xbbcd1a38	-0.006259229
58	0x3bb4c8c0	0.0055170953
59	0x3ccf4a7d	0.025304073
60	0xbbaba95f	-0.0052386965
61	0xbd3c0fd7	-0.045913544

sequential_2/dense/BiasAdd/ReadVariableOp f4 [128]
0	0xbc99945e	-0.018747505
1	0xbc0c3838	-0.0085583255
2	0xbc93f3ee	-0.01806065
3	0xbc0cfcc6	-0.008605188
4	0xbcb24121	-0.021759572
5	0x3d085b66	0.03329029
6	0xbc78365b	-0.015149678
7	0xbcb8ada6	-0.02254374
8	0xbb5514de	-0.0032513659
9	0x3c3bb199	0.011455917
10	0x3a89977f	0.001049742
11	0xbccda0cd	-0.02510109
12	0xbcaeafed	-0.021324122
13	0x3ce3b696	0.027797025
14	0xbbfb9181	-0.0076772575
15	0x3cd6d53c	0.026224725
16	0x3c965880	0.018352747
17	0x3b0c1fd6	0.002138128
18	0x3d0c9c07	0.034328487
19	0xbbb6183e	-0.005557089
20	0xbd0a8bd0	-0.03382474
21	0xbcb5ba53	-0.022183573
22	0xbcb910b8	-0.02259098
23	0xbcd09183	-0.02546001
24	0x3d2462d0	0.040133297
25	0xba93cf9c	-0.0011277082
26	0x3bc89457	0.006121199
27	0xbc8a8e9c	-0.016913705
28	0xbc10b783	-0.008832815
29	0xbccf2a38	-0.025288686
30	0x3d1f21aa	0.038850464
31	0xb9905e3f	-0.0002753604
32	0x3ca9f308	0.02074577
33	0xbc8b66e8	-0.017016843
34	0xbcf78edb	-0.030219486
35	0xbc4943b9	-0.012284213
36	0x3ca6acab	0.020346006
37	0x3dde0242	0.108402744
38	0xbb69c418	-0.003566986
39	0x3d302fa7	0.043014195
40	0xbb816eca	-0.0039499747
41	0xbc24487d	-0.010027048
42	0xbca05977	-0.01957391
43	0xbd42ee96	-0.047590815
44	0xbc8e7aa2	-0.01739246
45	0x3dbda496	0.09259908
46	0xbbe35696	-0.006937812
47	0xbc6786e1	-0.014131279
48	0xbc1e61e8	-0.009666897
49	0xbc02f8d8	-0.007993899
50	0xbbdb961c	-0.006701244
51	0x3d9f41f6	0.07776253
52	0xbae98b70	-0.0017818045
53	0xbce326d3	-0.027728474
54	0xbcc7ec24	-0.024404593
55	0x3c1e4a89	0.009661325
56	0x3d1568bf	0.036476847
57	0xbc4a6f29	-0.012355604
58	0xbaaed82c	-0.0013339571
59	0xbc046180	-0.008079886
60	0x3cd07f0b	0.025451204
61	0xbcf8e554	-0.03038279
62	0xbbb72467	-0.0055890563
63	0xbcbd9d12	-0.023146186
64	0xbbc517ee	-0.0060148155
65	0x3a8eb51e	0.0010887717
66	0xbb8eff73	-0.004363948
67	0xbc24798e	-0.0100387465
68	0x3ca11903	0.019665247
69	0xbcb65252	-0.02225605
70	0xbb17aa93	-0.0023142442
71	0x00000000	0.0
72	0x3d475a3a	0.04867003
73	0xbc002a08	-0.007822521
74	0x3d7d2e81	0.061811928
75	0xbcacba2b	-0.021084866
76	0xbd00a0a9	-0.031403217
77	0xbc1ddf31	-0.0096357325
78	0xbcc0b4f9	-0.023523794
79	0xbcafac69	-0.021444516
80	0x3a6caa41	0.00090280554
81	0x3bf235e1	0.007391677
82	0x3d50b553	0.050954174
83	0xbd059a1c	-0.032617673
84	0x3d8e1f94	0.06939617
85	0xbd84e78e	-0.06489478
86	0xbbef0300	-0.007294059
87	0xbc4c676f	-0.012475832
88	0xbc5aa80a	-0.013345728
89	0xbc9ad583	-0.018900638
90	0xbb97e386	-0.004635277
91	0x3ba95cee	0.005168549
92	0xbbc95900	-0.006144643
93	0xbc0b30a6	-0.008495485
94	0xbc66709f	-0.014064937
95	0xbcc68001	-0.024230959
96	0x3dd7ee90	0.10543549
97	0x3c301361	0.010746808
98	0x39595ab0	0.00020728516
99	0xbd268783	-0.040656578
100	0xbcea10dd	-0.028572494
101	0xbab8a750	-0.0014087949
102	0xba9012a2	-0.0010991881
103	0x3c708a66	0.014681434
104	0x3cdf69fe	0.02727222
105	0xbd3a843d	-0.04553627
106	0xbc9bc6c6	-0.019015681
107	0x3d8076d7	0.06272667
108	0xbc0bb7e1	-0.008527727
109	0x3c8427d4	0.016132273
110	0xbc077114	-0.008266706
111	0xbcc70fd1	-0.024299534
112	0xbc3e77f2	-0.011625277
113	0xbc1fff6f	-0.00976549
114	0xbd0bd0ca	-0.034134664
115	0xbcc5df87	-0.024154438
116	0x3d6ff3fd	0.058582295
117	0xbcc002a2	-0.023438755
118	0xbc0a3660	-0.008435816
119	0xbc3b86ea	-0.01144574
120	0xbc6ccffb	-0.014453883
121	0x3cf2df9a	0.029647637
122	0x3be03e58	0.0068433695
123	0xbcfb1a9c	-0.030652337
124	0xbaaafeae	-0.0013045871
125	0xbc41449c	-0.011796143
126	0x3d66ed77	0.056378808
127	0xbce7256c	-0.028216086

sequential_2/sequential/batch_normalization/FusedBatchNormV3 f4 [3]
0	0x3d3135ef	0.043264326
1	0x3d2d0b46	0.04224708
2	0x3d25449d	0.040348638

sequential_2/sequential/batch_normalization/FusedBatchNormV31 f4 [3]
0	0xc034407a	-2.8164353
1	0xc02e4ce3	-2.7234428
2	0xc02e7ca9	-2.7263587

sequential_2/sequential/lambda/rgb_to_grayscale/Tensordot/MatMul1 f4 [1, 3]
0	0x3e99096c	0.2989
1	0x3f1645a2	0.587
2	0x3de978d5	0.114

sequential_2/dense/MatMul f4 [128, 768]
0	0xba231396	-0.0006220875
1	0xbc98f5b0	-0.01867184
2	0xbdc6c907	-0.09706312
3	0xbd89e2f9	-0.06732745
4	0x3c9550ee	0.018227067
5	0xbd99abce	-0.07503472
6	0xbdb5ca58	-0.08876485
7	0x3d51d6c4	0.051230207
8	0x3d0e384d	0.03472166
9	0xbd7421e7	-0.059602644
10	0x3ca4b8f0	0.020107716
11	0x3d0e3d4a	0.03472642
12	0xbd424f10	-0.04743868
13	0xbd6da72a	-0.05802075
14	0xbcb53365	-0.022119233
15	0x3d2f037e	0.04272794
16	0xbd5860c4	-0.052826658
17	0x3d2951a8	0.04133764
18	0xbd566a40	-0.05234742
19	0x3d343614	0.043996885
20	0xbc90d972	-0.017681811
21	0x3c846250	0.01616016
22	0x3d03508f	0.03205925
23	0xbc65f5fc	-0.014035698
24	0x3ce42341	0.027848842
25	0xbd63cf64	-0.055617705
26	0x3d72585d	0.0591663
27	0xbd9b76a3	-0.075909875
28	0xbdb687c0	-0.08912611
29	0xbd0f9461	-0.035053615
30	0xbc131a50	-0.008978441
31	0x3d10cdde	0.03535258
32	0xbd530bb0	-0.051524818
33	0x3da4a11e	0.08038543
34	0xbd7929ee	-0.060831003
35	0xbdd5444b	-0.104134165
36	0xbd85d071	-0.06533898
37	0xbca16ec6	-0.019706141
38	0x3d091b12	0.033473082
39	0xbd45fdf9	-0.04833791
40	0x3d158a43	0.03650881
41	0xbd971e30	-0.07378805
42	0xbdaaa03e	-0.08331345
43	0x3c218dc0	0.009860456
44	0xbdbdaba8	-0.092612565
45	0xbd67dfcd	-0.056609917
46	0x3d6c279c	0.057654962
47	0xbda6c0cd	-0.081422426
48	0x3d4849b0	0.0488984
49	0x3c7edbfc	0.015555378
50	0xbbaf76c0	-0.0053547323
51	0xbcda205d	-0.02662676
52	0xbd93ebf2	-0.07222737
53	0x3d9b8048	0.07592827
54	0xbccabc51	-0.024748
55	0xbd630201	-0.055421833
56	0xbda23b7e	-0.079215035
57	0x3d8876e6	0.06663303
58	0xba98d7dc	-0.0011661011
59	0xbd585400	-0.052814484
60	0x3d7ccfd8	0.061721653
61	0x3c4e8d8d	0.0126069905
62	0xbd7d37ca	-0.061820783
63	0xbc1934db	-0.009350981
64	0x3d18e948	0.03733185
65	0x3cf129a1	0.029438796
66	0x3ba85738	0.0051373504
67	0xba86bdb0	-0.001027992
68	0xbdc03a54	-0.09386125
69	0xbd686ca2	-0.056744225
70	0x3baa142f	0.0051903944
71	0xbd10ab4b	-0.035319608
72	0x3d076252	0.03305275
73	0x3cff58c4	0.031170256
74	0x3d119354	0.035540894
75	0xbc6901a8	-0.014221586
76	0x3b4c0100	0.0031128526
77	0x3c3eb15a	0.011638964
78	0x3d35e5e0	0.04440868
79	0xbd9ae894	-0.07563892
80	0xbd29f396	-0.041492067
81	0x3d3da372	0.04629845
82	0x3ca4f1c7	0.02013482
83	0xbcbed3ba	-0.023294318
84	0xbc1c647a	-0.00954544
85	0xbcfcd71f	-0.030864296
86	0xbd464875	-0.048408944
87	0xbd35af01	-0.04435635
88	0xbcbd36d9	-0.023097442
89	0xbb9721b0	-0.00461217
90	0x3d0ba447	0.034092214
91	0x3d2ccf3b	0.042189818
92	0x3d46e88a	0.04856161
93	0xbc899eb8	-0.016799316
94	0x3cae5270	0.021279544
95	0x3c334f68	0.010944225
96	0xbdc950e7	-0.09829884
97	0x3ca4625c	0.020066433
98	0xbdb18782	-0.08668424
99	0xbd3ea0b5	-0.04653998
100	0x3d22aeac	0.03971736
101	0xbd78288a	-0.060585536
102	0x3d54128f	0.05177551
103	0xbda999d1	-0.08281291
104	0xbd80fbad	-0.06298003
105	0xbc91d5ac	-0.017802082
106	0x3d44284c	0.047889993
107	0x3d814266	0.063114926
108	0xbbb42289	-0.005497281
109	0xbd82e55e	-0.063914046
110	0x3cb8814c	0.022522591
111	0x3c8bce9c	0.017066292
112	0x3d7007e6	0.058601283
113	0x3d591646	0.052999757
114	0xbd8edefb	-0.06976124
115	0x3d730a86	0.059336208
116	0xbdc9e3db	-0.09857913
117	0xbcc0cf6a	-0.023536403
118	0xbdc515b8	-0.09623283
119	0xbbc57485	-0.006025853
120	0xbd8b3232	-0.06796683
121	0x3ad06480	0.0015899092
122	0x3b156634	0.0022796514
123	0x3bdbb2c0	0.0067046583
124	0x3d4fb0c4	0.050705686
125	0xbdbd1327	-0.09232169
126	0x3d1eb046	0.038742326
127	0xbd4f5a05	-0.05062296
128	0x3d2965c8	0.04135683
129	0xbcfae6cd	-0.030627633
130	0x3d487be9	0.048946295
131	0xbc569d36	-0.013099005
132	0x3c8fba93	0.01754502
133	0xbd1eae2a	-0.038740315
134	0xbd92bd4a	-0.0716501
135	0xbd217b6a	-0.039424337
136	0xbd83cf28	-0.06435996
137	0x3d4790d4	0.048722103
138	0xbc859194	-0.016304769
139	0x3ccf7e5c	0.025328808
140	0xbd8deba7	-0.06929713
141	0xbd12b865	-0.035820384
142	0xbd71508d	-0.05891471
143	0xbce9b5fc	-0.02852916
144	0xbc8f0398	-0.017457768
145	0xbd55e64a	-0.052221574
146	0x3d217de6	0.039426707
147	0xbc9727a4	-0.01845152
148	0x3ba0faab	0.0049126945
149	0xbdc8518c	-0.09781179
150	0xbd81fcc2	-0.06347038
151	0x3cfcb85f	0.030849634
152	0xbdcb49d5	-0.09926192
153	0x3c6dc328	0.014511861
154	0xbd69d837	-0.057090964
155	0x3d5d27f1	0.05399317
156	0xbdcd02e8	-0.1001032
157	0xbd17ee7d	-0.037092675
158	0x3d0554aa	0.032551445
159	0xbc8da6bc	-0.01729142
160	0xbd0f4fd9	-0.034988258
161	0xbccec92e	-0.025242414
162	0xba298d2c	-0.00064678746
163	0xbcf871da	-0.030327726
164	0xbc83d969	-0.01609488
165	0xbb731f4b	-0.003709751
166	0xbdcc83ac	-0.09986052
167	0xbd9280e3	-0.071534894
168	0x3d637ae9	0.055537138
169	0x3cad759c	0.021174245
170	0xbd8ba7c1	-0.06819106
171	0xbd8e307c	-0.069428414
172	0x3d5516de	0.05202376
173	0x3ca7605b	0.020431688
174	0xbcbbda92	-0.02293137
175	0x3d93eca0	0.07222867
176	0x3cc94320	0.02456814
177	0x3d1aa37d	0.03775357
178	0xbd3342fa	-0.043765046
179	0xbd8dfc14	-0.06932846
180	0xbd024a4e	-0.031809144
181	0x3d560744	0.052253023
182	0xbd05e707	-0.032691028
183	0xbd2f973d	-0.04286884
184	0x3c3a3522	0.011365207
185	0xbd9b735d	-0.07590363
186	0xbc26fac1	-0.01019162
187	0xbd885f2a	-0.06658776
188	0xbd8f9339	-0.07010502
189	0xbd427cb6	-0.047482215
190	0xbdcb8cb4	-0.09938946
191	0x3d5db539	0.054127906
192	0xbdaca4d5	-0.08429877
193	0xbc7bb060	-0.015361875
194	0xbc9647f6	-0.01834486
195	0x3cfe07e2	0.031009618
196	0xbd8c80fa	-0.06860538
197	0xbd9e21d2	-0.077212945
198	0x3c8e395c	0.017361335
199	0x3bc98230	0.0061495528
200	0xbdb658c8	-0.089036524
201	0x3caf38b0	0.021389335
202	0x3d189888	0.03725484
203	0xbd8cf46b	-0.068825565
204	0x3d682ef8	0.056685418
205	0xbda1d35d	-0.079016425
206	0x3d2dd2d6	0.042437397
207	0xbd09d80b	-0.0336533
208	0xbd2edf63	-0.042693507
209	0xbdcf7eff	-0.101316445
210	0x3c07e4e3	0.008294317
211	0x3d027b32	0.03185577
212	0xbcfaa2ee	-0.030595269
213	0xbca03f8e	-0.019561555
214	0xbdc03408	-0.09384924
215	0x3d1d3eb4	0.038389876
216	0xbd7d50f5	-0.061844785
217	0xbd3411f8	-0.04396245
218	0xbdb1df3a	-0.08685155
219	0xbd8001fa	-0.06250377
220	0xbd9c06e5	-0.076185025
221	0xbd004302	-0.031313904
222	0xbd6603f3	-0.05615611
223	0x3d39fa04	0.04540445
224	0x3d652dd0	0.055951893
225	0x3c5c6348	0.013451405
226	0xbd7063de	-0.05868899
227	0xbd444c86	-0.04792454
228	0x3d84fed0	0.06493914
229	0xbd48304c	-0.048874184
230	0x3d825ffc	0.06365964
231	0xbd9e71e8	-0.0773657
232	0xbc80c74f	-0.015720038
233	0xbb9c88b0	-0.0047770366
234	0xbda8cb96	-0.08241956
235	0xbd57c960	-0.05268228
236	0xbda866ea	-0.08222754
237	0xbc096c55	-0.008387645
238	0x3c9ee164	0.019394584
239	0xbcec87b4	-0.028873302
240	0x3d9420ef	0.07232844
241	0x3d6ae9dd	0.057351936
242	0x3bed8d90	0.0072495416
243	0xbd4e3138	-0.050339907
244	0xbb4a5d8b	-0.003087851
245	0x3d085492	0.033283778
246	0x3c749d59	0.014930093
247	0xbd5dd27f	-0.054155823
248	0xbcd7cccd	-0.026342774
249	0xbd09da85	-0.033655662
250	0x3d574502	0.052556045
251	0xbca400b2	-0.020019863
252	0x3d9e6bd0	0.07735407
253	0xbcc0eabe	-0.023549434
254	0x3d625710	0.05525881
255	0xbb66ac7a	-0.003519802

sequential_2/dense_1/MatMul f4 [62, 128]
0	0x3d091861	0.033470515
1	0x3dde1a86	0.10844903
2	0xbe643dd5	-0.22289212
3	0x3e0ec119	0.13940848
4	0x3df95bdc	0.12175724
5	0xbeb591a3	-0.35462674
6	0x3dda0757	0.10645931
7	0xbdae4991	-0.085101254
8	0xbd62d13f	-0.055375334
9	0x3ce73169	0.028221803
10	0x3e49bf3a	0.19701853
11	0xbdc27062	-0.094940916
12	0xbe143912	-0.14474896
13	0x3e6d7d0b	0.23192231
14	0xbe868177	-0.2627065
15	0xbf4daa85	-0.8033832
16	0xbe42a6a1	-0.19008876
17	0x3d99d08c	0.0751048
18	0xbd91ebc4	-0.07125047
19	0x3e22afa4	0.15887314
20	0x3b9abaee	0.004721991
21	0x3ab1e69d	0.0013572756
22	0x3da7befe	0.08190726
23	0xbdf5e9df	-0.12007498
24	0x3e9d0af5	0.30672422
25	0x3de5da3f	0.11223268
26	0x3e1a2a93	0.15055303
27	0x3d4a9362	0.04945696
28	0x3d8ff302	0.07028772
29	0xbdb28d64	-0.08718374
30	0xbcab21d6	-0.020890158
31	0x3dfd3416	0.1236345
32	0x3e97890d	0.2959675
33	0xbdf6f58c	-0.12058553
34	0xbe124de7	-0.1428753
35	0x3e2048b0	0.15652728
36	0x3cc3f766	0.02392168
37	0xbddd3f67	-0.10803109
38	0x3db6dec8	0.08929211
39	0xbe2914b4	-0.16511804
40	0x3dbfd172	0.093661204
41	0x3b53d34e	0.0032321992
42	0x3ddd4ea8	0.10806018
43	0xbe08bf74	-0.13354284
44	0x3cb8aa3a	0.022542108
45	0xbe588f1e	-0.21148345
46	0x3cc26bb5	0.023733
47	0xbe37cffa	-0.1795043
48	0xbd8800d6	-0.066407844
49	0x3d8faa2a	0.07014878
50	0x3b740308	0.0037233252
51	0xbece8927	-0.40339014
52	0x3dcb601e	0.09930442
53	0x3db0e0f9	0.0863666
54	0x3d0b3349	0.033984456
55	0xbcb82db1	-0.022482725
56	0x3e1a5ba8	0.15074027
57	0x3cb96976	0.022633296
58	0xbe371d45	-0.17882259
59	0xbe1764ac	-0.14784497
60	0xbe331ba1	-0.17491008
61	0x3d82508e	0.06363021
62	0x3d1b5f14	0.03793247
63	0xbd51e27a	-0.051241376
64	0x3d27b6c4	0.040945783
65	0xbcdf5353	-0.027261412
66	0xbde9ec23	-0.11421993
67	0xbdeb936e	-0.11502729
68	0xbed7e290	-0.4216504
69	0xbd0793ac	-0.033099815
70	0x3d7bcfa9	0.061477337
71	0xbe35c8c9	-0.17752375
72	0xbd3f5f41	-0.0467217
73	0xbd6565a6	-0.056005143
74	0xbe7f9304	-0.24958426
75	0xbca7af9f	-0.020469485
76	0xbd33b8b8	-0.043877333
77	0x3d8b4fee	0.06802355
78	0xbe319b97	-0.17344509
79	0x3e0bffa2	0.13671735
80	0xbe1bfd6c	-0.15233392
81	0x3e1833af	0.14863466
82	0xbd853151	-0.06503547
83	0xbdebf216	-0.115207836
84	0xbe83d496	-0.25748128
85	0x3dca7621	0.098858126
86	0xbdffa486	-0.12482552
87	0xbd8aeb7b	-0.067831956
88	0x3de33e8b	0.110959135
89	0x3ce48de7	0.027899696
90	0xba0bd6f7	-0.00053344615
91	0xbdc115da	-0.09427996
92	0xbdf6455b	-0.12024947
93	0xbe32bbea	-0.17454496
94	0x3d4b92ba	0.049700476
95	0xbd998a65	-0.074971
96	0xbe97cc8a	-0.29648238
97	0x3dac73eb	0.08420547
98	0xbe0554c9	-0.13020624
99	0xbd26fa4d	-0.04076605
100	0xbd0ca9fe	-0.034341805
101	0x3dc653b9	0.096839376
102	0x3de3d183	0.111239456
103	0xbd9794ba	-0.07401414
104	0xbe962476	-0.29324692
105	0x3e203813	0.1564639
106	0x3dcbf269	0.099583454
107	0xbd6b05af	-0.057378467
108	0xbe24d7b0	-0.16097903
109	0xbd028fc3	-0.031875383
110	0xbd710ce2	-0.058850177
111	0x3dfe2e02	0.12411119
112	0xbd285471	-0.041096155
113	0x3d00b74e	0.031424813
114	0xbf276add	-0.65397435
115	0xbd60f5b5	-0.054921824
116	0xbdfb4d64	-0.122706205
117	0x3dbf72d5	0.09348074
118	0xbcb2d811	-0.021831544
119	0x3dbfbf2e	0.093626365
120	0x3e0a449a	0.13502732
121	0x3b6b5ccf	0.0035913473
122	0xbf4488b0	-0.7677107
123	0xbe0433b2	-0.12910345
124	0xbd9622ef	-0.07330882
125	0xbb5a3d05	-0.003330053
126	0xbe825c3e	-0.25461
127	0x3ceb1c4e	0.02870002
128	0xbe3371c5	-0.17523868
129	0xbe1dd79b	-0.15414278
130	0x3d521ec1	0.05129886
131	0x3d4d0db0	0.05006188
132	0xbe27eb71	-0.16398408
133	0xbb885442	-0.004160435
134	0x3e303f6e	0.17211697
135	0xbe149cc8	-0.14512932
136	0xbe11e0d2	-0.14245918
137	0xbddf0684	-0.10889915
138	0xbe1e957a	-0.15486708
139	0x3cc98930	0.024601549
140	0x3d8fde91	0.07024873
141	0xbd83e25b	-0.06439658
142	0xbd68c6bc	-0.056830153
143	0x3d655983	0.05599357
144	0xbcdc8a43	-0.026921397
145	0xbdaa2507	-0.08307844
146	0xbe25b1d4	-0.16181117
147	0x3c81e5af	0.015856592
148	0x3d851d8c	0.06499776
149	0x3c7db30b	0.015484582
150	0xbdfdab4d	-0.12386189
151	0xbe0793bf	-0.13239954
152	0xbf0bc86f	-0.5460271
153	0xbe14e3fe	-0.14540097
154	0xbf0ddfc5	-0.5541957
155	0xbdfbf4ae	-0.12302528
156	0xbd11167f	-0.035421845
157	0x3cf6225e	0.030045684
158	0x3d35a1fe	0.04434394
159	0xbe295964	-0.16538006
160	0xbd374109	-0.044739757
161	0xbd3d012d	-0.0461437
162	0xbda754b1	-0.081704505
163	0xbc94611a	-0.018112708
164	0xbe18b4a3	-0.14912657
165	0xbd3d2f52	-0.046187706
166	0xbd945c55	-0.072441734
167	0x3cffffa7	0.031249834
168	0x3dc460b6	0.09588759
169	0x3dd2ffe1	0.10302711
170	0x3e1b45f6	0.15163407
171	0xbe5f6699	-0.21816482
172	0x3baacd90	0.0052124932
173	0xbe0707f2	-0.13186625
174	0x3d9a60e5	0.075380124
175	0x3e2b84ca	0.16749874
176	0xbd5e8a97	-0.05433139
177	0x3e1215d2	0.14266136
178	0x3e0a2ee3	0.13494448
179	0x3dbf8632	0.093517676
180	0x3dccad70	0.09994018
181	0xbe027c1b	-0.12742655
182	0xbd2319dc	-0.039819583
183	0x3e4317da	0.19052067
184	0x3b8727c6	0.0041246144
185	0x3e144fba	0.14483538
186	0xbdde3c16	-0.10851304
187	0x3a8b100c	0.0010609641
188	0x3d8ce39f	0.06879353
189	0x3dbd0c4a	0.092308596
190	0x3de89a55	0.113575615
191	0xbdea0b44	-0.1142793
192	0x3e05d097	0.13067852
193	0xbc1df3f5	-0.009640683
194	0x3df06a5d	0.11739037
195	0xbdf72549	-0.120676585
196	0xbe094d5e	-0.1340842
197	0xbbc47e52	-0.005996504
198	0xbe320d9b	-0.17388003
199	0xbd902582	-0.07038404
200	0xbdf63a33	-0.12022819
201	0xbc561cc0	-0.013068378
202	0xbd80ff99	-0.062987514
203	0x3e02cb25	0.12772806
204	0xbe67c8ef	-0.22635244
205	0x3e01ca8a	0.12674919
206	0x3dbd6fde	0.092498526
207	0xbd39f5c3	-0.045400392
208	0xbd54fb52	-0.05199749
209	0xbda27687	-0.079327635
210	0x3c459f6e	0.012061937
211	0xbe655b02	-0.22397998
212	0x3e6eebb8	0.23332107
213	0xbd6ef274	-0.05833669
214	0x3df06af9	0.117391534
215	0xbd9a1c9e	-0.075249895
216	0xbe357d82	-0.17723659
217	0x3bdd4797	0.006752919
218	0xbe072956	-0.13199362
219	0x3dda705c	0.10665962
220	0xbdb3f242	-0.087864414
221	0xbd4c8730	-0.049933612
222	0x3e20d11e	0.15704772
223	0x3b34ac69	0.0027568585
224	0xbd371293	-0.044695448
225	0xbe499dd6	-0.19689116
226	0xbe017c9b	-0.1264519
227	0xbe6bc317	-0.2302364
228	0xbe0c9416	-0.13728365
229	0x3de08edb	0.109647475
230	0xbe1ff680	-0.15621376
231	0xbd8ab922	-0.067735925
232	0xbd8c475e	-0.0684955
233	0xbdb012ef	-0.08597361
234	0x3b8bfbda	0.0042719664
235	0xbd88f014	-0.06686416
236	0xbdbdd8cb	-0.092698656
237	0xbde57fb5	-0.11205999
238	0x3e0c85ba	0.13722888
239	0xbe0f8875	-0.14016898
240	0x3cb05576	0.021525126
241	0x3d5ef91e	0.054436795
242	0x3cc9eac8	0.024648085
243	0xbdb76c2c	-0.08956179
244	0xbe4b00c2	-0.19824508
245	0xbe510b74	-0.20414525
246	0x3dc330fa	0.09530826
247	0xbd964fcb	-0.07339438
248	0x3e148fb7	0.14507948
249	0xbd39f9af	-0.045404132
250	0x3e024a21	0.1272359
251	0x3e1b2f6f	0.15154813
252	0x3df56759	0.119826026
253	0x3e5fff19	0.21874656
254	0x3d3299e9	0.04360381
255	0x3e2923d5	0.16517575
