model.tflite (tflite, 521912 bytes, 13 tensors)

sequential_2/conv2d/Relu;sequential_2/conv2d/BiasAdd;sequential_2/conv2d/Conv2D;sequential_2/conv2d/BiasAdd/ReadVariableOp f4 [16, 3, 3, 1]
00000000: d4e4 2b3b 7e83 fc3a 6bd8 053b 22ac 0f3b
00000010: 5e0e 173b b18a 1d3b dd7d 373b 80b6 1a3b
00000020: 8a4a 313b 4889 1fbb 3aee 1bbb 0ba5 3abb
00000030: 9860 d4ba e492 0bbb a371 14bb 92c4 15bb
00000040: 6dfd ddba da4c 1cbb abb0 74b8 3904 e438
00000050: 3e09 e738 41d7 79b9 9702 8039 b090 bc38
00000060: 2c7d b239 65b7 4f39 ecd5 02ba c07a 36bb
00000070: 9884 14bb 7849 3cbb 8f8b 1dbb 4286 06bb
00000080: 0c32 3abb e48c ccba 7993 45bb 6e1e d7ba
00000090: a127 31ba f3a1 bbba 330b 0cbb 907d 57ba
000000a0: ae61 02bb c883 03bb f831 f0ba 9e71 7fba
000000b0: 42d9 0bbb 0ca4 153b 9fea 043b 6465 2e3b
000000c0: 5f30 233b 94b4 033b 557c 153b 674e 013b
000000d0: ad47 2a3b cb84 263b 06fb 20bb 39c2 3fbb
000000e0: 558a 34bb 42d6 17bb 96c9 1fbb 3e7e 29bb
000000f0: 5d34 dfba 83bd 33bb 679b 24bb b6f3 d93a
00000100: 2dcf e83a 988d 2a3b 3320 163b eb54 033b
00000110: fe4b 0c3b e95e 283b f227 e13a 94df 253b
00000120: 9533 35ba ffeb cab9 b42e 68b9 ac70 3f3a
00000130: e727 96b9 775c 333a 5c2c 8cb8 2383 3a39
00000140: b64a 7d38 2e47 b0ba cf3a b6ba c681 61ba
00000150: 43dd 96ba 95a7 b9ba 20f1 00bb 693e 0aba
00000160: 8f8c daba b642 f3ba 6512 e93a f88a 163b
00000170: 4f57 1a3b 409d 113b 8683 0b3b b2cb b93a
00000180: cc40 ed3a 6972 e33a 75ec 153b f5d0 9fb8
00000190: e141 5fb9 44a2 04ba 4324 223a 5183 8939
000001a0: f5d3 0a39 67f0 8d38 8eec 17b9 29e7 4bba
000001b0: 4bc3 b0ba 57ce 11bb 542a 21bb 30b3 eeba
000001c0: 4ad5 9cba b01f 26bb c512 09bb c344 05bb
000001d0: 1379 c7ba c2a6 bbb9 9eea 6839 d5fa 3139
000001e0: 34f9 01ba f33c 0a3a 8fe5 6db9 07ce d839
000001f0: 4dc9 08ba c6db 96b7 acdb d43a 5c0d 733a
00000200: 453d b03a ec2c e63a b64a 803a 3200 953a
00000210: 61b6 cb3a 4450 ff3a 1906 eb3a 1cfb e63a
00000220: 095e 113b 3ac4 233b f0a3 053b 9075 113b
00000230: 463d 163b 6feb 0a3b 05bc ea3a 13a8 303b
0.0026228921 0.0019265262 0.0020423185 0.0021922668 0.0023049335 0.0024038965 0.0027998604 0.0023607314
0.0027052485 -0.00243433 -0.0023793117 -0.002847972 -0.0016203104 -0.002129727 -0.002265074 -0.002285276
-0.0016936489 -0.0023849518 -5.8338668e-05 0.00010872674 0.0001101666 -0.00023826679 0.00024415992 8.991489e-05
0.00034044066 0.00019809378 -0.0004990983 -0.002784416 -0.002266204 -0.0028730314 -0.0024039482 -0.0020526801
-0.0028411178 -0.0015605954 -0.0030147715 -0.0016412267 -0.00067579193 -0.0014315232 -0.002136898 -0.00082203094
-0.0019894647 -0.0020067561 -0.0018325439 -0.00097444083 -0.0021339213 0.0022833375 0.0020281447 0.0026610726
0.0024900658 0.0020096647 0.0022809703 0.001973057 0.0025982664 0.002540874 -0.0024563684 -0.0029260053
-0.0027548273 -0.002316848 -0.002438163 -0.00258626 -0.0017029155 -0.002742619 -0.002511704 0.0016628418
0.0017761939 0.0026024338 0.0022907376 0.0020039629 0.00214076 0.0025691336 0.0017178042 0.0025310265
-0.00069122884 -0.00038704273 -0.00022142642 0.0007302861 -0.0002863996 0.00068420864 -6.683983e-05 0.00017787195
6.038948e-05 -0.0013448948 -0.0013903024 -0.00086024066 -0.0011510033 -0.0014164323 -0.0019674972 -0.0005273582
-0.001667397 -0.001855931 0.0017781971 0.0022971015 0.0023550575 0.0022218972 0.002128811 0.0014175086
0.0018100976 0.0017352822 0.0022876535 -7.620632e-05 -0.00021291479 -0.000505958 0.0006185213 0.00026228515
0.00013239666 6.768182e-05 -0.00014488606 -0.0007778281 -0.0013485936 -0.0022248232 -0.002459188 -0.0018211361
-0.001196542 -0.0025348477 -0.0020915729 -0.0020335175 -0.0015218578 -0.00035791664 0.00022212646 0.00016973478
-0.00049580936 0.00052733644 -0.00022687599 0.00041352233 -0.00052179844 -1.7983733e-05 0.0016239784 0.0009271705
0.0013445994 0.0017560995 0.0009787891 0.0011367856 0.0015542024 0.0019478877 0.0017930894 0.0017622444
0.0022181293 0.0024988786 0.0020391904 0.0022195317 0.0022924705 0.0021197458 0.0017908817 0.0026955649

sequential_2/conv2d/BiasAdd/ReadVariableOp f4 [16]
00000000: 5cfe 1e3d 5870 523d 3ffc 2cbc 403b 343d
00000010: 990c 413d 2961 1b3d 8e58 4a3d 123b 0e3d
00000020: d134 5abc ad6f 3a3d 6bf8 233d f9a7 15bc
00000030: 50ce 7c3d 6f5a cabb d388 a23d 364a 133d
0.038816795 0.05137667 -0.010558187 0.044001818 0.047131155 0.037934456 0.04940086 0.034724303
-0.0133182565 0.04551666 0.04003183 -0.009134286 0.061720192 -0.0061753313 0.079362534 0.035959445

sequential_2/conv2d_1/BiasAdd/ReadVariableOp f4 [32]
00000000: 6646 523d c2f1 a0bb 33a3 863d c740 443c
00000010: 9b7a c2bb 086a 4e3d 925d 053d 2d7c f13b
00000020: cce2 6c3d 155c 693d 9b90 a83d de88 1f3d
00000030: 2d36 8b3d 911e 883d 7502 783d 700d 903d
00000040: d53c 8cbc c8b3 cc3d 07db 14bc 8bc2 813d
00000050: b7da 443d b375 7e3d ee2d 943d 7d2c 1a3d
00000060: ded0 c3bb f26b ebbb 76bb 2bbd a1b0 373d
00000070: 93d7 bbbb 7ea7 12bc 0c29 893d 75ba 643d
0.05133667 -0.0049116323 0.065740965 0.011978335 -0.005935026 0.050394088 0.03255994 0.0073695392
0.057833478 0.056972582 0.08230706 0.038948886 0.067974426 0.06646455 0.06054922 0.07033813
-0.01711885 0.09995228 -0.009085423 0.06335934 0.048060145 0.062123965 0.07235323 0.037640084
-0.0059758266 -0.007184499 -0.041926824 0.04484618 -0.0057324856 -0.008951066 0.06697282 0.05584188

sequential_2/conv2d_2/BiasAdd/ReadVariableOp f4 [64]
00000000: ed51 e0bb 647b fdbb 9b39 eebd 61e3 acbc
00000010: 16a1 a93c 07d2 0abc 5e67 9fbc 24d6 d7bb
00000020: af7d f9bd 412a d0bc 677b debd cdf1 2ebe
00000030: 9d3e 653c 8a7a 10bc e12c 083b 30cc 2cbc
00000040: c607 df3d 0d64 b0bc 6701 403d d7e9 28bc
00000050: bc11 2ebc bc4c ddbb ce81 c1bd a639 e2bd
00000060: 2d7a a03b 785a 3dbc 0497 6ebc 68d3 96bb
00000070: a9b0 c6bd 51a6 b23b d02e 013e 334c e5bc
00000080: 1421 c3bd b591 03bd f525 8ebc e408 2d3b
00000090: 1602 793c 9ce0 8bbe 8717 cd3c cd80 34bc
000000a0: 1363 5bbd 5a22 983c 4130 36bc 7414 21bc
000000b0: f367 f4bb 61ad c0bc 0e79 5dbc 6a85 bfbd
000000c0: 991f 04bb 251e 5c3c 587d b7bc 5f5a 63be
000000d0: c71b 05be cccf 94bd fa66 eb3c 6fb1 e7bb
000000e0: fd63 08bc 0aa9 c6bb db47 203d 832b d23d
000000f0: f7fc 57bd 93a7 78bb f42b efbb a538 8fbd
-0.006845704 -0.0077356566 -0.11632081 -0.021104516 0.020706695 -0.008472926 -0.019458469 -0.006586807
-0.12182175 -0.025410773 -0.10863381 -0.17084427 0.013991979 -0.008818278 0.0020778703 -0.010546729
0.108901545 -0.021532083 0.046876337 -0.010309658 -0.010624345 -0.006753532 -0.094485864 -0.11046152
0.004897377 -0.011557214 -0.014562372 -0.0046028383 -0.09701664 0.0054519554 0.12615514 -0.027990436
-0.095277935 -0.03212138 -0.017352084 0.0026403004 0.015198251 -0.273198 0.025035633 -0.011017037
-0.05356128 0.018571068 -0.011119903 -0.009831537 -0.007458681 -0.023520174 -0.013517631 -0.093516186
-0.0020160435 0.013434921 -0.022398636 -0.22202443 -0.12998877 -0.072661966 0.028735626 -0.0070707123
-0.00832462 -0.0060626315 0.039131027 0.102622055 -0.05273148 -0.003794168 -0.007298941 -0.06993226

sequential_2/conv2d_1/Conv2D f4 [32, 3, 3, 16]
00000000: 157b f13c 782d 0abe 2b12 e5bd e7bb 9f3c
00000010: b391 d9bd 47ce fdbc 51e4 cf3b d64f cbbc
00000020: 7fd6 963d 0818 03be ed5b c13c 1913 2e3b
00000030: 17ab 113d 8cca 393d 9033 8b3d 015b 283d
00000040: 63c1 eb3d cbee 39bc 2dab d3bb 897b 66be
00000050: 2ef8 13be 41ff 0b3e 4c47 44be 312b 7a3e
00000060: 8845 b4bd 7ed8 6abd a2eb 6a3e 7220 98bd
00000070: ab9e 97bb ad11 5f3c 37e6 353e 49a3 853d
00000080: 25a3 813e c640 41be 23a0 ae3d 9d20 83be
00000090: 00b1 c7bd ca29 283e a50b 2bbe be1b ba3d
000000a0: 4346 81ba 3844 0abe cb86 663e 6a92 b6bd
000000b0: 8c7a 87bd 36ab 973d 80f2 243e 45d5 6b3e
000000c0: 071d 313e 6486 31be 493f 5d3d 5c0d a7bd
000000d0: 74b8 32be a00b 693e 8c63 1dbe 1c57 893d
000000e0: d970 42bd d390 333c 61a5 143e 515f f2bd
000000f0: acee 12be b448 b63d 6939 183e e219 133e
00000100: 9055 443e b557 e7bc 3a26 46bc 88ca ffbd
00000110: 08c7 94bc 8104 7b3e 84f5 0bbe d419 5a3e
00000120: e773 143e caf1 43bd 3a2c 263e a6c0 c63d
00000130: 5137 59be 1b3c 28bd cff0 5a3e 71d1 f23d
00000140: 42fe f03d d13e c7bd c81d d03c c1de 1ebe
00000150: a9d0 c9bd ef79 453e 6495 e7bd d472 b13d
00000160: cd26 54bd 81d2 5e3c 0096 f13d aad9 b5bc
00000170: 3243 51be 769d 92bc a059 2e3d 3602 ad3d
00000180: ae2a da3d ec28 16bd 7d26 8a3d 5f92 4ebe
00000190: 83f8 b9bd 812b 663e 8f92 55be 2051 153e
000001a0: ae30 8bbd c46d c9bd 1860 153e fff4 3dbd
000001b0: bcd3 4fbd 61c8 bc3d 0d45 6dbc a555 c23c
000001c0: 1e7f 973e 6b0d 4bbe 90da e83c 0b9d f7bd
000001d0: 47b8 c0bd 0456 4c3e bcaa 8cbe 3caf 4f3e
000001e0: ace4 0bbd cbed a83c 528a 753e 7cbd 0f3d
000001f0: 2ee7 2abe a125 9dbd a630 cd3d f173 853e
00000200: f114 353e d4e5 81be 3b61 c3bd 39b8 89be
00000210: f133 20be 2199 843e 1cf1 d4bd 81e5 6b3e
00000220: 9bc8 9d3d 0ffc 9c3a 7c6c 283e 7e9b 623d
00000230: 1a6f 07be 221a 97bc 8085 cc3d d0f7 f73d
00000240: 9d34 d03c 1085 f4bd 5429 3d3d 62e7 1a3d
00000250: ce3e 8e3d 257a 8c3d 55ea c93c 6388 d8bd
00000260: 3366 fb3c 30c0 fe3c 749d 1abd 2908 20bd
00000270: cb29 2e3d f841 4f3d 8c86 17bd 2efa 97bd
00000280: f779 cabd 97ce 66bb d5a4 c63d b047 90bd
00000290: 14f8 4dbd d0b8 babc 1a6e 563d d366 8a3d
000002a0: c274 a43d 001d da3d e890 fbbd 8add d5bc
000002b0: dd13 d33d 39bc 90bd 7eeb 513b 50e4 893b
000002c0: ffa2 c23d 8515 8f3d a2ed bbbd 9146 413d
000002d0: 5af9 a83b 7cc4 87bd 102e 653d bd8e debc
000002e0: e8d3 11bd 254f cebd 642a ebbd e1e5 833c
000002f0: 2f88 e4bd 06a6 cdbd 02fc c63d b73c 49bd
00000300: 8d7e 293d 619a 70bd 653f 4c3d af92 9bbd
00000310: c650 35bc f581 c9bc 4606 eabc 8021 6dbd
00000320: 41bc b03d 8113 663d 0cb5 d5bc 8967 b4bd
00000330: d596 be3d 989e ccbd 2e86 8fbd 9fa9 aebd
00000340: 962f 003c b6bc aebd 60d1 ce3c 1cdc 7dbd
00000350: c481 1cbd e9c7 453b 3d52 fcbd e010 a23d
00000360: 5067 633d a5bb 41bd cb63 85bd 6cf1 e6bd
00000370: a98c 1bbc 5f6a 9e3b 8044 7fbd 320b fc3c
00000380: 55ca 603d 721d a8b9 1670 e8bd f5ab c13d
00000390: d35d e73c 7e14 10bd 567c 43bd 02b9 5dbd
000003a0: 0f80 45bc c9d2 5dbd 1b49 1abc c0ac 863d
000003b0: 4d45 093d ab00 e13d 4896 d4bd 58a3 0abd
000003c0: 34d0 d63d 3d3a d0bc d92b 82bd f38a c7bd
000003d0: 7288 49bd 99e0 c4bb f38c 4fbc 3d71 ce3b
000003e0: 25cc e1bd 506c e0bd a63d e8bd c1e4 85bd
000003f0: 475e 83bd d55a ec3c 24bd e5bd 8526 e3bd
0.029477635 -0.13493907 -0.11185106 0.019498779 -0.10623493 -0.03098215 0.006344356 -0.024818342
0.07365131 -0.12802136 0.023603404 0.0026561676 0.035563555 0.04535918 0.06796944 0.041102413
0.11511495 -0.011348437 -0.0064596147 -0.22508062 -0.14450142 0.1367159 -0.19167823 0.24430539
-0.088023245 -0.05733537 0.2294145 -0.074280635 -0.004627069 0.013615054 0.17763601 0.06525285
0.25319782 -0.18872365 0.085266374 -0.2561082 -0.09750557 0.16422191 -0.16703661 0.09087323
-0.0009862859 -0.13502586 0.22512357 -0.08914645 -0.06615171 0.07405703 0.16108131 0.23030575
0.1729623 -0.17336422 0.05401543 -0.08156845 -0.17453176 0.22758341 -0.15370005 0.06706068
-0.0474709 0.010959822 0.14516212 -0.118345864 -0.14348859 0.08900586 0.1486565 0.14365342
0.19173265 -0.028240064 -0.012094075 -0.12489802 -0.018161312 0.24513437 -0.13667876 0.21298915
0.14497338 -0.04783801 0.16227809 0.097047135 -0.21212508 -0.041072946 0.21380924 0.11856354
0.11767246 -0.09728778 0.025404826 -0.15514661 -0.09854252 0.19284795 -0.11307791 0.0866448
-0.051794816 0.013599993 0.11796188 -0.022198517 -0.20435789 -0.017897349 0.04256594 0.08447687
0.10652672 -0.03666012 0.06745622 -0.20173024 -0.09080603 0.22477533 -0.20856689 0.14581728
-0.06796394 -0.09835389 0.14587438 -0.046376225 -0.050739035 0.09217907 -0.014481795 0.02372248
0.2958917 -0.19829337 0.028424531 -0.120905004 -0.09410148 0.19954687 -0.2747401 0.2028169
-0.034153625 0.020621201 0.23978546 0.035092816 -0.1668975 -0.07673193 0.100190446 0.2606502
0.1768377 -0.25370657 -0.095400296 -0.26898363 -0.15644814 0.25898078 -0.103975505 0.23036768
0.07704278 0.0011976975 0.16447634 0.05532407 -0.13225976 -0.018445078 0.099864006 0.12107813
0.025415713 -0.11939442 0.04618199 0.03781832 0.06945573 0.06859235 0.024647871 -0.10572889
0.03068838 0.031097502 -0.037747815 -0.039070282 0.042520326 0.050600022 -0.03699355 -0.07420765
-0.09886544 -0.0035218352 0.09699408 -0.07044923 -0.050285414 -0.022793204 0.052351095 0.067578934
0.08030082 0.106500626 -0.12283498 -0.026106615 0.10306523 -0.070671506 0.0032031233 0.004208125
0.09503745 0.069865264 -0.09176184 0.047186438 0.005156678 -0.06629273 0.05595213 -0.027167672
-0.03560248 -0.10073689 -0.11482695 0.016100826 -0.111587875 -0.10041432 0.097160354 -0.049130168
0.041380454 -0.058740977 0.049865145 -0.07596337 -0.011066621 -0.024598101 -0.028567445 -0.057893276
0.086296566 0.056170944 -0.026087306 -0.0880881 0.09306113 -0.09991187 -0.070080146 -0.085284464
0.007823845 -0.085320875 0.025246322 -0.06197749 -0.03820969 0.003017897 -0.12320373 0.07913375
0.05551845 -0.047298092 -0.065131746 -0.11276516 -0.009493985 0.0048344578 -0.062321186 0.030767057
0.05488046 -0.00032065395 -0.11349504 0.09456626 0.028242981 -0.035175793 -0.047725998 -0.054131515
-0.012054457 -0.0541561 -0.009416844 0.06575918 0.033513356 0.109864555 -0.103802264 -0.033847183
0.1048893 -0.025418395 -0.063560195 -0.09743299 -0.04920239 -0.0060082194 -0.012667882 0.00630012
-0.110252656 -0.10958159 -0.113398835 -0.06537772 -0.06414466 0.028851906 -0.11217716 -0.110913314

sequential_2/conv2d_2/Conv2D f4 [64, 3, 3, 32]
00000000: 0442 6e3d 7c0a 8c3d ae6f f1bc 8693 a93d
00000010: 7671 8cbd a354 9b3d 2b89 3e3d 8e28 a93d
00000020: 60ba 95bd 5ab0 b0bd fc70 a1bd 2312 5abc
00000030: 0513 423d 2680 253d ba2b 513d 5a35 c03c
00000040: 4edd a6bd bec3 f1bb 0222 c93c 52f7 9abd
00000050: c9b8 5ebc 26ba fd3c 5a6e d23c 0157 3abd
00000060: a8cf 5d3c 5fa2 9a3d 298a acbd eda7 9abd
00000070: 53cf 583a 3db2 96bd fe71 a13d 4a80 60bd
00000080: 3a4d d0bc 3ebe 393d e013 5d3d d695 793b
00000090: 45cf 213d 1128 fd3c 4016 adbd 2995 9c3c
000000a0: 3221 70bd a2fa 95bb b610 a6bd 1230 b9bd
000000b0: 309a a6bd 2cc1 42bd 19c3 e2bc 44be 9fbd
000000c0: 6ebf a2bd b66d 253d ae30 42bc 3855 a1bc
000000d0: 85d3 26bd 9e58 8ebd 1803 593d 298b 0c3d
000000e0: 73fe 993d e1f5 e8bb 2e86 8cbd 0821 81bd
000000f0: 0262 273d 0582 7bbc b83c 97bd bd47 60bd
00000100: 2118 5bbd aae1 e5bc ee4e 30bc 5c4b 17bd
00000110: 66e0 93bc 3cb3 87bd 3a9d 4dbd 0018 813d
00000120: 74bc 7e3c 646b 8ebb 5008 90bd dad0 75bd
00000130: ffca 753d 13c7 7fbd b37d 693d 8f40 6c3d
00000140: 206b a03d 43fb aebd d449 2dbd 62c3 b0bc
00000150: 4521 eabb b06f e73c 27e2 d23c dc0d 623d
00000160: 55ab a73d 1016 6b3c e720 8ebc 8e69 4d3c
00000170: fb14 9cbd bdfd e7bc e3ec 73bc cf9e f83b
00000180: c777 50bd 420c 76bc c3b4 df3c 14c8 2a3c
00000190: cbf4 94bd b93f 093d 4432 82bd 12b2 88bd
000001a0: 9ab4 57bd bc6f c2bc 008c a6bd 1e20 a7bc
000001b0: 31e3 1bbb bc8c 03bd e565 b8bc b007 e63c
000001c0: bb9f a2bd c80f 4e3c 4499 e2bb 5370 3ebd
000001d0: bfce 38bd 926c efbb 7824 983c 5317 98bd
000001e0: a680 24bd 29a6 b4bc c3a3 e4bc e8d2 8bbd
000001f0: 0679 4abb c4bb 9bbd 8c77 8abd ff59 75bc
00000200: 0f8b 893d 716c 93bd c55a b63c 6a6e 3f3d
00000210: d9c4 3d3d 7d4d edbc bf64 ec3c 038c babd
00000220: 66a9 76bd 8189 bc3b d3a7 673d 2d78 11bd
00000230: c3b9 8bbc f1bc e1bc 57e7 8bbd ffdd 44bc
00000240: 3f88 11bd 5234 d53c 2657 2dbc 39a8 8fbd
00000250: 449f c3bd eb22 b2bd dbca 143d 951f 8bbd
00000260: 0d45 403d ff75 973c b277 843c 6536 96bd
00000270: 67da e1bb 55a8 77ba 61ae 473d 318c 0a3d
00000280: 5f2e b93a 17bb 9abd 3a41 98bc ecba a0bd
00000290: 6e23 353c 634d 8b3d 22fc 70bd 0d95 bcbd
000002a0: 9180 83bd a409 b3bc 08a0 d93c 5d17 bbbd
000002b0: 62e9 a1bd f80c 5fbd f67e 643d 5c38 da3c
000002c0: c410 d2bc a6a5 83bb e552 073c d433 883d
000002d0: 1fc3 fa3c c6b6 6bbd e613 b0bd 711a 513b
000002e0: e3ec 8e3d 16cc 23bd a03d 6cbd bfee b3bd
000002f0: f9e0 283d 6cb1 7ebd 5d30 c3bc c56c ec3c
00000300: 8c0a 5b3d 23cf 873d 2295 9f3a 6de0 ac3c
00000310: 505c 30bd 4216 3dbd 7d5f 9d3d a389 9ebd
00000320: e18e d63c 6b53 f33c bb5e 8abd 6c42 5fbd
00000330: 1c3b 4a3d 1972 5c3c 9f96 6dbd 03c7 a33c
00000340: cc2f a63d 4048 6abc 8226 bebc 1ee1 80bd
00000350: 585d 173c 1367 543d 08d0 46bd e234 493d
00000360: 5f4d 30bd d6e8 4f3d 82fd 2f3d 40b8 88bd
00000370: 6075 25bd e153 973c 1cf0 573d e261 b3bd
00000380: b3fc 23bd 7bee 833d eb64 373d e1f8 9e3a
00000390: e4c5 87bc 8b32 d03c 1288 4f3c a87b ef3b
000003a0: 4450 a5bd 6db9 92bc 687d d639 6f1f 883d
000003b0: 0dfc 833c ab6b 7abd 634f c3bc 5f59 69bd
000003c0: 3331 493d 6886 abbd e6aa 57bd aec8 7cbd
000003d0: b467 7fbc 5b52 7abd 7379 133c 93f1 c7bc
000003e0: 9f7d edbc b85b 9f3d 3b46 8cbd 6238 a53d
000003f0: 898b 2ebc d027 38bd 6e8a c7bc fecb ca3c
0.058168426 0.06837937 -0.029472198 0.08280091 -0.068575785 0.075845025 0.046517532 0.08259688
-0.07310939 -0.086273864 -0.07882878 -0.013309988 0.04738142 0.040405415 0.05106709 0.02346294
-0.08147679 -0.0073780706 0.024552349 -0.07566704 -0.013593861 0.030972552 0.025687385 -0.04549313
0.013538279 0.07550501 -0.084247895 -0.075515606 0.000827064 -0.07358215 0.078830704 -0.054809846
-0.02542745 0.045347445 0.053974032 0.0038083694 0.03950431 0.030902894 -0.084515095 0.019114094
-0.058625408 -0.004576997 -0.08108656 -0.09042372 -0.08134878 -0.047547504 -0.02768092 -0.07799962
-0.079466686 0.04038783 -0.011852426 -0.019693956 -0.040729064 -0.06950496 0.052981466 0.0343124
0.075192355 -0.007109389 -0.0686153 -0.06305128 0.040864952 -0.015350823 -0.07384628 -0.054755915
-0.053489808 -0.028061707 -0.010761006 -0.036937103 -0.018051337 -0.06625983 -0.05019877 0.06303406
0.01554786 -0.004346298 -0.070328355 -0.06001363 0.060008045 -0.06244571 0.05700464 0.057678755
0.078329325 -0.08544018 -0.042306736 -0.02157754 -0.0071450793 0.028251499 0.025742603 0.055189
0.08186976 0.014348522 -0.017349673 0.012537373 -0.07621189 -0.028319234 -0.014888021 0.007587291
-0.05089548 -0.015017571 0.027307874 0.010423679 -0.07273253 0.033508036 -0.06357244 -0.06674589
-0.05266247 -0.02373492 -0.08132172 -0.020401057 -0.002378654 -0.032116637 -0.022509525 0.028079838
-0.079406224 0.012577005 -0.0069152433 -0.04649384 -0.045119043 -0.0073066438 0.018572077 -0.07426324
-0.04016175 -0.022051888 -0.027910119 -0.068273365 -0.003089489 -0.07604173 -0.06761083 -0.01497507
0.067159764 -0.07198418 0.02226008 0.04673616 0.046330307 -0.028967613 0.028856633 -0.09108736
-0.060220145 0.0057536964 0.056556534 -0.035515 -0.017056352 -0.027555915 -0.06831234 -0.012015819
-0.035530325 0.026025925 -0.01057986 -0.07014508 -0.09551862 -0.08698066 0.03632627 -0.06793133
0.046940852 0.018488882 0.016170356 -0.07334594 -0.0068924907 -0.00094473857 0.048750285 0.033825103
0.00141282 -0.07555216 -0.01858579 -0.078481525 0.01105581 0.0680187 -0.058834203 -0.09208117
-0.064210065 -0.021855183 0.026565567 -0.091353156 -0.07905842 -0.054455727 0.055785142 0.026638202
-0.02564276 -0.0040175496 0.00825951 0.066505104 0.03061062 -0.057547353 -0.08597545 0.003190663
0.06978776 -0.039989553 -0.057675958 -0.087857716 0.041230176 -0.06218092 -0.023826772 0.02886046
0.053476855 0.06631305 0.0012175182 0.021103108 -0.043056786 -0.046163805 0.076842286 -0.07741096
0.026191177 0.029702863 -0.0675635 -0.054506704 0.049372777 0.013454937 -0.05800497 0.019992357
0.08114585 -0.014299452 -0.023211721 -0.06292938 0.0092385635 0.05185611 -0.048538238 0.0491227
-0.043042537 0.05075916 0.042966373 -0.06675768 -0.04039514 0.018472614 0.05271922 -0.08758904
-0.040035915 0.06441971 0.044773977 0.0012128615 -0.016573854 0.025414726 0.012666719 0.007308442
-0.0807195 -0.017910684 0.00040910696 0.066466205 0.016111398 -0.061137836 -0.023841565 -0.056969997
0.049119186 -0.08375245 -0.052653216 -0.06171482 -0.01558869 -0.061113697 0.009001124 -0.024407184
-0.028990565 0.07781166 -0.06849333 0.08067395 -0.010653385 -0.044959843 -0.024358 0.024755474

sequential_2/dense_1/BiasAdd/ReadVariableOp f4 [53]
00000000: 068d 81bd 8b57 b93d cdbd 0fbe d296 883d
00000010: fbea 71be 56eb 7bbd db28 8b3e 1a19 a0be
00000020: 12f0 5fbe 15d5 81be bbe2 943c b55f ca3d
00000030: 30a2 ac3c 1df1 c9bd 6edd f4bb 131b 9ebd
00000040: 895b 44bd 4ecf 253e aeb1 8c3c 6290 1d3c
00000050: e55d 5d3d 5f0a e4bd 9085 f13c a65b 7abe
00000060: 70ed 44be faf4 b2bd a8fb a13d cfc6 97bc
00000070: 7780 683e e4d1 633e 4822 023b 62e4 113e
00000080: 18c8 6cbb ec16 26bc 8e2e 993d 83ab 6a3e
00000090: 1635 ae3d 43a5 14bd 68c2 25bb ca6f 283d
000000a0: c91d 3a3c 2a55 babc 5233 1dba abca 5dbe
000000b0: b50a 9c3d 9589 d43b f4b0 92be 6910 5b3e
000000c0: 2f2d babd 2e3e c63c a2c2 c6bd 3eaf 2f3e
000000d0: 0ad5 f5bd
-0.06325726 0.090499006 -0.14037247 0.06669392 -0.23624794 -0.06150373 0.27179608 -0.3126915
-0.21868923 -0.2535788 0.01817452 0.09881536 0.02107343 -0.09860442 -0.0074726855 -0.07720008
-0.047938857 0.16192362 0.017174568 0.009616943 0.054044623 -0.11134791 0.029482633 -0.24449024
-0.192312 -0.08738132 0.07909328 -0.018527417 0.22705255 0.22248036 0.001985686 0.14247277
-0.0036130007 -0.010137301 0.07479583 0.22916989 0.08506219 -0.03629042 -0.0025292877 0.041122235
0.01135964 -0.022745688 -0.0005996722 -0.21659343 0.0761923 0.0064861276 -0.2865063 0.21392979
-0.09090649 0.024199571 -0.09705092 0.17156693 -0.120035246

sequential_2/dense/BiasAdd/ReadVariableOp f4 [128]
00000000: e83b 07bc 677a da3b e1c9 b33c d631 16bd
00000010: 4f5f 58bd 7cec 86bc ee99 c1bc 1773 00bc
00000020: 7b5d 1cbe 8eb5 10bc 22e5 59bc f0ea aabc
00000030: 7a04 d2bb 4d9d d6bb e3db 7abc 9ec5 d03a
00000040: dde9 913d 5bdf 28bd a9f4 41bd b228 3bbc
00000050: ea66 ddbb c9e2 5dbc 2f13 73bb 67b6 34bc
00000060: 7e5f bebd e5bf f5bb 6564 86bc dac1 c4bb
00000070: fa63 15bc 5529 afbd ed89 0ebd 3b02 31bd
00000080: dc98 97bc 98dc eb3c 53e0 54bc 69bd c4bb
00000090: 525f f33d 817a 71bc abeb 9ebc 8f4d eebc
000000a0: bc26 85bc 11a3 f4bb 6769 833d 1a9e 89bb
000000b0: fd0e 3dbc 7c7e 98bc 4734 56bd b521 21bc
000000c0: cf06 1abd b320 2f3c 43ea 463c e68c 5ebc
000000d0: 5507 1c3d 9e67 1abc 2560 61bc 2bfe 15bd
000000e0: 54b3 36bc 9be6 e7bc 4b9d fdbb 5674 6ebc
000000f0: 9f6f 24bc 3b9b 2cbc 81c2 d2bc 9c9d 443d
00000100: adc4 ddbc eab5 19bc ff97 e33d 25ab 7eba
00000110: bbf6 a0bc 17a7 a33c 0fb1 b6bd bbff 6dbc
00000120: 11d8 f2bb 8334 05be 3db5 5b3a 6bef be3d
00000130: a240 3abc 988d 67bc 7459 c0bd 9796 a3bc
00000140: 48d5 9c3b 6bfe c83b fd3d 12bc b33a 733d
00000150: 082b 063d f41e ad3c 1a3c 9abb 1710 d23c
00000160: efbc d5bc 5663 ebbd 1dad 0fbc dc78 b2bc
00000170: 04e4 bebb f277 d5bd 01f7 00bc 018f a0bc
00000180: 3eab 8f3a b938 0fbd 811d 383b 8abb 50bc
00000190: c017 2b3c 3e8c 39bd 701d d03c 543d 043d
000001a0: e1e4 babc c5cc cb3d c557 74bb d3f0 1e3d
000001b0: 26ea bfbc af4b b4bd 6d76 2ebc 0797 57bc
000001c0: a3d6 d0bb 8de1 7ebc 9d7c 1ebd d4d4 29bc
000001d0: 4f79 9fbc b8d2 e7bb b48c 81bc 4774 a2bc
000001e0: 62c3 babc 19af 51bb bc34 93bc 2b7f 8fbb
000001f0: 6fcb 67bc 3379 b83d 0a7d 9ebc f39d a9bc
-0.008254029 0.0066674235 0.02194685 -0.03666862 -0.05282527 -0.016470186 -0.02363297 -0.00783994
-0.15270035 -0.0088323485 -0.013299258 -0.02086398 -0.006409225 -0.0065495134 -0.015311214 0.0015928035
0.07124684 -0.041228633 -0.047352467 -0.011423277 -0.006756653 -0.013542839 -0.0037090292 -0.011029816
-0.092955574 -0.0074996823 -0.016405294 -0.006004554 -0.009118075 -0.08552805 -0.034799505 -0.043215018
-0.018505506 0.02879171 -0.012992936 -0.0060040248 0.11883415 -0.01473868 -0.019399485 -0.029089717
-0.016253822 -0.007465728 0.06416588 -0.0041997554 -0.011539218 -0.018615 -0.05229595 -0.009834697
-0.03760415 0.010688948 0.012140813 -0.0135833975 0.03809293 -0.009424118 -0.013755833 -0.036619347
-0.011151154 -0.028308203 -0.007739698 -0.014554104 -0.010036378 -0.010535057 -0.025727512 0.04800187
-0.027071321 -0.009381751 0.11112975 -0.00097148336 -0.0196489 0.019977136 -0.0892049 -0.014526303
-0.007411011 -0.13008313 0.00083811936 0.09323009 -0.011367949 -0.01413288 -0.09392062 -0.019969268
0.0047861673 0.0061338446 -0.008925912 0.05938215 0.03275588 0.021132924 -0.0047068717 0.025642438
-0.026091067 -0.11493556 -0.008769301 -0.021786146 -0.0058255214 -0.104232684 -0.00787139 -0.01959944
0.0010961068 -0.034966204 0.0028093758 -0.012740025 0.010442674 -0.04529976 0.025404662 0.03228505
-0.022814216 0.09951166 -0.003728376 0.038803887 -0.02342708 -0.08803498 -0.010648352 -0.013158566
-0.006373243 -0.015556705 -0.03869306 -0.010365684 -0.019467024 -0.00707468 -0.015814163 -0.019830836
-0.022798244 -0.0031995235 -0.017969482 -0.0043791733 -0.014147623 0.09007492 -0.019346733 -0.020705199

sequential_2/sequential/batch_normalization/FusedBatchNormV3 f4 [3]
00000000: 4466 063d 1b6a 063d b25e 063d
0.03281237 0.032816034 0.032805152

sequential_2/sequential/batch_normalization/FusedBatchNormV31 f4 [3]
00000000: 993e 14c0 5c42 14c0 dc37 14c0
-2.3163207 -2.3165503 -2.3159094

sequential_2/sequential/lambda/rgb_to_grayscale/Tensordot/MatMul1 f4 [1, 3]
00000000: 6c09 993e a245 163f d578 e93d
0.2989 0.587 0.114

sequential_2/dense/MatMul f4 [128, 768]
00000000: 7c11 9c3c efbc ea3c 1535 c8bc 659d 863c
00000010: 05c6 a43c ff15 1abd 8486 8fbd 23a1 f33c
00000020: eff3 9fbd 6c7a a4bc 6201 6bbc b66a 053d
00000030: 86ab 3bbd 4328 d83c 0c03 403c 3634 8e3a
00000040: 2f51 49bd 9550 d6bc 98c2 2ebd fa1a bc3a
00000050: e5e5 c6bd 4425 603d 9cb5 573d 79e2 0cbd
00000060: 68bc 5cbc feef 993b 1c10 7a3d f990 803d
00000070: 60f8 3cbd 99bb 26bd d395 0cbd ee60 adbd
00000080: 6180 95bd 32b0 17bd ae96 03bd 64f5 e23c
00000090: a0b4 30bc b31a 4ebb 3c5e 8c3c 50cf 483d
000000a0: 3db4 ebbc ad23 7d3c 55a8 b6bd 1dc2 1f3c
000000b0: af80 ff3c 040f 553d 7c85 0d3d 9140 84bd
000000c0: c8c5 e13b b53a b3bc fca0 20bd a0f6 f7bc
000000d0: b8b2 b2bd 7595 0bbc 6b2a 60bc 86e5 bbbc
000000e0: 2c85 62bb ac51 e1bc 2569 013d 959f 9dbd
000000f0: f14a 59bd 3a96 743d f123 373d 47b7 5a3d
00000100: 7f54 7ebd 2660 7ebd 8cb1 343d 197b 97bd
00000110: 1679 b1bd 5316 8bbd 872f 843d 2d21 933d
00000120: edf2 833d d822 48bc 7c2f 513d 3361 88bd
00000130: 4d7d b13c ee04 babc 3539 54bd bce4 72bc
00000140: 587a 8dbd 5ab6 5abd 7501 b6bd fa3d 3a3b
00000150: 3b5e 523d ce9e 1dbd afbe 57bc b111 4ebc
00000160: a9ca 45bd c322 a7bc 72e4 7cbd 7b79 153d
00000170: 2095 79bd 3b1d 563d 0cb2 c93c 5245 a3bd
00000180: 6179 5cbd 85af bdbc be82 b8b9 3cbc dcbc
00000190: 4ab2 9a3c 1d60 42bd a7cf a1bb e9b6 6fbd
000001a0: 8f8d 86bd eb80 5bbd d075 40bd 14f0 5bbc
000001b0: 0ebe 983c 1385 cebb 4a4a 63bd 4604 363d
000001c0: 49e8 e5bc 786b b13b 66ba 1c3d 6ea5 9fbc
000001d0: 7646 77bd 7a98 b3bd ad9a 323d c7b2 163d
000001e0: 3fd9 9c3d ed8a 1f3d f891 e33c ffca df3c
000001f0: cf5b ccbc ecec 83bd 8d03 84bd ef7a 3ebd
00000200: a86a 96bb e877 cf3c 2ee8 c23a 6859 963c
00000210: 4e2b 843d 70b4 c93c eb8f 933c 152f 653d
00000220: 3dcb 4a3d 2853 d4bc 48b7 21bd a977 de3c
00000230: 8d46 7bbd 9a94 9fbd 5f27 afbc 417a 39bc
00000240: ac9f c2bd e119 d3bc c55b 7d3d 891b d93c
00000250: ad77 83bd 7400 bcbd 1912 76bd ccf2 bfbd
00000260: a4b3 48bd 1714 e8bc 6674 bdbd 499d 3e3d
00000270: 320e 8dbd a428 363c b3dc f63c fe38 83bd
00000280: b330 153d e106 2cbd 6136 30bb 88df d73c
00000290: a67c 14bb 603c 90bd 380f c3bd f62e b3bd
000002a0: 9a8b d4bd 43df 873d e02a 923c 454e ecbc
000002b0: 1793 8e3d c4a3 d63c e401 ca3b ae57 673d
000002c0: ba88 a0bd 5e7c 063d f850 a8bd 8640 7dbd
000002d0: 3b66 5a3d c468 1fbc 349c 28bd fd3e 9f3c
000002e0: 6f22 093b 9b6c a8bb 44f3 37bd b059 fbbc
000002f0: c673 44bd eb89 813d 2742 003d 73cc 27bc
00000300: 4ce7 603d 8f18 76bd fd78 4f3d 9e25 abbc
00000310: 2770 97bc 5228 b4bd f293 86bb b8d3 3dbc
00000320: 14b1 bfbc 7e41 913d 2fd8 5f3c 463e 9c3d
00000330: 93fe 9a3c 9d54 2f3d ef0f ecbc dd98 1f3c
00000340: 59e8 f33b 0ae7 693b 8f50 9dbb 6ae9 443d
00000350: 2213 ae3b 2a08 52bc 1c82 8d3c 2080 0abd
00000360: 37b0 003c 460e 09bd 8010 f6bc f5c6 4a3d
00000370: 8c3b 203d 127d 6bbd 8b95 6c3d 0aa5 e73c
00000380: dfa9 6cbd f6d8 90bd 3c1d 8cbd cae3 813b
00000390: e393 4dbd 2f2c 813d 5929 453d f790 923d
000003a0: d761 85bd ce48 6bbb 49d4 1a3d 227c 81bd
000003b0: 953f 3a3d 952d 40bd 8407 a33c 32e1 973d
000003c0: 8742 bdbd 21bb 40bd 2389 333c e631 8b3d
000003d0: 20f2 f43c 3802 553d a25c 7cbd f0a2 1bbd
000003e0: 6dac 913d a2e0 93bd 6cf0 c3b9 029f d3bc
000003f0: ed4b 823d c11b 523d 8c3c db3c 7a4f 9a3d
0.019051306 0.028654544 -0.024439374 0.016432473 0.020113954 -0.037618633 -0.07008079 0.029739922
-0.078101985 -0.020077907 -0.014343591 0.03257247 -0.045817874 0.026386386 0.011719476 0.00108493
-0.04914969 -0.026161471 -0.042666048 0.0014351301 -0.09711818 0.05472304 0.05266343 -0.03439567
-0.013472654 0.0046977988 0.06105052 0.06277651 -0.046135306 -0.04070625 -0.03432257 -0.084657535
-0.07299877 -0.037033267 -0.03212612 0.027704902 -0.010785252 -0.003144902 0.017134778 0.049025834
-0.028772468 0.0154504 -0.089188255 0.00975087 0.03118929 0.052016273 0.03455113 -0.064576276
0.0068900324 -0.02187858 -0.039216027 -0.030268967 -0.08725494 -0.00851952 -0.013681988 -0.022936594
-0.003456424 -0.027504764 0.031594414 -0.076964535 -0.053049985 0.05971358 0.04471201 0.053397443
-0.0620923 -0.062103413 0.044114634 -0.07396526 -0.086656734 -0.067913674 0.064543776 0.07184062
0.06442819 -0.012215339 0.051070675 -0.06659164 0.021666193 -0.022707429 -0.05181237 -0.014825042
-0.06908101 -0.05339656 -0.08886997 0.0028418289 0.051359396 -0.038481526 -0.013168021 -0.01257746
-0.048288975 -0.020402318 -0.0617413 0.036492806 -0.060933232 0.05227397 0.024621032 -0.07972206
-0.053826693 -0.023154983 -0.00035192625 -0.026945226 0.018883843 -0.047454942 -0.004938084 -0.058524046
-0.06569969 -0.053589743 -0.046987355 -0.013423938 0.018645313 -0.006302485 -0.05549077 0.04443767
-0.028064864 0.0054144226 0.0382637 -0.019488063 -0.06036993 -0.08769317 0.04360454 0.03679159
0.07658624 0.03895085 0.027779564 0.027318476 -0.024946121 -0.06441674 -0.0644599 -0.046503957
-0.004590351 0.02532573 0.001487022 0.01835318 0.06453572 0.024622172 0.018012961 0.055953104
0.04951023 -0.025918558 -0.03948143 0.027156668 -0.06134658 -0.077920154 -0.021381078 -0.0113206515
-0.09503111 -0.025769176 0.061855096 0.026502388 -0.06419311 -0.09179774 -0.060075853 -0.09372482
-0.048999444 -0.028329892 -0.09250717 0.046536718 -0.06887473 0.011118088 0.030134534 -0.06407355
0.036423396 -0.041998748 -0.002688788 0.026351705 -0.0022657304 -0.070427656 -0.09524387 -0.087491915
-0.103781894 0.06634381 0.01784271 -0.028845916 0.06961649 0.026201136 0.006164776 0.056480102
-0.078385785 0.03283345 -0.082185686 -0.061829112 0.05332015 -0.009729568 -0.041164592 0.019439215
0.0020925065 -0.0051399 -0.04490973 -0.030682415 -0.047961973 0.06325134 0.031313088 -0.010241616
0.054908082 -0.060082015 0.050652493 -0.02089196 -0.018486096 -0.08796753 -0.004106992 -0.011586122
-0.023399867 0.0709257 0.013662382 0.07629065 0.018920219 0.042805303 -0.028816191 0.009741035
0.0074434695 0.0035690689 -0.004800863 0.048074163 0.0053123394 -0.012819329 0.017273955 -0.033813596
0.007854513 -0.033460878 -0.030037165 0.049506146 0.03911929 -0.057492323 0.057759803 0.028276939
-0.05777919 -0.07072632 -0.068415135 0.003963922 -0.050189864 0.063072555 0.048135135 0.07156556
-0.06512802 -0.003590155 0.037800107 -0.063225046 0.045470793 -0.04691847 0.019901045 0.074159995
-0.09241205 -0.04705346 0.010957989 0.06796627 0.02990061 0.05200407 -0.06161178 -0.037997186
0.07112966 -0.0722058 -0.00037372427 -0.025832657 0.06362138 0.051296 0.02676227 0.0753469

sequential_2/dense_1/MatMul f4 [53, 128]
00000000: e0cc edbd 7f9c f3be c2e4 243d c741 debe
00000010: 05b0 59be e879 213c d107 15bd ba1b 233e
00000020: 5fcc b8bd f08e 8ebc 819a 08bd 4ab1 dfbd
00000030: 7301 873d df3f 933d 9899 c63c 0f6b 453e
00000040: bc24 993d 7587 32be 8e78 87be e098 0b3e
00000050: 8695 2a3e e035 8fbd 1c59 e03d 26de 2d3e
00000060: 7875 f3be dcab 0e3b c1b3 b8bd cdc8 83bd
00000070: d771 8fbc 0eec bcbe e92c 4b3d a68f 153d
00000080: 9953 6d3b e570 48be 373e aa3d 62bd c13d
00000090: c1db 56bf e057 0ebe 1807 7c3d f91e b8be
000000a0: 0d75 ed3a e087 11bd 211d ab3d a6ed 67bd
000000b0: 27fb bf3d 3ff1 b7bd 4b70 85bf 0476 fa3c
000000c0: 9992 8abd 4e7c f9be 4c79 73be 9333 e6bd
000000d0: ad03 f5be 711a 84bd 3a95 553c 5886 2bbd
000000e0: bc69 2b3e cddf 863d 4a41 54bf 71c2 a43d
000000f0: 2170 7bbe 16f1 093e 0a8c 42be bb82 babe
00000100: 55be 66bd 691a 1cbe 6eef 97bf 97a2 06be
00000110: 1d8c d0bd e195 803d 92a7 723e dbb8 8abd
00000120: a5de 8b3c 8309 35bf ba74 f63d 72a5 093d
00000130: b74d 2ebe 716e 36be 9b0b 46be 7f69 81bb
00000140: 969a d33d 0ece 2a3e f55e 2f3e 0d05 003d
00000150: 3d26 c1be 6822 3a3e cc3f 293e 04b6 983d
00000160: ca3e aebd 64f3 76bf 1973 26be b756 8c3d
00000170: 67b2 bebc 364a 17bf 99b3 9c3c 00f6 e23d
00000180: 8a6b bdbe e351 c4be 4fbc 50be 5d65 0fbc
00000190: bd87 acbe 56d3 efbd 5d45 a5be f604 543e
000001a0: efc1 85be c420 153c 8247 aabd e6a6 053e
000001b0: 22df 00be a6bd d23d c461 403c 6424 ca3c
000001c0: 3415 8ebc ac78 5ebe bf5e eabe 4c60 e9bc
000001d0: ce10 38be 3181 f43d 3f87 0fbf e3fd 9fbd
000001e0: d3e3 c3bd ffd8 e13d 9df4 35be 3c58 4bbe
000001f0: 0509 653d 5b81 d4be f8bf 99bd 13bb 9fbe
00000200: 7e1b 91ba 10fc 55be 21f9 5cbd 1178 bdbe
00000210: d66b 0bbf ead4 bfbc 9f88 4abe 2a4e 223e
00000220: 7f14 9ebe d495 3fbd a3ba e4be ffaf 193d
00000230: ec44 2d3e 3c71 773d 6f72 1c3d 151b eabd
00000240: 1c9e 83be 3e92 d9be 6639 92bd 1822 d4bd
00000250: eff5 1a3e 6877 ec3d 48de 1fbe 7896 f8bd
00000260: 3ffe 7ebd d021 ec3b d0b0 033e 24b1 c3bd
00000270: d976 633d c6d3 12be c10c d8bd 63b7 f13d
00000280: 9aed dcbd 5676 b53d f61e 723d d7bd 28be
00000290: 7f08 a43d 46b3 0b3e 5fe1 32be 56d5 453e
000002a0: 97ae 2fbe d60b ceba 6c29 56be 2e90 9ebd
000002b0: ea59 e63d 536e 38bd b565 fcbd 119d 7abd
000002c0: cdd9 12bd 5c85 5a3b f29c f03d 4bd0 1abd
000002d0: 6aa4 093c 5ff9 f53d 31c3 fcbd e399 103d
000002e0: 9472 dd3d 58c9 0cbd 34d9 c33d 1a56 a0bd
000002f0: 6cec 6bbd 4623 4bbe 6e86 53be c084 56be
00000300: ed62 2bbe 9ea1 873d 455a c93d 2e90 68be
00000310: de4b 52be f7ea 943d 3b40 cabe 3d55 ea3c
00000320: af5b 00be c943 23be f970 98bd 0fe9 afbe
00000330: 1977 1c3e d0aa 573d 88b5 7abe 505d 71bd
00000340: 585d b5be d5e5 0cbc 4ce3 bf3c bded 053e
00000350: f343 88be 4ec4 5a3c 35fd 2fbe 39ec 8bbe
00000360: 8142 d03d 4a0b b6be 7297 ba3d 981f 483d
00000370: cb75 ca3d 3787 5bbe 0f47 af3c 2e07 b03c
00000380: b2f9 12be 2979 a43d eef8 05be 8dd9 62bd
00000390: 9bf8 e33d 31fb 11bd 47b2 09bf 78a1 423a
000003a0: 5cef 8ebe ed34 7e3d 3549 16be 5303 bfbe
000003b0: dd4a 9b3d a831 24bd 0eee d03d 33ae 2d3e
000003c0: f52c 28be 63a9 66be 51a9 a1bd baba 7ebc
000003d0: 1f31 dabd 4ae6 2a3e 4382 3cbc 909f e83d
000003e0: 1ce1 f63d e163 85bd 37c5 28be 5513 fdbc
000003f0: de07 19be 104a 1b3e 4fe3 e33d 449d b3be
-0.116113424 -0.47580335 0.040257223 -0.4340956 -0.21258552 0.009855725 -0.036384407 0.15928546
-0.09023356 -0.017402142 -0.03335047 -0.10922487 0.06592073 0.07189917 0.024243161 0.19279121
0.0747771 -0.17434485 -0.26459163 0.13632536 0.16658601 -0.06992698 0.10954496 0.16979274
-0.4755056 0.0021769917 -0.0901866 -0.06434784 -0.017510338 -0.36898845 0.049603377 0.036513947
0.0036213158 -0.19574316 0.08312648 0.0945995 -0.8392907 -0.13900709 0.061530203 -0.3596113
0.0018116549 -0.03552997 0.08355165 -0.056623124 0.093740754 -0.08981561 -1.0424894 0.030573852
-0.067662425 -0.4872765 -0.2377674 -0.11240306 -0.47854367 -0.06450356 0.013036067 -0.041876167
0.16739553 0.06585655 -0.82912123 0.08044899 -0.24554493 0.13470873 -0.18998733 -0.36427864
-0.05633386 -0.1524445 -1.1869943 -0.1314796 -0.101829745 0.06278587 0.23696736 -0.0677354
0.017073939 -0.7071764 0.120339826 0.033605047 -0.17021833 -0.17815568 -0.19340365 -0.0039493437
0.10332219 0.16680166 0.17126067 0.031254817 -0.37724486 0.18177187 0.16528243 0.07456592
-0.0850807 -0.96465135 -0.16254844 0.06852477 -0.023278428 -0.5909761 0.019128608 0.11082077
-0.36996108 -0.38343725 -0.20384334 -0.008752194 -0.3369731 -0.11710231 -0.32279482 0.20705017
-0.26124522 0.00910205 -0.0831442 0.13051948 -0.12585118 0.10290079 0.011742059 0.024675556
-0.017344095 -0.2172572 -0.4577541 -0.0284883 -0.1797516 0.11938704 -0.56065744 -0.07812097
-0.095649384 0.11027717 -0.17769094 -0.19857877 0.055916805 -0.4150494 -0.07507318 -0.31197414
-0.0011070815 -0.20896935 -0.053948525 -0.37005666 -0.5446142 -0.023416955 -0.1977868 0.1585013
-0.30875012 -0.046773747 -0.44673643 0.03752136 0.16920823 0.060410723 0.03819507 -0.11430947
-0.25706565 -0.42494386 -0.07139854 -0.10358065 0.15132879 0.115462124 -0.15612137 -0.12138075
-0.062254187 0.007206179 0.12860417 -0.09555271 0.055533264 -0.14338598 -0.105493076 0.11802556
-0.107875064 0.088604614 0.059111558 -0.16478668 0.08009433 0.13642606 -0.17468785 0.19319662
-0.17156444 -0.001572008 -0.20914239 -0.07742344 0.112476185 -0.04502709 -0.123240866 -0.061184946
-0.035852242 0.0033343649 0.11748685 -0.0377963 0.008401016 0.120104544 -0.12341917 0.035303008
0.1081287 -0.034371704 0.095629126 -0.078289226 -0.057598516 -0.19837674 -0.2065675 -0.20949078
-0.16736956 0.06622623 0.09831671 -0.2271125 -0.20536754 0.072713785 -0.3950213 0.028605098
-0.12534975 -0.15943827 -0.07443423 -0.34357497 0.15279807 0.052653134 -0.24483311 -0.05892688
-0.35422778 -0.008599718 0.023423813 0.13078971 -0.2661434 0.013352467 -0.17186435 -0.2732866
0.101689346 -0.35555488 0.09110917 0.048858255 0.098857485 -0.21438299 0.021396188 0.021487799
-0.14353064 0.08030922 -0.1308324 -0.055383254 0.11131402 -0.035639945 -0.53787655 0.00074245734
-0.27916992 0.062062193 -0.14676364 -0.37307224 0.075826384 -0.04008642 0.10201655 0.16960983
-0.164234 -0.22525553 -0.07893623 -0.015547449 -0.106539 0.16689411 -0.011505666 0.11358559
0.12054655 -0.06513191 -0.16481481 -0.030893007 -0.14944407 0.15164971 0.1112734 -0.35080922
