model.tflite (tflite, 524292 bytes, 12 tensors)

sequential_2/conv2d/Relu;sequential_2/conv2d/BiasAdd;sequential_2/conv2d/Conv2D;sequential_2/conv2d/BiasAdd/ReadVariableOp f4 [16, 3, 3, 3]
0	0xbaa8d9aa	-0.0012882252
1	0xba90aea9	-0.0011038381
2	0xba3ad7b6	-0.00071274803
3	0xbae9e0d5	-0.0017843494
4	0xb9a0ae79	-0.0003064757
5	0xb8d48642	-0.00010133955
6	0xbb0eec72	-0.0021808413
7	0xba23e4ae	-0.00062520325
8	0xba14d0d1	-0.0005676868
9	0xbafc3d56	-0.0019244354
10	0xbaa5c513	-0.0012647234
11	0xba451e7c	-0.0007519496
12	0xbaee4b31	-0.0018180368
13	0xba692fd6	-0.0008895373
14	0xb90c22a6	-0.00013364348
15	0xbacb5c4d	-0.0015515179
16	0xba9924a6	-0.0011683896
17	0x37869a61	1.6045933e-05
18	0xba767525	-0.0009401611
19	0xb997e031	-0.00028968
20	0xb9a943a5	-0.0003228459
21	0xbac4f3de	-0.0015026291
22	0xba770e1c	-0.00094244047
23	0xba803da5	-0.0009783997
24	0xbaecff4b	-0.0018081454
25	0xbaa89042	-0.0012860375
26	0x38483b30	4.773884e-05
27	0x3ac9f52f	0.0015408153
28	0x3a663426	0.00087815744
29	0x3a18d6a6	0.0005830325
30	0x3add4b2e	0.0016883367
31	0x39f462a2	0.00046612794
32	0xb80aeacf	-3.3120446e-05
33	0x3a398110	0.0007076422
34	0x3a969496	0.0011488374
35	0xb8447201	-4.6836216e-05
36	0x3a0b7c60	0.00053209625
37	0x3a98e251	0.0011664127
38	0x39b8f69e	0.0003527896
39	0x3aa5a88e	0.0012638734
40	0x3a96f5ca	0.0011517343
41	0x383b0b9e	4.4595094e-05
42	0x3a36ea9a	0.00069777074
43	0x3abd30f1	0.0014434141
44	0x3a1e7112	0.00060440705
45	0x3a86a049	0.0010271157
46	0x3aa9781d	0.0012929473
47	0x3a0a24ff	0.0005269795
48	0x39f3e520	0.00046519283
49	0x3a1eb8d6	0.00060547644
50	0x3a796dcd	0.0009514958
51	0x3ae0d584	0.0017153476
52	0x3a9c5b8a	0.0011929136
53	0x3a0552eb	0.0005085903
54	0x3abcfad1	0.0014418011
55	0x3aa5c6b0	0.0012647714
56	0xb9895417	-0.00026193328
57	0x3a791ed2	0.0009503189
58	0x3a9bc5f9	0.0011884562
59	0xba0ae18c	-0.00052978913
60	0x3aca3181	0.001542613
61	0x3aae3b8f	0.0013292896
62	0xba12e144	-0.0005603025
63	0x3ade3713	0.0016953669
64	0x3a023078	0.0004966329
65	0xba396093	-0.00070715806
66	0x3ab202b2	0.0013581126
67	0x3aac9835	0.001316792
68	0x39e8b098	0.0004438206
69	0x3aa2b835	0.0012414517
70	0x3a92d55f	0.0011202506
71	0xb9f42597	-0.00046567313
72	0x3a519b03	0.0007995816
73	0x3a4622f7	0.0007558311
74	0x39af69ee	0.00033457525
75	0x3a9e482e	0.0012075955
76	0x3a1f7dab	0.00060840946
77	0xba24ab65	-0.0006281643
78	0x3af2ebc2	0.0018533396
79	0x3a0f96bb	0.00054774777
80	0xb933fbf2	-0.00017164627
81	0x3ac7b3b2	0.0015236048
82	0x3a6fb6d1	0.0009144368
83	0x3a344127	0.00068761635
84	0x3a8f960e	0.0010954754
85	0x3aa305d7	0.0012437653
86	0xb95e3111	-0.00021189848
87	0x3ab36beb	0.0013688778
88	0x3ab00fe4	0.001343247
89	0x3a0fbc55	0.0005483081
90	0x3a6cfeb2	0.0009040638
91	0x3aafdff2	0.0013418181
92	0xba03d6be	-0.00050292525
93	0x3a4c1b7e	0.0007786079
94	0x3ab81da1	0.0014046916
95	0xb9288128	-0.00016069843
96	0x39e6c150	0.00044013048
97	0x3ad8a370	0.00165282
98	0x394e042a	0.00019647242
99	0x3af101cb	0.0018387375
100	0x3a74fef4	0.00093458523
101	0xb78da1d2	-1.6883863e-05
102	0x3a58e609	0.0008274024
103	0x3ac6a375	0.0015154915
104	0xb9c31597	-0.00037209384
105	0x3a9f064a	0.0012132612
106	0x3a751a84	0.00093499594
107	0x3a15d633	0.0005715817
108	0xbaa90274	-0.0012894408
109	0xb9062761	-0.00012793906
110	0xba78912b	-0.0009482081
111	0xbadb889b	-0.0016749086
112	0xba686876	-0.00088656635
113	0xb9b7451b	-0.00034955968
114	0xbaca76c6	-0.0015446774
115	0xbaa90f0b	-0.001289816
116	0xb9abcc29	-0.00032767773
117	0xba8ffd93	-0.0010985605
118	0xbaaf0e9f	-0.0013355798
119	0x386d1e56	5.6533456e-05
120	0xba265c6e	-0.00063461706
121	0xba987eae	-0.0011634433
122	0xb9cdc471	-0.00039247007
123	0xbacbbe88	-0.0015544454
124	0xbab46846	-0.0013763986
125	0xba7c78da	-0.00096310454
126	0xbb020cf2	-0.0019844142
127	0xba3c0589	-0.00071724557
128	0xba5ea00a	-0.00084924756
129	0xbaa39f4b	-0.0012483386
130	0xba596147	-0.00082923885
131	0xba869e38	-0.0010270542
132	0xbab1eb1e	-0.0013574099
133	0xb9aa38d4	-0.00032467267
134	0xba960d7f	-0.0011448114
135	0xbad6ea72	-0.0016396774
136	0xba2cbc51	-0.00065893406
137	0xba612f77	-0.00085901417
138	0xbabf2358	-0.0014582677
139	0xba942909	-0.0011303733
140	0xba8b3fe4	-0.0010623899
141	0xba94dc9b	-0.001135725
142	0xb98d2a8f	-0.00026925324
143	0xba326584	-0.0006805288
144	0xbae0c7f1	-0.0017149431
145	0xbaa62515	-0.0012675846
146	0xba4d0985	-0.0007821548
147	0xbadc8a84	-0.0016825949
148	0xba5acd30	-0.00083466154
149	0xba699312	-0.000891016
150	0xbab8d3ae	-0.0014101171
151	0xbac865cf	-0.001528913
152	0xb983d5e5	-0.0002514563
153	0xbab8bf89	-0.0014095168
154	0xba929958	-0.0011184616
155	0x393980b8	0.00017690926
156	0xbafbe437	-0.0019217794
157	0xba705205	-0.00091674953
158	0xba90ed0f	-0.0011056977
159	0xbaa3a7ac	-0.0012485883
160	0xb9ae02b8	-0.00033189892
161	0xb93dd299	-0.00018102898
162	0x3aa4b722	0.0012566785
163	0x3a813332	0.0009857176
164	0x3a3eddfe	0.0007281004
165	0x3ab624f4	0.0013896511
166	0x3a30c26e	0.00067428395
167	0x39d87a34	0.0004128978
168	0x3adbe4cf	0.0016776564
169	0x3a0852c9	0.0005200324
170	0x3a57178d	0.00082051085
171	0x39c87916	0.0003823719
172	0x3ad4b5dd	0.0016228516
173	0x3a2710df	0.00063730584
174	0x3aaf4cfb	0.0013374382
175	0x3ab1562c	0.001352971
176	0xb7cbad89	-2.4280294e-05
177	0x3add99b9	0.0016906775
178	0x3abb8fd2	0.001430983
179	0x387ead55	6.0719747e-05
180	0x3a7d855b	0.00096710556
181	0x3ad84c52	0.0016502237
182	0xb979979b	-0.00023802968
183	0x3a858f78	0.0010189852
184	0x3a92c454	0.0011197426
185	0x3a0ec14d	0.0005445674
186	0x3ab2eb9e	0.0013650542
187	0x3ad4a84e	0.0016224475
188	0x3a6fc6d8	0.00091467565
189	0xbad64b28	-0.0016349303
190	0xbab6a379	-0.0013934217
191	0xb83cf60a	-4.5051835e-05
192	0xba8d75fa	-0.0010792606
193	0xbaa58e43	-0.0012630898
194	0xba4a95f5	-0.0007728034
195	0xbae82cc5	-0.0017713538
196	0xba8db362	-0.0010810907
197	0xba265354	-0.00063448143
198	0xbaa56457	-0.0012618405
199	0xba5eafe0	-0.00084948353
200	0xba8470b4	-0.0010104389
201	0xb9f09dc5	-0.00045893915
202	0xba95ed8a	-0.001143859
203	0xba84297e	-0.0010083166
204	0xbaab737a	-0.0013080679
205	0xba8a4b4b	-0.0010551004
206	0xb9ea57f4	-0.00044697488
207	0xbae8e89f	-0.0017769522
208	0xbaad294b	-0.0013211159
209	0x3941caa6	0.00018481407
210	0xba653f3b	-0.0008745079
211	0xbabd9f12	-0.0014466962
212	0xba884fc2	-0.0010399746
213	0xbaef781b	-0.0018270047
214	0xb99db599	-0.00030080674
215	0xb9b67b79	-0.0003480574
216	0xba3bcf88	-0.00071644085
217	0xbaa4008d	-0.0012512371
218	0xba98badf	-0.0011652372
219	0xba445a19	-0.0007490232
220	0xbab10520	-0.0013505556
221	0x37b740ee	2.1845535e-05
222	0xba96f3d4	-0.0011516758
223	0xba7bebf8	-0.0009610052
224	0xb9260521	-0.00015832904
225	0xbacf30d2	-0.0015807396
226	0xb9fbd894	-0.00048035814
227	0xb92b1c9a	-0.00016318486
228	0xbad14e77	-0.0015968819
229	0xba65bb23	-0.0008763542
230	0xb9c0c8a6	-0.00036770588
231	0xbae9bcde	-0.0017832776
232	0xba830cea	-0.0009998356
233	0xba0a137e	-0.0005267187
234	0xbac54d56	-0.0015052955
235	0xba3c7e2d	-0.00071904325
236	0x385524c8	5.0817413e-05
237	0xbabf8bc2	-0.0014613795
238	0xbaada76b	-0.0013248747
239	0xba66f37f	-0.00088100875
240	0xba84def8	-0.0010137251
241	0xba6ab399	-0.0008953154
242	0xba7929d9	-0.0009504832
243	0x3aca259b	0.0015422584
244	0x3ad04562	0.0015889818
245	0x38ced614	9.8627206e-05
246	0x3a4440c1	0.0007486456
247	0x3a419996	0.0007385252
248	0x391cf93e	0.0001497017
249	0x3abf8a7b	0.0014613414
250	0x3abf9337	0.0014616017
251	0x3a9a7f5f	0.0011787227
252	0x3ac2b1ce	0.0014854015
253	0x3a476765	0.00076066545
254	0x39ad61f9	0.00033070127
255	0x3aad484a	0.0013220396

sequential_2/conv2d/BiasAdd/ReadVariableOp f4 [16]
0	0x3d231e95	0.039824087
1	0x3caf5bdd	0.021406109
2	0x3cbd929b	0.023141196
3	0x3cbbecd7	0.022940082
4	0x3d2b1209	0.041765247
5	0x3d2314fa	0.039814927
6	0x3cd40827	0.025882794
7	0x3d24230f	0.040072497
8	0x3d207f9b	0.039184194
9	0x3cbb3751	0.022853525
10	0x3cc387b6	0.023868423
11	0x3d9e88fc	0.077409714
12	0x3cc94136	0.024567228
13	0xbc39cd3d	-0.0113404365
14	0x3ccf90d5	0.025337616
15	0xbc006e69	-0.007838824

sequential_2/conv2d_1/BiasAdd/ReadVariableOp f4 [32]
0	0x3d28164d	0.041036893
1	0x3bee5b12	0.00727404
2	0x3d3039cc	0.04302387
3	0x3d0d8b7e	0.03455686
4	0x3d48051a	0.04883299
5	0x3d26442f	0.04059237
6	0x3d3f82f3	0.046755742
7	0x3d5d17b3	0.05397768
8	0x3c8cfb1a	0.017209578
9	0x3ccaa26a	0.024735648
10	0x3cd22146	0.025650632
11	0xbc09c538	-0.008408837
12	0x3d3aedd5	0.04563697
13	0x3c48ab3f	0.0122478595
14	0x3d46b3a8	0.048511177
15	0x3c64a990	0.0139564425
16	0x3d5e6167	0.05429211
17	0x3c41cc5b	0.011828507
18	0x3d00768c	0.031363055
19	0x3d449fce	0.048003964
20	0x3c290a05	0.01031733
21	0xbc0a2b15	-0.008433123
22	0xbc037d6b	-0.008025507
23	0x3d4a961b	0.049459558
24	0x3d17b7b6	0.037040435
25	0x3d82dfc4	0.06390336
26	0x3ce3f506	0.027826797
27	0x3d014417	0.031559076
28	0x3d422ec6	0.047407888
29	0x3cfc3127	0.030785156
30	0x3d46aca3	0.048504483
31	0x3d3d93c5	0.046283502

sequential_2/conv2d_2/BiasAdd/ReadVariableOp f4 [64]
0	0x3c5302a8	0.012879051
1	0x3c4847ba	0.012224132
2	0x3bc35045	0.0059604966
3	0x3b0f3118	0.002184933
4	0xbc4b3e8c	-0.012405049
5	0x3d5113c6	0.051044248
6	0x3c99c63e	0.018771287
7	0xbc55b8f8	-0.013044588
8	0x3ce50717	0.027957482
9	0x3bf8b913	0.007590422
10	0x3a95c970	0.0011427831
11	0xbca65339	-0.020303356
12	0xbc3ce478	-0.011529081
13	0xbbc46298	-0.0059931986
14	0xbc14b25b	-0.009075726
15	0x3cf2d165	0.029640863
16	0xbbe0af74	-0.006856853
17	0xbc245432	-0.010029839
18	0x3cf024d9	0.029314445
19	0x3ac34ef6	0.0014900852
20	0xbd8b292f	-0.067949645
21	0xbb1f8acc	-0.0024344204
22	0xbcf39fb0	-0.02973923
23	0x3c76fee7	0.015075422
24	0x3c2bc0ba	0.010482961
25	0x3d1fe413	0.039035868
26	0xbcb2cc2c	-0.021825872
27	0x3c9d17dd	0.019176418
28	0xbb9efd54	-0.0048519764
29	0xbbc487d0	-0.0059976354
30	0xbbdaa8b5	-0.0066729435
31	0x3cce3bb4	0.025174953
32	0x3d1f955e	0.038960807
33	0x3c8d5975	0.01725457
34	0x3ca650bf	0.020302175
35	0x3b941326	0.0045188842
36	0x3b8a4c23	0.004220502
37	0x3c062492	0.00818743
38	0xbcf3ad2f	-0.029745666
39	0x39d7480f	0.00041061683
40	0xbbcadd2c	-0.0061909165
41	0xbc31cc7b	-0.010851975
42	0xbc65f272	-0.014034854
43	0x3cf17b74	0.029477812
44	0x3cd6eabb	0.026234975
45	0x3d19db3e	0.0375626
46	0x3d48911e	0.04896652
47	0x3c89c8ab	0.016819319
48	0x3c92d64c	0.01792445
49	0xbbe1a9da	-0.006886703
50	0x3ba87dd8	0.005141955
51	0xbc1bb7c4	-0.009504262
52	0x3cc1ac51	0.023641737
53	0x3c9460d8	0.018112585
54	0x3a103b02	0.0005501957
55	0x3c548b83	0.012972715
56	0x3c680c96	0.014163157
57	0x3b0f2854	0.0021844106
58	0x3c129612	0.008946912
59	0xbad00e1f	-0.0015873349
60	0xbc40c19b	-0.011764909
61	0x3bd29aba	0.0064271362
62	0x3cccfaee	0.025021996
63	0xbb946eda	-0.004529816

sequential_2/conv2d_1/Conv2D f4 [32, 3, 3, 16]
0	0x3db258d1	0.08708347
1	0x3ccf429c	0.025300317
2	0xbd5ed171	-0.054398958
3	0xbd954554	-0.07288614
4	0x3d7e7e46	0.062132142
5	0x3ddaac70	0.10677421
6	0xbd635d1b	-0.055508714
7	0x3e1ecfe2	0.15508988
8	0x3daff61a	0.08591862
9	0xbc8b989e	-0.017040547
10	0x3bad2468	0.005283881
11	0xbcade2ef	-0.021226374
12	0x3d030c87	0.03199437
13	0xbd3ee72b	-0.046607178
14	0xbd6106ca	-0.054938115
15	0xbddf4780	-0.109023094
16	0x3d84629b	0.0646412
17	0x3d71dbc4	0.059047475
18	0x3dd3076a	0.103041485
19	0xbd2151cd	-0.039384652
20	0x3d7c6e24	0.061628476
21	0x3e40fb72	0.18845919
22	0x3dcbc351	0.09949363
23	0x3e2e7aa3	0.1703897
24	0x3da56eab	0.08077749
25	0x3d642cae	0.055706672
26	0x3d29da32	0.041467853
27	0x3d9385a6	0.07203226
28	0xbde78b41	-0.113058574
29	0xbd89f993	-0.06737056
30	0x3db69dd8	0.08916825
31	0xbdcfbe5c	-0.1014373
32	0x3bea22b4	0.00714525
33	0x3d5edea3	0.05441154
34	0x3d0a8d85	0.03382637
35	0xbd64c0b0	-0.055847824
36	0xbd775f22	-0.06039346
37	0x3d135c58	0.035976738
38	0xbe0f2f85	-0.13982971
39	0x3d7af9eb	0.061273497
40	0x3d5076f1	0.05089468
41	0x3d827a66	0.06371002
42	0xbd51d82c	-0.05123155
43	0x3d642ac0	0.055704832
44	0x3d923e0f	0.07140743
45	0x3d5392ce	0.051653676
46	0xbda4003e	-0.08007859
47	0xbd2c93b9	-0.042133067
48	0x3d6b0b64	0.05738391
49	0x3d97c7b8	0.0741114
50	0xbd42124c	-0.04738073
51	0xbd6f9109	-0.058487926
52	0x3e0b7ea6	0.13622531
53	0x3e3d2881	0.18472482
54	0xbd83a6a0	-0.064282656
55	0x3e2e88da	0.17044392
56	0xbcf60ca8	-0.030035332
57	0xbd385467	-0.045002367
58	0x3d05ab1c	0.032633886
59	0xbd89f3e6	-0.06735973
60	0xbd002163	-0.03128184
61	0xbdc062ce	-0.093938455
62	0xbe01a836	-0.12661824
63	0xbc96b98b	-0.01839902
64	0xbccac60d	-0.024752641
65	0xbe188937	-0.14896093
66	0xbdce7ccf	-0.10082399
67	0xbdc21d2d	-0.09478221
68	0x3dec437b	0.115363084
69	0x3dca94f1	0.098916896
70	0xbde39127	-0.1111167
71	0x3da56bae	0.08077179
72	0x3d1c1cd6	0.038113438
73	0xbdb217f1	-0.08695973
74	0xbe41c9c9	-0.18924631
75	0xb9b203f7	-0.0003395376
76	0xbe3f61b0	-0.18689609
77	0x3dc6053a	0.09668966
78	0xbd87cc65	-0.06630782
79	0xbd167d63	-0.03674067
80	0x3e08ea10	0.13370538
81	0xbc8c1591	-0.017100127
82	0xbd902db5	-0.07039968
83	0xbdc0f90b	-0.09422501
84	0xbd3dbde5	-0.046323676
85	0xbc72b79b	-0.014814283
86	0xbdaa5a27	-0.083179764
87	0x3e021f92	0.12707356
88	0x3d3d432d	0.046206642
89	0xbe0e5013	-0.13897733
90	0xbc88257a	-0.016619433
91	0xbda89b78	-0.08232778
92	0xbe23efc0	-0.16009426
93	0x3d94f6cc	0.07273635
94	0xbd3d44ef	-0.04620832
95	0x3d64be44	0.055845514
96	0x3dc6a2e1	0.096990354
97	0xbe0ac9eb	-0.13553588
98	0x3d8bf243	0.06833317
99	0xbd31ae8b	-0.043379348
100	0xbc5654e6	-0.013081765
101	0x3e35c0cd	0.17749329
102	0xbd9e9b38	-0.077444494
103	0x3dc47cf6	0.09594147
104	0x3e315123	0.17316107
105	0xbdedc4f4	-0.116098315
106	0xbe02e4e7	-0.12782632
107	0x3d83d243	0.064365886
108	0x3c8faf7b	0.01753973
109	0xbdd50874	-0.10402003
110	0xbcdf1396	-0.027231019
111	0x3c36ad4f	0.011149718
112	0x3d588d7b	0.0528693
113	0xbc154976	-0.009111753
114	0x3cab44ec	0.020906888
115	0xbcd4e9b2	-0.02599034
116	0x3e0ca411	0.13734461
117	0x3d80af60	0.0628345
118	0xbd12560c	-0.035726592
119	0x3d6c1116	0.057633482
120	0xbd032753	-0.032019924
121	0xbdbe198e	-0.09282218
122	0xbd8e1a8d	-0.06938658
123	0x3bfb1d93	0.0076634376
124	0xbe283a76	-0.16428551
125	0x3d5e4639	0.05426619
126	0xbe0c22fe	-0.13685223
127	0x3dbc6e8d	0.092007734
128	0xbcb1e0d1	-0.021713646
129	0x3d88f04e	0.066864595
130	0xbcc9128b	-0.024544975
131	0xbd8cefc8	-0.06881672
132	0xbd66805f	-0.056274768
133	0x3d5dd1f4	0.054155305
134	0x3cb7031d	0.022340352
135	0x3e24eb96	0.16105494
136	0x3c7a4d1d	0.015277174
137	0xbe3ae9cf	-0.18253253
138	0xbe2c7fcd	-0.16845627
139	0x3dc57568	0.09641534
140	0xbce755f3	-0.028239226
141	0xbd6c0c71	-0.057629053
142	0xbd80f4f9	-0.06296725
143	0xbdd281bc	-0.10278651
144	0x3d939ea5	0.072079934
145	0xbd8af84e	-0.067856416
146	0x3e261e85	0.1622258
147	0x3ded542c	0.1158832
148	0x3c5b935d	0.013401833
149	0x3dc1fdbc	0.09472224
150	0xbd7400eb	-0.059571188
151	0x3d967153	0.07345834
152	0xbb59d3c5	-0.0033237797
153	0xbdd77b94	-0.105216175
154	0x3da3601a	0.07977314
155	0x3c618751	0.013765172
156	0xbd82e92d	-0.06392131
157	0x3d54a504	0.051915184
158	0x3e0d5d4d	0.13805123
159	0x3d848183	0.06470015
160	0x3d9ab53b	0.07554098
161	0x3cd64935	0.026157955
162	0x3e1a9601	0.15096284
163	0x3e55abc9	0.20866312
164	0x3da3d9ad	0.08000503
165	0xbd40c0be	-0.047058813
166	0xbc8d2184	-0.017227896
167	0x3d971fd5	0.07379118
168	0x3db464f6	0.08808319
169	0xbd4c3d9b	-0.04986344
170	0x3e580dfc	0.21099085
171	0xbd87c088	-0.06628519
172	0x3d591751	0.053000752
173	0xbdc7e15e	-0.09759782
174	0x3ddd4e85	0.10805992
175	0x3c98dcc2	0.018659953
176	0x3d87886d	0.06617818
177	0x3dd4cdcb	0.103908144
178	0x3e775e0c	0.2415697
179	0x3e2f6e2c	0.17131871
180	0x3d834e80	0.06411457
181	0xbdd19447	-0.1023336
182	0x3db511ff	0.08841323
183	0x3d63b56b	0.055592936
184	0xbde6e9f6	-0.11275093
185	0xbd64fd75	-0.055905778
186	0x3d966a60	0.07344508
187	0xbd3e89f9	-0.0465183
188	0x3e01b654	0.12667209
189	0x3d8ae439	0.06781811
190	0x3dcc432a	0.09973748
191	0x3d2392b5	0.039934833
192	0xbde7d3f9	-0.113197275
193	0x3d8868f4	0.06660643
194	0x3e0a4ff3	0.1350706
195	0x3e44685d	0.19180436
196	0xbca1b08e	-0.019737508
197	0xbcd2c1dd	-0.025727207
198	0x3e18199a	0.14853516
199	0xbdddca1c	-0.10829565
200	0x3d452d79	0.04813907
201	0xbd2bd3e6	-0.04195013
202	0x3c969db9	0.018385755
203	0xbd85597d	-0.06511209
204	0x3ab4f6cf	0.0013806465
205	0x3db70505	0.08936504
206	0x3e006a05	0.12540443
207	0xbc4fd093	-0.012684005
208	0x3d0cf7e7	0.034416106
209	0xbc8219c9	-0.015881436
210	0x3e545778	0.20736492
211	0x3e647134	0.22308809
212	0x3d61aa8f	0.055094298
213	0x3a725b39	0.00092451606
214	0x3e2cc92b	0.16873614
215	0xbc9c4949	-0.019077914
216	0xbc981734	-0.018565752
217	0x3e0714d6	0.13191542
218	0x3e37166d	0.17879649
219	0x3dcc1fb6	0.09966986
220	0x3d02c73e	0.031928293
221	0x3d568a3c	0.052377924
222	0x3dd065a7	0.10175639
223	0x3db87617	0.09006899
224	0xbe2fb46c	-0.17158669
225	0x3e5a9517	0.21345936
226	0x3e53da7c	0.20688814
227	0x3e0b1e74	0.13585836
228	0x3bcd0e29	0.0062577915
229	0xbdfcff9b	-0.123534404
230	0xbb76eff5	-0.0037679647
231	0xbd6cc12d	-0.057801414
232	0xbe1c6d3d	-0.15276046
233	0x3e2a069d	0.16604085
234	0x3e2d4c64	0.16923672
235	0x3d199497	0.037495222
236	0x3e016858	0.1263746
237	0x3dac198b	0.084033094
238	0x3e3db4f1	0.18526055
239	0x3c95bb7e	0.01827788
240	0xbe222ebd	-0.15838142
241	0x3d191256	0.037371002
242	0x3cb31378	0.02185987
243	0x3e524cb4	0.20537072
244	0x3d09ed10	0.033673346
245	0xbd6639d9	-0.05620751
246	0x3d8b361d	0.06797431
247	0xbc40ec9e	-0.011775164
248	0xbdc18fb8	-0.0945124
249	0x3de34661	0.11097408
250	0x3d5ef23e	0.05443024
251	0x3e07d513	0.13264875
252	0x3dd24d6a	0.10268672
253	0xbd85ef83	-0.06539824
254	0x3dc37a57	0.09544819
255	0xbd148700	-0.03626156

sequential_2/conv2d_2/Conv2D f4 [64, 3, 3, 32]
0	0x3e211b6c	0.15733117
1	0xbd40e7ad	-0.047095943
2	0xbe1aed7a	-0.15129653
3	0xbe36d47f	-0.17854498
4	0x3d0b7a92	0.03405244
5	0x3dc7736f	0.09738814
6	0x3cb81a72	0.022473548
7	0x3e2ee814	0.17080718
8	0xbd4a14a1	-0.04933608
9	0xbd1c5ab1	-0.038172428
10	0x3c3483fe	0.0110177975
11	0xbd9cd46b	-0.07657703
12	0x3d0c24c5	0.034214754
13	0xbced3c9c	-0.028959565
14	0x3d02f8cc	0.031975552
15	0x3d4f00a9	0.05053774
16	0x3e09391b	0.1340069
17	0xbc1048e2	-0.008806439
18	0x3ae80018	0.0017700223
19	0xbe20c52b	-0.15700214
20	0x3ca4cc57	0.020116968
21	0x3c4a226e	0.01233731
22	0xbd8724d3	-0.065988205
23	0x3e1823b2	0.14857367
24	0x3e03002b	0.12793033
25	0x3d3f5eed	0.046721388
26	0xbc0c9a07	-0.008581645
27	0xbc6ddd4d	-0.014518094
28	0x3d58a5c5	0.052892465
29	0xbcfa4dc5	-0.030554662
30	0x3df0100d	0.117218114
31	0x3ddc4b94	0.10756603
32	0x3d731f90	0.059356272
33	0xbe1dedd8	-0.15422761
34	0xbe5d19a8	-0.21591818
35	0xbe9fadfb	-0.31187424
36	0x3df9b035	0.12191812
37	0x3dcc2902	0.09968759
38	0x3dfab4db	0.12241527
39	0x3e2ed10b	0.17071931
40	0xbdff994b	-0.1248041
41	0xbe8c6b14	-0.27425444
42	0xbe1a0099	-0.1503929
43	0xbd85bf40	-0.06530619
44	0x3cdf5e07	0.027266515
45	0xbcadbc36	-0.02120791
46	0x3e1b3cdd	0.15159936
47	0x3c93bedd	0.018035347
48	0x3e26e239	0.16297235
49	0xbd67476c	-0.056464598
50	0xbe49550e	-0.19661352
51	0xbe8dad8b	-0.27671465
52	0xbd4422aa	-0.04788462
53	0x3c708dcc	0.0146822445
54	0x3d2df94b	0.042474072
55	0x3e209fce	0.1568596
56	0x3d16eb61	0.03684557
57	0x3d8a0c88	0.067406714
58	0xbd4c1470	-0.04982418
59	0xbe6cadc0	-0.23113155
60	0x3cb3965d	0.021922285
61	0xbe84547a	-0.258457
62	0x3d2ec6b3	0.042669963
63	0x3d89ef94	0.06735149
64	0x3df91fc7	0.12164264
65	0xbdaeea6b	-0.085408054
66	0xbec6cbc4	-0.38827336
67	0xbeb39a8d	-0.3507885
68	0x3d5c46ef	0.053778585
69	0x3e13a8a1	0.14419796
70	0x3d72cfa9	0.05928007
71	0x3dcea239	0.10089535
72	0xbd9b3b1e	-0.07579635
73	0xbe8fef8a	-0.2811244
74	0xbe96a747	-0.29424497
75	0xbccd3e88	-0.025054231
76	0x3def37af	0.11680543
77	0xbe2c793a	-0.1684312
78	0x3e0cfa33	0.13767318
79	0xbdbde583	-0.092722915
80	0x3e3fd0b6	0.1873196
81	0xbe2969b0	-0.16544223
82	0xbe92f007	-0.2869875
83	0xbeb44bd8	-0.35214114
84	0xbda0fe92	-0.078610554
85	0xbd17a680	-0.03702402
86	0xbcc5df3b	-0.024154296
87	0x3e54da1e	0.2078633
88	0x3df770c3	0.120820545
89	0x3e558369	0.2085091
90	0xbe036db3	-0.12834816
91	0xbe8512f0	-0.2599101
92	0x3d954aa1	0.07289625
93	0xbe9f8b48	-0.3116095
94	0x3d65f0a6	0.056137703
95	0x3dc4e445	0.096138515
96	0x3e242209	0.16028608
97	0xbd61d0b0	-0.05513066
98	0xbd6dd94c	-0.05806856
99	0xbe1e72f4	-0.15473539
100	0x3deae900	0.114702225
101	0x3d820fce	0.06350671
102	0x3df14644	0.1178098
103	0x3d8ef73a	0.069807485
104	0xbd4a76ac	-0.04942958
105	0xbe05a885	-0.13052566
106	0xbe17a064	-0.14807278
107	0xbd938c1b	-0.07204457
108	0x3c2aace0	0.010417193
109	0xbcc11ba6	-0.023572754
110	0x3b9bfeb2	0.0047605867
111	0x3c4be374	0.012444366
112	0x3daf3d22	0.08556582
113	0x3c50ec78	0.012751691
114	0xbba5ae36	-0.005056168
115	0xbd6d5f6c	-0.05795233
116	0x3dcdbe41	0.10046054
117	0x3d2d7672	0.042349286
118	0x3d94b421	0.07260919
119	0x3c8bfb2e	0.017087545
120	0x3d2ca040	0.042145014
121	0x3da9bd9d	0.08288119
122	0xbd2dd97e	-0.042443745
123	0xbe11f42d	-0.14253302
124	0x3e0de1d2	0.13855675
125	0xbdabf090	-0.08395493
126	0x3dd1a609	0.10236747
127	0x3bf62d45	0.007512721
128	0x3e09b8cb	0.13449399
129	0xbd46d45e	-0.048542373
130	0xbe56eac6	-0.20987996
131	0xbe83edc8	-0.2576735
132	0xbcec15c0	-0.028818965
133	0x3d9beb58	0.07613248
134	0x3defc8a6	0.117081925
135	0x3d6b3c2c	0.05743043
136	0xbcf28f77	-0.029609425
137	0xbe6bd9ea	-0.23032346
138	0xbdc949ed	-0.09828553
139	0x3d48ec16	0.049053274
140	0x3c79ac34	0.01523881
141	0xbbb645c7	-0.0055625173
142	0x3d80cef9	0.06289477
143	0xbd7e6683	-0.06210948
144	0x3de1eca8	0.11031467
145	0xbd9ec1f2	-0.07751836
146	0xbe1c0209	-0.15235151
147	0xbe17b6df	-0.14815854
148	0xbad6f68a	-0.0016400379
149	0x3bde1546	0.0067774383
150	0xbda1695c	-0.07881424
151	0x3d261bd8	0.040553898
152	0x3c6e7a44	0.014555518
153	0x3d08d2db	0.033404212
154	0xbe19b279	-0.15009488
155	0xbe69c7d4	-0.22830135
156	0xbc4afab4	-0.012388874
157	0xbe60d40c	-0.2195589
158	0xbd008dc6	-0.031385206
159	0x3da686dc	0.08131191
160	0x3d41b491	0.047291342
161	0x3ccba4cc	0.024858855
162	0xbe79468d	-0.24343319
163	0xbe4b2184	-0.19837004
164	0x3d10a9dc	0.03531824
165	0x3e0fd7ab	0.14047115
166	0x3d327125	0.043564934
167	0x3db1944a	0.08670862
168	0xbd51d852	-0.05123169
169	0xbdcb3ec0	-0.09924078
170	0xbe036d42	-0.12834647
171	0xbd93c425	-0.07215146
172	0x3e083910	0.13303018
173	0xbe188c55	-0.14897282
174	0x3dee5115	0.11636559
175	0xbd8586ae	-0.06519829
176	0x3d614a6e	0.055002622
177	0xbd1541cb	-0.0364397
178	0xbe0d2226	-0.13782558
179	0xbde8c597	-0.11365812
180	0xbd80775d	-0.06272767
181	0xbab2a259	-0.0013628706
182	0x3bbd93cd	0.0057854415
183	0x3df319ab	0.1187013
184	0x3dd3facf	0.10350572
185	0x3d95a2dd	0.07306454
186	0xbd8ba0b0	-0.06817758
187	0xbe75107e	-0.23932073
188	0x3d5725e4	0.05252637
189	0xbe4e4fb0	-0.20147586
190	0xbb9b02f8	-0.0047305785
191	0x3ca63b9d	0.020292098
192	0x3e28b087	0.1647359
193	0x3d9093d0	0.07059443
194	0xbdfa83c9	-0.12232167
195	0xbce91746	-0.02845348
196	0x3c305d03	0.010764363
197	0x3de2eb70	0.110800624
198	0x3d9ea415	0.0774614
199	0x3e0997d6	0.13436827
200	0xbd5c2ddd	-0.053754676
201	0x3d571cf1	0.052517835
202	0x3cf39cbb	0.02973782
203	0xbd160899	-0.036629293
204	0x3e04ad59	0.12956752
205	0x3c517dae	0.012786312
206	0xbbdbee73	-0.006711775
207	0x3db1671d	0.086622454
208	0x3d93911a	0.0720541
209	0x3d7512bf	0.05983233
210	0x3d2fc59a	0.042913057
211	0xbd969551	-0.073526986
212	0x3cdb41d9	0.026764797
213	0xbcb233db	-0.021753242
214	0xbd0d4877	-0.034492936
215	0x3e2a1e95	0.16613229
216	0x3d372385	0.04471161
217	0x3df23367	0.118262105
218	0xbcbd791b	-0.023129037
219	0xbda9d6d9	-0.08292932
220	0x3e13b57c	0.144247
221	0x3c308dac	0.010775965
222	0x3e142ef3	0.14471035
223	0x3d78b5c9	0.06072024
224	0xbbf851ee	-0.007578126
225	0x3d1eeabe	0.038798086
226	0xbd7d53b1	-0.061847392
227	0xbd607c0d	-0.054805804
228	0x3d2cd8b1	0.04219884
229	0x3da79f0d	0.081846334
230	0xbbbfb13a	-0.0058499845
231	0x3dceec18	0.10103625
232	0x3dd61a30	0.104542136
233	0x3d718f43	0.058974516
234	0xbca4b41f	-0.02010542
235	0x3c909c4d	0.017652655
236	0x3ca61370	0.02027294
237	0x3df62176	0.12018101
238	0x3e01c7b5	0.12673838
239	0x3da8d09a	0.082429126
240	0x3d84376c	0.064558834
241	0xbd3b2c6b	-0.045696657
242	0x3dd2b07f	0.1028757
243	0x3d513c46	0.05108287
244	0x3db1c81d	0.08680747
245	0xbd9eb1e3	-0.07748773
246	0xbca79720	-0.020457804
247	0x3cf5c3f7	0.03000067
248	0x3df63395	0.12021557
249	0x3d306878	0.04306838
250	0xbd30fb9e	-0.04320871
251	0xbbf51d71	-0.0074803163
252	0x3ddf9a35	0.109180845
253	0x3d652f36	0.055953227
254	0x3e024921	0.12723209
255	0x3cafca29	0.021458702

sequential_2/dense_1/BiasAdd/ReadVariableOp f4 [61]
0	0xbc986cc2	-0.018606547
1	0xbbdf906b	-0.006822636
2	0xba9de1c8	-0.0012045437
3	0x3ce4b39d	0.027917678
4	0x3d6c4f6e	0.057692938
5	0xbb234b51	-0.0024916718
6	0xbc9ce065	-0.019149968
7	0x3d57bb7a	0.052669026
8	0x3ae8392f	0.0017717237
9	0x3d314f1b	0.04328833
10	0x3c5a3c15	0.013319989
11	0xbd2a9f0e	-0.041655593
12	0xbcd1ac42	-0.025594834
13	0x3d4b1282	0.049578197
14	0x3c0a2caa	0.0084335
15	0xbd250286	-0.04028561
16	0xbcfc0101	-0.030762197
17	0xbbab096a	-0.005219628
18	0xbcd385e6	-0.025820684
19	0xbcd7bf2d	-0.026336277
20	0xbc2b7f73	-0.010467398
21	0x3d68ef0f	0.05686861
22	0x3c2f04d4	0.010682303
23	0x3bc94d6d	0.006143263
24	0x3ccffb18	0.025388286
25	0xbc840c7d	-0.016119236
26	0x3d2ad9a6	0.041711472
27	0xbc0ab3d0	-0.008465722
28	0xbd81dc3f	-0.06340837
29	0x3cdc4d73	0.0268924
30	0x3c528c68	0.012850858
31	0xbc733423	-0.014843973
32	0x3c789ab6	0.015173605
33	0xbbd59357	-0.0065178084
34	0x3c11fecc	0.008910846
35	0xbb8ec316	-0.004356752
36	0x3c8ea943	0.017414695
37	0xbc5437c4	-0.012952749
38	0xbbd7fb16	-0.006591211
39	0xbd0ed255	-0.034868557
40	0xbc679c3f	-0.014136373
41	0x3c6bec02	0.01439953
42	0xbccb1c74	-0.024793841
43	0x3c7e185e	0.015508739
44	0xbbe7d5e2	-0.0070750574
45	0x3d09cd45	0.033643026
46	0xbd43a400	-0.047763824
47	0xbd3ce590	-0.046117365
48	0x3d36db5d	0.044642795
49	0xbce62691	-0.028094562
50	0x3c07bbce	0.008284522
51	0x39bb77a5	0.00035756562
52	0x3cd42acb	0.025899312
53	0xbc55eb33	-0.013056564
54	0x3cdfb44a	0.027307648
55	0xbc0bec00	-0.0085401535
56	0x3c76e29e	0.015068678
57	0xbb8a6622	-0.004223601
58	0x3b67ae75	0.0035351787
59	0x3bbf44e0	0.005837068
60	0xbd8b7580	-0.06809521

sequential_2/dense/BiasAdd/ReadVariableOp f4 [128]
0	0xbc302b68	-0.010752536
1	0xbc5d70df	-0.01351568
2	0x00000000	0.0
3	0x00000000	0.0
4	0xbd09bb5c	-0.033625945
5	0xbb2463d6	-0.002508392
6	0x3d668783	0.056281578
7	0xbc3d31bd	-0.011547503
8	0xbc601b6a	-0.013678411
9	0xbbf78ce7	-0.0075546387
10	0xbbfbf71a	-0.007689369
11	0xbc84aeba	-0.016196597
12	0xbb29d729	-0.00259156
13	0x3b475a0b	0.003041866
14	0x3daee928	0.08540565
15	0xbc224d1f	-0.009906082
16	0xbca32a54	-0.019917645
17	0xbc0d44d8	-0.008622371
18	0xbc9b5818	-0.018962905
19	0xbcb2360d	-0.021754289
20	0x3c43d6ed	0.011953098
21	0xbaccee6c	-0.001563502
22	0x3d4f6f41	0.05064321
23	0xbc7841f0	-0.0151524395
24	0xbcb137c5	-0.021633038
25	0xbd0ef439	-0.034900878
26	0xbb700484	-0.0036623785
27	0xbc4dbd6f	-0.0125573715
28	0xbc0f51ea	-0.008747557
29	0xbc2729c6	-0.010202831
30	0xbbc9c5e5	-0.006157624
31	0xbd3af244	-0.0456412
32	0x00000000	0.0
33	0xbd03356e	-0.032033376
34	0xbbcc4b70	-0.006234579
35	0x3d1a93d4	0.037738636
36	0x3b081da3	0.0020769618
37	0xbc9b2e18	-0.018942878
38	0xbc6247ff	-0.0138111105
39	0xbc407901	-0.0117476
40	0xbc6efa30	-0.014586017
41	0xbc9dc68b	-0.019259712
42	0x3c003cce	0.007826997
43	0xbca37656	-0.019953888
44	0x3d2634bc	0.040577635
45	0xbc410155	-0.011780103
46	0xbb42f011	-0.0029745142
47	0xbc808f67	-0.01569338
48	0xbbae7c13	-0.0053248494
49	0xbb9c790b	-0.0047751716
50	0x3c7c80d8	0.015411578
51	0xbcbe7791	-0.023250373
52	0xbc8bfdcc	-0.017088793
53	0xbbfeea94	-0.0077794287
54	0xbb3237a4	-0.002719381
55	0x3d149eec	0.036284372
56	0xbbaf1a1f	-0.00534369
57	0x3b5682be	0.0032731737
58	0xbc9bffbb	-0.01904284
59	0x3c668ae9	0.014071205
60	0xbcbb29b5	-0.022847036
61	0xbca48b47	-0.020085944
62	0x3c26954d	0.010167432
63	0xbbe077a3	-0.0068501993
64	0xbc34fafa	-0.011046166
65	0xbc341604	-0.010991577
66	0xbd2da47b	-0.04239319
67	0xbd2bc439	-0.04193518
68	0xbbc4b9f2	-0.0060036117
69	0x3cdf3a3a	0.027249444
70	0xbc30b12a	-0.010784427
71	0x3bcc428f	0.0062335203
72	0xbb3f5bff	-0.002919912
73	0xbd01ef61	-0.03172243
74	0xbbd07dc2	-0.0063626477
75	0x3bcae226	0.00619151
76	0x3d05e108	0.03268531
77	0x00000000	0.0
78	0xbc14142c	-0.0090380125
79	0x3c93c6eb	0.018039187
80	0x3d0dba5d	0.034601558
81	0xbbc48861	-0.005997703
82	0xbaaac9d2	-0.0013030118
83	0xbc61975f	-0.013769
84	0x3d9d14bc	0.076699704
85	0x3d544657	0.051824894
86	0xbc4fcc6e	-0.012683017
87	0xbc2715cd	-0.010198069
88	0xbd6f5f7c	-0.05844067
89	0xbbc4719d	-0.005994989
90	0xbb8d2d72	-0.004308396
91	0x3d1e40f5	0.038636167
92	0xbb4c7139	-0.0031195416
93	0x3c02393c	0.007948216
94	0xbbd8d375	-0.0066170045
95	0x3bc467f6	0.0059938384
96	0x3cbc90c0	0.02301824
97	0xbbee7181	-0.0072767143
98	0x3b4fd7d1	0.003171433
99	0x3cdb147c	0.026743166
100	0xbbc3cf35	-0.0059756287
101	0x3c636191	0.013878242
102	0x3d21912b	0.039445084
103	0xbc2a72b5	-0.010403325
104	0xbc2c10e8	-0.010502078
105	0xbbfefd5c	-0.0077816676
106	0xbc43a293	-0.011940616
107	0xbbd27f41	-0.0064238613
108	0x3ba7db67	0.0051225903
109	0xbbe12f0b	-0.006872063
110	0xbb7e6bbf	-0.0038821546
111	0xbc8769ad	-0.016529882
112	0xbcfd3304	-0.030908115
113	0x3c147cf3	0.009062993
114	0xba7b4a91	-0.00095860014
115	0x3d4b3f62	0.049620993
116	0xbcded13b	-0.027199378
117	0xbbeff58a	-0.0073229717
118	0xbc44f847	-0.012022085
119	0x3b45e17b	0.0030194211
120	0xbc5ca93b	-0.013468082
121	0xbc414401	-0.011795999
122	0xbbdee500	-0.0068022013
123	0xbbffea77	-0.007809933
124	0x3d4b6223	0.049654137
125	0x3bbbd607	0.005732301
126	0xbbdab02f	-0.0066738348
127	0x3d17abc5	0.037029047

sequential_2/sequential/batch_normalization/FusedBatchNormV3 f4 [3]
0	0x3cd4329d	0.02590304
1	0x3ce132c6	0.027490031
2	0x3cca5dd8	0.024702951

sequential_2/sequential/batch_normalization/FusedBatchNormV31 f4 [3]
0	0xbfd9669d	-1.698444
1	0xbfe2c935	-1.7717654
2	0xbfe10cde	-1.7582052

sequential_2/dense/MatMul f4 [128, 768]
0	0x3d1f353a	0.03886912
1	0x3d586a08	0.052835494
2	0x3d399d1f	0.045315858
3	0x3d3057ae	0.043052368
4	0x3d08bb54	0.033381775
5	0xbd1011e5	-0.035173316
6	0xbd36872e	-0.04456251
7	0x3c039811	0.008031861
8	0xbd5c576b	-0.053794306
9	0xbda513f7	-0.080604486
10	0x3ba5d93a	0.005061296
11	0x3d52568c	0.05135207
12	0x3d305686	0.043051265
13	0x3d5dfea0	0.054197907
14	0xbcd19186	-0.025582086
15	0x3c174d54	0.009234745
16	0x3d2bcae0	0.041941524
17	0xbd9a4f7e	-0.07534693
18	0x3d562582	0.052281864
19	0xbd369e20	-0.044584394
20	0x3d4cb7d8	0.049980015
21	0x3d04846f	0.03235286
22	0x3d381a30	0.04494685
23	0xbcc5c221	-0.02414042
24	0xbc043cd9	-0.008071148
25	0xbcbbba9b	-0.022916129
26	0xbd872cfc	-0.06600377
27	0x3d18c596	0.037297808
28	0x3c83944c	0.016061924
29	0xbcc74914	-0.024326839
30	0x3c4c0bb8	0.012453966
31	0xbdaed098	-0.0853588
32	0x3d5386f3	0.05164237
33	0xbd900e77	-0.07034009
34	0xbca2026b	-0.019776544
35	0x3cc1c640	0.023654103
36	0xbda9dd37	-0.082941465
37	0x3ce95242	0.028481606
38	0x3c8642ea	0.016389329
39	0xbd15f7de	-0.036613338
40	0x3d933bf6	0.07189171
41	0xbdba4d32	-0.09096755
42	0xbd85372e	-0.06504665
43	0xbd502667	-0.050817873
44	0x3d29ecf9	0.04148576
45	0x3cf06f00	0.029349804
46	0xbd315a62	-0.043299086
47	0x3d779220	0.06044209
48	0xbdb5c782	-0.08875944
49	0xbbceb2b8	-0.006307926
50	0x3cb365c2	0.021899108
51	0xbc859023	-0.016304081
52	0xbd2e8061	-0.0426029
53	0x3d56a1ed	0.05240052
54	0x3ce5e4b3	0.028063154
55	0xbd7bec55	-0.06150468
56	0xbb45899e	-0.003014184
57	0xbc47203f	-0.012153684
58	0x3d1fe3fb	0.03903578
59	0xbbfbe0df	-0.007686719
60	0xbd137e65	-0.03600921
61	0x3b8c5b3f	0.0042833383
62	0xbdae7a0d	-0.08519373
63	0xbcfdbcd7	-0.030973835
64	0xbd74e44d	-0.059788037
65	0x3cf63c0d	0.030057931
66	0xbdb00371	-0.085944064
67	0xbd1d88d5	-0.03846057
68	0xbda19220	-0.07889199
69	0xbd346697	-0.04404315
70	0xbd46e916	-0.04856213
71	0xbd816ca0	-0.06319547
72	0xbdbab5c7	-0.091167025
73	0x3d366bb6	0.044536315
74	0xbc68ab0d	-0.014200938
75	0x3da5a0fc	0.08087346
76	0x3cbaa650	0.022784382
77	0xbd9808b4	-0.07423535
78	0xbd6411cc	-0.055681035
79	0xbd84275c	-0.0645282
80	0x3d22555a	0.03963218
81	0xbdb2aa21	-0.08723856
82	0x3d063088	0.032761127
83	0xbda17b3f	-0.078848355
84	0x3d48bf26	0.04901042
85	0x3c9189ab	0.01776584
86	0xbd27688e	-0.040871195
87	0x3d1b6393	0.03793676
88	0x3b3e326e	0.0029021758
89	0x3d8ff002	0.070282
90	0x3d86db93	0.06584849
91	0xbda17853	-0.07884278
92	0xbd6e098e	-0.05811458
93	0xbc0f9140	-0.008762658
94	0xbc96d460	-0.018411815
95	0xbdb49d79	-0.08819098
96	0x3d277b72	0.04088921
97	0x3d8036af	0.0626043
98	0xbda8494c	-0.08217105
99	0x3d895721	0.06706072
100	0x3d02e38d	0.03195529
101	0x3ccd38cc	0.025051497
102	0x3bb620b8	0.0055580996
103	0x3d3e9874	0.04653211
104	0x3d8882c8	0.066655695
105	0xbda6e507	-0.08149152
106	0x3ce1e314	0.0275741
107	0x3d6a72fd	0.057238568
108	0x3ab86542	0.0014068263
109	0xbda08420	-0.07837701
110	0xbd8fc671	-0.070202716
111	0x3c8503de	0.016237196
112	0x3d79cf86	0.060988925
113	0xbd3467ad	-0.044044185
114	0xbd0ba073	-0.034088563
115	0xbcc80943	-0.024418479
116	0x3d8d9ad1	0.069142945
117	0xbd499c6a	-0.049221434
118	0xbd6b2b9f	-0.057414647
119	0xbd5dd829	-0.054161225
120	0xbd855804	-0.06510928
121	0xbcda7acb	-0.02666988
122	0x3d45980e	0.048240714
123	0xbc9d88ad	-0.019230211
124	0x3d29c2ea	0.04144565
125	0x3d6ea9bc	0.05826734
126	0xbdac6c4c	-0.084190935
127	0xbc5a8e7e	-0.013339637
128	0xbdabafb8	-0.08383125
129	0x3bfb82f9	0.0076755253
130	0x3a9d8d55	0.001202027
131	0x3d7282aa	0.059206642
132	0x3d802a9c	0.06258127
133	0x3ba0e611	0.0049102386
134	0x3c51f571	0.012814865
135	0xbd81bd36	-0.06334917
136	0xbdaeaaa7	-0.08528643
137	0xbdb13e63	-0.086544774
138	0x3d6330e4	0.055466548
139	0x3cbeb2ec	0.023278676
140	0x3d436804	0.04770662
141	0xbd75bf02	-0.059996612
142	0xbb495100	-0.0030718446
143	0x3d1a14d3	0.037617516
144	0x3d32d8e8	0.04366389
145	0x3d67f950	0.056634247
146	0xbd37bd38	-0.044858187
147	0x3c86df94	0.016464032
148	0xbcc248d9	-0.023716377
149	0xbdb3d448	-0.08780724
150	0xbd8d3c71	-0.06896294
151	0xbd663ee8	-0.056212336
152	0xbcf31156	-0.029671352
153	0xbbc8bab2	-0.0061257714
154	0xbd839f7f	-0.06426906
155	0xbd4e3468	-0.050342947
156	0x3d7e0eec	0.06202595
157	0xba5a6380	-0.00083308667
158	0x3da6cf72	0.08145036
159	0x3d8062b4	0.06268826
160	0x3d32ba1c	0.04363452
161	0xbdbd1b16	-0.09233682
162	0x3d2d36f7	0.042288747
163	0x3d6b02af	0.057375606
164	0xbd062fc5	-0.0327604
165	0xbd5487a5	-0.051887173
166	0xbb85881c	-0.0040750634
167	0xbc0a6de0	-0.008449048
168	0xbd9b7c34	-0.07592049
169	0xbb0f81c7	-0.0021897422
170	0xbd949239	-0.07254452
171	0x3d66f8d3	0.05638964
172	0xbd76b1ac	-0.060228035
173	0xbb8bdf51	-0.0042685647
174	0x3ca8fbd1	0.020627888
175	0xbd03ebe0	-0.03220737
176	0xbda41d42	-0.08013393
177	0x3d3962fc	0.045260414
178	0xbc9c76e3	-0.019099658
179	0x3d283e43	0.041075002
180	0xbcccf075	-0.025017003
181	0xbd866a46	-0.06563239
182	0xbb7a4e1a	-0.0038193525
183	0x3d87f1a3	0.066378854
184	0x3a37cd69	0.00070115045
185	0xbd5ab31b	-0.053393465
186	0xbdb488a9	-0.08815128
187	0x3d2626d0	0.04056436
188	0xbd2453d2	-0.040119
189	0x3d2ae8b4	0.04172583
190	0x3c91dad7	0.017804546
191	0x3d10ba12	0.0353337
192	0x3d90b8cc	0.07066497
193	0xbcab5da6	-0.020918678
194	0xbd7611c3	-0.060075533
195	0x3d0a950e	0.033833556
196	0x3d6990dc	0.057022914
197	0x3cfafaf9	0.030637251
198	0xbd0a027d	-0.03369378
199	0x3cd2a783	0.025714641
200	0x3d65462e	0.05597513
201	0xbd373d37	-0.044736113
202	0xbd02ea8f	-0.031961974
203	0x3c943178	0.018089995
204	0xbd867344	-0.06564954
205	0xbc288228	-0.010284938
206	0xbd110807	-0.035408046
207	0x3d38fbac	0.045161888
208	0x3d20f7c4	0.039298788
209	0xbd2c8881	-0.042122368
210	0xbd196beb	-0.037456434
211	0xbd8b5324	-0.06802967
212	0xbd9f408e	-0.07775985
213	0xbcd753df	-0.02628511
214	0xbb903560	-0.004400894
215	0xbd084516	-0.03326901
216	0xbcb708c6	-0.02234305
217	0x3c8ebe96	0.017424863
218	0xbd0177a6	-0.031608246
219	0xbd55d6ab	-0.052206676
220	0xbd9a7b6c	-0.07543072
221	0xbbb1ec60	-0.0054297894
222	0xbccca88c	-0.024982713
223	0xbd390caa	-0.045178093
224	0xbc6f0bd0	-0.014590219
225	0x3bcf08af	0.006318174
226	0x3c3407ff	0.010988235
227	0xbb9406f3	-0.00451743
228	0x3d4ba3b9	0.049716685
229	0x3d698e52	0.057020493
230	0xbd2b12f0	-0.041766107
231	0x3d1e9edd	0.038725723
232	0xbd1ec183	-0.038758766
233	0xbd7440d3	-0.059632134
234	0xbb760540	-0.003753975
235	0x3c81b6e7	0.015834285
236	0x3c7e87ed	0.015535337
237	0x3c507e19	0.0127253765
238	0x3c3b10c4	0.011417571
239	0x3c211da8	0.009833731
240	0x3d134b50	0.035960495
241	0xbd72b9f5	-0.059259374
242	0xbccbc8a3	-0.024875944
243	0xbd613aa5	-0.05498757
244	0x3d72d1a8	0.059281975
245	0xbda8a215	-0.0823404
246	0xbd86aa05	-0.065753974
247	0xb94ba431	-0.00019420755
248	0xbca6cd2d	-0.020361507
249	0x3d6c5533	0.05769844
250	0xbd766fed	-0.060165334
251	0xbc050702	-0.008119347
252	0xbca7b0fa	-0.020470131
253	0xbd652e48	-0.05595234
254	0x3c2d6857	0.010583959
255	0xbc906f8b	-0.017631313

sequential_2/dense_1/MatMul f4 [61, 128]
0	0x3e2ebffd	0.17065425
1	0xbd0be660	-0.03415525
2	0xbda99233	-0.082798384
3	0xbe2c9081	-0.16851999
4	0xbd80ebe1	-0.0629499
5	0x3d88fc75	0.06688777
6	0x3db3e16a	0.08783229
7	0x3dd5c24d	0.104374506
8	0x3c7a73bc	0.015286382
9	0x3df983bd	0.1218333
10	0x3c23596a	0.009970048
11	0xbe037888	-0.12838948
12	0xbdb8d4c8	-0.0902496
13	0x3d374f48	0.044753343
14	0xbf0362bb	-0.51322526
15	0xbe397773	-0.18111973
16	0x3cce8858	0.025211498
17	0x3e13dd0a	0.14439788
18	0x3cbb779e	0.022884186
19	0x3c8ff15e	0.017571148
20	0xbe29ee05	-0.16594703
21	0x3e2da5d1	0.16957785
22	0xbd619119	-0.055070017
23	0x3cd08c52	0.025457535
24	0xbe19e0c4	-0.15027148
25	0xbd81b568	-0.063334286
26	0xbbd45b0b	-0.0064805797
27	0x3e10bdf0	0.14134955
28	0xbe4100c9	-0.18847956
29	0x3d84d5e5	0.0648611
30	0xbdc0988e	-0.094040975
31	0xbe3044cb	-0.17213742
32	0x3d12ab50	0.035807908
33	0xbd8c5866	-0.06852798
34	0xbc9eb258	-0.01937215
35	0xbd837dbb	-0.064204656
36	0xbe218b3c	-0.1577577
37	0x3db4151d	0.087930895
38	0xbd8a9a0b	-0.067676626
39	0x3e028af5	0.1274832
40	0x3e0da6f4	0.13833219
41	0xbe2ff181	-0.1718197
42	0xbaa6a780	-0.0012714714
43	0x3ba2df2e	0.0049704527
44	0x3e456a16	0.1927875
45	0xbd1b947f	-0.037983414
46	0xbdc4449d	-0.095833994
47	0xbd5b9b5d	-0.053614963
48	0xbe199730	-0.1499908
49	0x3d80c480	0.062874794
50	0xbd8cc26c	-0.068730205
51	0x3dd825cb	0.105540834
52	0xbeb08d40	-0.34482765
53	0xbceed1eb	-0.029152831
54	0x3cb4cafb	0.022069445
55	0x3ddaeb35	0.106893934
56	0xbddaf4d9	-0.10691232
57	0x3e2c92fd	0.16852947
58	0xbdabc34a	-0.08386858
59	0xbe4e7f90	-0.20165849
60	0x3c98744a	0.018610138
61	0x3d084ec4	0.03327824
62	0xbd07dd34	-0.03316994
63	0x3db78580	0.0896101
64	0xbdce604c	-0.10076961
65	0xbe14d5a0	-0.14534616
66	0xbe9baca1	-0.30405143
67	0xbe63be69	-0.22240604
68	0x3d2ea50f	0.04263788
69	0x3e43159a	0.19051209
70	0x3c4a6cdb	0.012355055
71	0xbd1263b9	-0.035739634
72	0xbba61b9b	-0.005069209
73	0xbe927f2c	-0.2861265
74	0x3da153e8	0.07877332
75	0xbdd2fb1f	-0.10301804
76	0x3e458e60	0.19292593
77	0x3e2fc9be	0.17166802
78	0x3dbc2aa9	0.09187824
79	0xbe5182c3	-0.20460038
80	0x3df716c6	0.120648906
81	0xbdef2784	-0.11677459
82	0x3c53c6f4	0.012925852
83	0x3cf7e87b	0.030262223
84	0x3e2dde6d	0.1697938
85	0xbf0a0da1	-0.53927046
86	0x3db01022	0.08596827
87	0xbe06b715	-0.13155778
88	0xbe8bfdf3	-0.27342185
89	0x3df10059	0.117676444
90	0x3c21118d	0.009830845
91	0xbdf5006d	-0.11962972
92	0xbe0a07ec	-0.13479584
93	0x3dd5deff	0.10442924
94	0xbe0a220f	-0.13489555
95	0xbdda067c	-0.10645768
96	0xbe371d5e	-0.17882296
97	0x3e04392d	0.12912436
98	0xbe1061d5	-0.1409982
99	0xbe71e59c	-0.23622745
100	0x3e1a7dd2	0.15087059
101	0xbdcec006	-0.10095219
102	0xbceab33e	-0.028649922
103	0x3c6863df	0.014183967
104	0xbc835d02	-0.01603556
105	0xbdaecc9d	-0.08535121
106	0x3d3e30d3	0.04643328
107	0xbeabf6c9	-0.3358672
108	0xbd744ff3	-0.059646558
109	0xbc765f35	-0.015037348
110	0xbe26799d	-0.1625733
111	0xbd17cbeb	-0.037059706
112	0xbe55cd2f	-0.20879053
113	0x3e74245c	0.23841995
114	0xbc8a40ab	-0.01687654
115	0xbda7fe53	-0.08202805
116	0x3d094043	0.03350855
117	0x3d04e7cf	0.032447632
118	0x3daf6b5a	0.085653976
119	0x3d4040de	0.046936862
120	0x3ce2d7c7	0.027690781
121	0x3d9c5bf4	0.07634726
122	0x3dd20450	0.10254729
123	0xbd437758	-0.047721237
124	0xbe89302f	-0.26794574
125	0x3d4b70af	0.04966801
126	0x3e2c92b9	0.16852845
127	0xbe975eec	-0.29564607
128	0x3c14c004	0.009078983
129	0xbe050352	-0.12989548
130	0x3e0a2eae	0.1349437
131	0x3e158a78	0.14603603
132	0xbe4f1ccd	-0.2022583
133	0xbca2fae5	-0.019895026
134	0x3d7feb7f	0.062480446
135	0xbd187957	-0.037225094
136	0x3dd9afdc	0.10629246
137	0xbc28043b	-0.010254915
138	0x3c139c97	0.009009502
139	0x3d7deed0	0.061995327
140	0x3e17fd90	0.1484282
141	0xbd0b3f9b	-0.033996206
142	0xbdb6bb9a	-0.08922501
143	0x3df8f004	0.12155154
144	0xbcee0579	-0.029055344
145	0xba8f275a	-0.0010921762
146	0x3dc18d1e	0.09450744
147	0xbe1141ec	-0.14185303
148	0xbdbcf640	-0.09226656
149	0x3ddfe272	0.10931863
150	0xbd5c77ad	-0.05382507
151	0xbc1ea887	-0.009683735
152	0xbd9e54d9	-0.07731027
153	0xbcaefaf7	-0.021359904
154	0x3dadc7a8	0.08485347
155	0x3d37a872	0.044838376
156	0x3d99afed	0.07504258
157	0xbe193a92	-0.14963749
158	0x3d56dd70	0.052457273
159	0xbe47ec2d	-0.19523688
160	0xbd6b1bc4	-0.057399526
161	0xbe0eef21	-0.13958408
162	0x3ca01e0c	0.019545577
163	0x3d9f0ed4	0.077665
164	0xbd5bea60	-0.053690314
165	0x3d66cf14	0.05634983
166	0xbdc444f1	-0.09583462
167	0x3d2742be	0.040835135
168	0x3dc456e0	0.095868826
169	0xbc57df65	-0.01317582
170	0xbea57e0f	-0.32322738
171	0xbd9f6eea	-0.07784827
172	0xbe7b96f5	-0.24569304
173	0x3d0a3695	0.03374346
174	0xbcef3030	-0.029197782
175	0x3e2ddf46	0.16979703
176	0xbd994ba3	-0.0748513
177	0xbd7fe636	-0.062475406
178	0xbe374ae7	-0.17899667
179	0xbe832fb8	-0.25622344
180	0xbe1e9922	-0.15488103
181	0xbd3f775d	-0.046744693
182	0xbd75c875	-0.060005624
183	0x3e2645f2	0.1623762
184	0x3d98dde8	0.074642
185	0xbd95f773	-0.07322588
186	0x3e22b2c6	0.15888509
187	0x3daf5f24	0.085630685
188	0xbe910189	-0.28321484
189	0xbd981c24	-0.074272424
190	0x3d8ec4f0	0.069711566
191	0xbce783af	-0.028261034
192	0xbd91cbda	-0.0711896
193	0xbdec9b9c	-0.11553118
194	0x3ddb5a6d	0.10710607
195	0x3cb226c8	0.021747008
196	0x3de6f308	0.11276823
197	0x3de50ad1	0.11183704
198	0x3cd95e9e	0.026534375
199	0xbad8399f	-0.0016496665
200	0xbe323113	-0.17401533
201	0x3d818fc6	0.06326251
202	0x3d05f946	0.03270843
203	0xbd9876b2	-0.07444514
204	0x3ddca555	0.10773722
205	0xbe2562a6	-0.16150913
206	0x3e1caede	0.15301082
207	0xbe506932	-0.20352629
208	0x3dcc2753	0.09968438
209	0xbb608af9	-0.0034262522
210	0xbe280c95	-0.1641105
211	0xbd45c9f7	-0.04828831
212	0xbe4d0a58	-0.20023477
213	0x3d2dab1c	0.04239951
214	0x3cfe82ef	0.031068293
215	0x3da802dc	0.082036704
216	0x3e347930	0.17624354
217	0x3d8819e6	0.06645565
218	0xbe0092df	-0.12556027
219	0x3e53d143	0.20685296
220	0xbdb9be6c	-0.09069523
221	0xbe37411f	-0.17895935
222	0x3d4f045b	0.050541263
223	0xbd7e095a	-0.062020637
224	0x3dd5db20	0.104421854
225	0xbd6fc489	-0.05853704
226	0x3dc38c2a	0.095482185
227	0x3d8cb56c	0.06870541
228	0x3d58f13d	0.052964438
229	0x3d2fae3a	0.042890765
230	0x3e053566	0.13008651
231	0xbc62a123	-0.013832363
232	0x3d67cbf7	0.056591
233	0xbc9068fd	-0.017628187
234	0xbd9eae2e	-0.07748066
235	0xbcbf6e5a	-0.02336805
236	0x3d35259a	0.044225313
237	0xbe022a33	-0.1271141
238	0x3d1e9e4e	0.03872519
239	0xbd97d2ff	-0.07413291
240	0x3e412c0c	0.18864459
241	0xbe2613ac	-0.16218442
242	0x3e11eba2	0.14250043
243	0xbe1b0ab7	-0.15140806
244	0x3cd8bda1	0.02645761
245	0x3d5a2095	0.05325373
246	0xbe37b45b	-0.17939894
247	0xbe7c08ab	-0.24612682
248	0xbe1df837	-0.15426718
249	0x3e11e2fb	0.14246742
250	0x3d605668	0.054769903
251	0xbacd2ced	-0.0015653648
252	0xbe7b075e	-0.24514529
253	0xbd9fa9d8	-0.07796067
254	0x3c2e0d68	0.0106233135
255	0x3e1f111f	0.15533875
