model.tflite (tflite, 524292 bytes, 12 tensors)

sequential_2/conv2d/Relu;sequential_2/conv2d/BiasAdd;sequential_2/conv2d/Conv2D;sequential_2/conv2d/BiasAdd/ReadVariableOp f4 [16, 3, 3, 3]
0	0xbae4ca64	-0.0017455337
1	0xbaac9766	-0.0013167679
2	0xba2c0972	-0.0006562687
3	0xbac7fc8c	-0.001525776
4	0xba2327e5	-0.00062239013
5	0xba4f42c8	-0.00079063745
6	0xbaaa47d6	-0.001299138
7	0xba2c5563	-0.0006574003
8	0xba87e4aa	-0.001036783
9	0xbac06b32	-0.0014680384
10	0x39100e83	0.00013738316
11	0xb9dcdc22	-0.00042125682
12	0xba8ce44f	-0.0010749194
13	0xba963420	-0.0011459626
14	0x37c7a86c	2.3801076e-05
15	0xbaee86a8	-0.001819809
16	0xba951dd3	-0.0011376686
17	0xbaaac301	-0.0013028086
18	0xbb019f99	-0.0019778966
19	0xbaa9371e	-0.0012910103
20	0xba88ff38	-0.0010452038
21	0xbaeb47a9	-0.0017950434
22	0xb9e17984	-0.0004300588
23	0xba95224b	-0.0011378018
24	0xbaafb13b	-0.0013404259
25	0xba7980dc	-0.0009517798
26	0xba7337a1	-0.00092780037
27	0xba82a220	-0.000996653
28	0x39e2c7f7	0.00043255065
29	0xb9e9f44f	-0.00044623247
30	0xba0ab132	-0.00052906864
31	0x39a7efbf	0.00032031347
32	0xba265871	-0.0006345576
33	0xba289c5d	-0.00064319914
34	0x390662e3	0.00012816074
35	0xba4accd5	-0.0007736211
36	0xba790577	-0.00094994105
37	0xba55004c	-0.00081253494
38	0xb9f99d20	-0.00047610048
39	0xba66dfb5	-0.00088071387
40	0x399d27f6	0.00029975147
41	0xba24a01b	-0.0006279961
42	0xbaaf2946	-0.0013363741
43	0xba511f84	-0.00079774135
44	0xb9f6af63	-0.0004705145
45	0xba5422cd	-0.0008092344
46	0xb95ae5ce	-0.00020875709
47	0xba0bc185	-0.0005331266
48	0xb9c6a3a7	-0.00037887433
49	0xb869d98e	-5.5754143e-05
50	0xbaa183f0	-0.0012322646
51	0xb9b9226b	-0.00035311593
52	0xba361e3e	-0.00069472555
53	0xba724913	-0.0009242456
54	0xbb0643ce	-0.0020487192
55	0xba8d2fc0	-0.0010771677
56	0xba7dbcdc	-0.00096793263
57	0xbaac3edd	-0.0013141293
58	0xb88835a7	-6.494979e-05
59	0xb9a847c7	-0.00032096935
60	0xbaf7e886	-0.0018913902
61	0xba0d1e97	-0.00053832814
62	0xba5a7ee7	-0.000833495
63	0xbb0b9afe	-0.00213021
64	0xba2cc9e6	-0.00065913645
65	0xb9eb5072	-0.0004488263
66	0xbad30ac4	-0.0016101231
67	0xb982e69c	-0.0002496735
68	0xba25dbc4	-0.0006326998
69	0xbb09aa3e	-0.0021006013
70	0xba984c62	-0.0011619444
71	0xbabb162f	-0.0014273579
72	0xbaeadb08	-0.001791806
73	0xb9c87323	-0.00038232756
74	0xbaa48843	-0.0012552816
75	0xbadb2365	-0.0016718922
76	0xb9f2de58	-0.00046323496
77	0xba72fb35	-0.0009269
78	0xbad0fc01	-0.0015944244
79	0xba9c863a	-0.0011941858
80	0xbabb4439	-0.00142873
81	0x3af91284	0.001900271
82	0x3abc2085	0.0014352953
83	0x3aae58e2	0.0013301636
84	0x3ad70f2e	0.0016407722
85	0x3a8f93e2	0.0010954107
86	0x3aa437ac	0.0012528799
87	0x3aaba791	0.0013096203
88	0x3aee5e74	0.0018186108
89	0x3931f3d2	0.00016970866
90	0x3aedb2c9	0.0018134947
91	0x3ad6b49c	0.001638073
92	0x3aab5dbd	0.0013074201
93	0x3afafbed	0.0019148566
94	0x3a9fc278	0.0012188694
95	0x3a15468e	0.00056944124
96	0x3acf4ba9	0.0015815395
97	0x3acd55e4	0.0015665856
98	0x39ac4489	0.0003285746
99	0x3ac5eed4	0.0015101084
100	0x3a961bb0	0.0011452343
101	0x39a0f76b	0.0003070192
102	0x3b02bb09	0.0019947907
103	0x3abf4c11	0.0014594813
104	0x3ab98b4f	0.0014155897
105	0x3a783689	0.00094685756
106	0x3a4dce92	0.0007850911
107	0x3ac16b96	0.0014756795
108	0xba55a485	-0.00081498205
109	0xb931895c	-0.00016931206
110	0xb8f29cfc	-0.000115687
111	0xb9dc5013	-0.0004202133
112	0x395d5b72	0.00021110268
113	0xb9fc1e5f	-0.00048087814
114	0xba1d992b	-0.00060118985
115	0xb9a3abb8	-0.00031217723
116	0xba5d2972	-0.0008436657
117	0xbabbe688	-0.0014335671
118	0x39ae1cd8	0.00033209356
119	0xba9ab73c	-0.0011803876
120	0xbaac2b16	-0.0013135399
121	0x385c419e	5.2513198e-05
122	0xbaa79eff	-0.0012788473
123	0xba5d2d99	-0.00084372755
124	0x39f439f0	0.00046582473
125	0xb98de3b2	-0.00027063262
126	0xb9b8f877	-0.00035280336
127	0xb965e48c	-0.00021924282
128	0xba9630d8	-0.0011458648
129	0xba4f99fd	-0.00079193694
130	0x39a535e4	0.00031511404
131	0xba5a2e75	-0.00083229627
132	0xbacf11fc	-0.0015798206
133	0xba10d206	-0.000552446
134	0xba7f9c9d	-0.0009750815
135	0xbb0ad39a	-0.0021183253
136	0xba67f252	-0.0008848059
137	0xba8aca26	-0.0010588809
138	0xbb08f838	-0.0020899903
139	0xba72022a	-0.000923189
140	0xba840e87	-0.001007513
141	0xbb0801ef	-0.0020753106
142	0xb9e6644b	-0.00043943743
143	0xba94bc93	-0.0011347703
144	0xbaf59f46	-0.0018739484
145	0xba3fb66b	-0.0007313254
146	0xbab4008d	-0.0013733074
147	0xbb0c0975	-0.0021367942
148	0xb7876a19	-1.614266e-05
149	0xbaa440aa	-0.0012531478
150	0xbb18d154	-0.0023318129
151	0xba720f95	-0.0009233889
152	0xba7cef43	-0.000964869
153	0xbb168319	-0.0022966324
154	0xba8b0da3	-0.0010608922
155	0xb9de251d	-0.0004237079
156	0xbabe6af4	-0.0014527724
157	0xb94d3e4e	-0.00019573534
158	0xba7ad5b6	-0.00095685886
159	0xbb07657b	-0.0020659852
160	0xbab955d6	-0.0014139961
161	0xbac1d05c	-0.0014786827
162	0x3a0fab5f	0.00054805534
163	0x399399d4	0.00028152636
164	0x3993083e	0.00028044166
165	0x3a84c990	0.0010130871
166	0x3a848036	0.0010109011
167	0x3a95376c	0.0011384315
168	0x3a572dee	0.0008208443
169	0x3a9bcea7	0.0011887149
170	0x3a06bf65	0.00051402143
171	0x3a5f1c0e	0.00085109554
172	0x3aa60b08	0.0012668082
173	0x3a53fa03	0.0008086266
174	0x3a90cfd7	0.0011048269
175	0x39731ba6	0.00023184586
176	0x3a897393	0.0010486714
177	0x3ac34eea	0.0014900838
178	0x3a825e63	0.0009946342
179	0xb8c9c9cd	-9.622015e-05
180	0x3ae6f6fd	0.0017621216
181	0x3a94bd16	0.0011347856
182	0xb829dddb	-4.049936e-05
183	0x39fbd0ea	0.00048030104
184	0x3a7ba9cb	0.0009600191
185	0x3a714eae	0.00092051446
186	0x3a434437	0.00074488245
187	0x3aa0b9e6	0.0012262433
188	0x3a9635fd	0.0011460182
189	0x3a24092a	0.0006257469
190	0x3aaf9ba9	0.0013397831
191	0x3ac97944	0.0015371223
192	0x3a538c80	0.00080699474
193	0x3a79c97b	0.0009528619
194	0x3aa4115d	0.0012517382
195	0x3a532a24	0.00080552907
196	0x3a9a8e1c	0.001179162
197	0x3a9995d0	0.0011717621
198	0x3a9a87b8	0.0011789715
199	0x39e9d606	0.00044600683
200	0x3aa19e05	0.0012330419
201	0x3ab0efd5	0.001349921
202	0x3a4a3867	0.0007714093
203	0x3abb5dfb	0.0014294976
204	0x3a5a3950	0.000832458
205	0x3ac3a1b9	0.0014925516
206	0x3aba9f3b	0.0014238128
207	0x3ab63fae	0.0013904476
208	0x3ab0ed8a	0.0013498527
209	0x3a7622b7	0.0009389328
210	0x3a88c888	0.001043574
211	0x3a8221b1	0.0009928254
212	0x3a94c490	0.0011350084
213	0x3a995b46	0.0011700175
214	0x3a87eb07	0.0010369726
215	0x3a830132	0.0009994863
216	0x3a275cd4	0.0006384377
217	0x39869e5c	0.0002567646
218	0x398c8981	0.0002680533
219	0x3a8c4632	0.0010702072
220	0x3a99fecd	0.001174891
221	0xba4a857a	-0.0007725578
222	0x3a8f151e	0.0010916328
223	0x3905fc2f	0.00012777814
224	0xb92f318c	-0.00016707758
225	0x3a73683e	0.00092852477
226	0x3a5a0ea4	0.00083182217
227	0xba484395	-0.0007639465
228	0x3a9bdb01	0.001189083
229	0x3a2faf09	0.00067018025
230	0xb7c84b56	-2.3876939e-05
231	0x3a8621a3	0.0010233413
232	0x3a9335cf	0.0011231246
233	0x3a0b8012	0.0005321513
234	0x3a81eb89	0.0009912114
235	0x3a8ab154	0.0010581412
236	0x388a961e	6.608314e-05
237	0x3aa0c047	0.0012264334
238	0x3a1cc537	0.0005980315
239	0x37e9681f	2.782425e-05
240	0x3a894426	0.001047258
241	0x3a325e76	0.0006804237
242	0x3970d5fa	0.00022967896
243	0xba860589	-0.0010225038
244	0xba105c8a	-0.00055069535
245	0x3909510f	0.00013095535
246	0xba840812	-0.0010073206
247	0xb9aa6b05	-0.00032504663
248	0xb9b0921d	-0.000336782
249	0xba8cd776	-0.0010745365
250	0x3944d28a	0.00018770449
251	0xbabf7ed8	-0.0014609946
252	0xb9f26872	-0.00046235655
253	0xba49121b	-0.00076702394
254	0xba2f5859	-0.0006688885
255	0xbaadfee3	-0.0013274815

sequential_2/conv2d/BiasAdd/ReadVariableOp f4 [16]
0	0x3d072067	0.032989886
1	0x3d547825	0.05187239
2	0x3d015fba	0.031585433
3	0x3d1ae221	0.03781331
4	0x3d2c555b	0.04207359
5	0x3d207545	0.039174337
6	0x3ccdbea9	0.025115328
7	0x3cc59ecb	0.02412357
8	0x3d9597e0	0.073043585
9	0x3d1dc439	0.03851721
10	0xbc3ca9e5	-0.011515115
11	0x3ccb380e	0.024807002
12	0x3cfe80ee	0.031067338
13	0x3cd246ab	0.025668463
14	0x3d11f582	0.035634525
15	0x3d8e10d3	0.06936803

sequential_2/conv2d_1/BiasAdd/ReadVariableOp f4 [32]
0	0xbbbeeda1	-0.0058266674
1	0x3d11c80c	0.03559117
2	0x3d3e6365	0.04648151
3	0xbc5ce428	-0.013482131
4	0x3d24a75b	0.040198665
5	0x3d501db7	0.05080959
6	0x3d425e9b	0.047453504
7	0xbc29f3db	-0.010373081
8	0x3d502c06	0.050823234
9	0x3d5c8e6d	0.053846765
10	0x3d5ee5d5	0.054418404
11	0x3d2ae206	0.04171946
12	0x3d24a25d	0.040193904
13	0x3d8146a2	0.063123
14	0x3d72578d	0.059165526
15	0xbca1fdc5	-0.019774327
16	0x3d33f4aa	0.0439345
17	0x3d3c682e	0.04599779
18	0x3d1874ce	0.03722077
19	0xbbd4841c	-0.006485475
20	0x3d1520d7	0.03640827
21	0x3d462f6e	0.048385076
22	0xbc370ec8	-0.011172958
23	0x3d47c1a9	0.048768673
24	0xbc05f99b	-0.008177186
25	0x3d2a2328	0.041537434
26	0xbc4f5b28	-0.012656011
27	0xbbcf0779	-0.0063180295
28	0x3d26c2a7	0.04071298
29	0x3d5d781b	0.05406962
30	0x3d3ea6c4	0.04654576
31	0x3d2c4006	0.042053245

sequential_2/conv2d_2/BiasAdd/ReadVariableOp f4 [64]
0	0xbc320851	-0.010866241
1	0xbbfb8d8f	-0.007676787
2	0xbbaa2453	-0.0051923185
3	0x3ca03661	0.01955718
4	0x3ba139df	0.004920229
5	0xbc3ee285	-0.011650686
6	0xbd1f1a22	-0.03884328
7	0xbc9234fe	-0.017847534
8	0x3dddcec4	0.10830453
9	0xbbefa2f4	-0.0073131267
10	0x3a5aa6aa	0.0008340875
11	0xbbd58fb6	-0.006517376
12	0x3d8ac525	0.067758836
13	0xbc884583	-0.016634708
14	0xbbbd12a9	-0.0057700467
15	0xbcd62b70	-0.02614376
16	0xbd7bea3e	-0.061502688
17	0xbbe96808	-0.007122997
18	0xbb2a3e3d	-0.0025977038
19	0x3c1c7157	0.009548507
20	0xb9ada36d	-0.00033118893
21	0x3c0e60ed	0.008690101
22	0x3d53af4f	0.05168086
23	0x3d7fb7af	0.062431034
24	0x3c4b5e5b	0.012412633
25	0xbd81fdc9	-0.06347234
26	0xbcb8c5d9	-0.022555279
27	0xbc877667	-0.01653595
28	0x3be69152	0.0070363665
29	0x3d8aba31	0.067737944
30	0xbbc378f0	-0.0059653446
31	0xbbe82572	-0.007084542
32	0xbd427f0b	-0.04748444
33	0x3be4b3c4	0.0069794375
34	0x3ca3c1f1	0.01998994
35	0x3c2a581f	0.010396986
36	0x3cacc1c9	0.021088498
37	0x3d0989db	0.033578735
38	0xbda49b54	-0.08037439
39	0x3b4b6792	0.0031037075
40	0xbc35c196	-0.011093518
41	0xbae3c05c	-0.0017376053
42	0x3bcb76cf	0.0062092314
43	0x3c528262	0.0128484685
44	0xbc0b9948	-0.008520432
45	0xbb85edb5	-0.004087175
46	0xbbc542d7	-0.006019931
47	0xbbd250be	-0.0064183166
48	0x3bc085aa	0.005875309
49	0x3c6323ff	0.013863563
50	0x3ba8110b	0.005128985
51	0xbc49d864	-0.012319658
52	0x3d2c34a6	0.042042397
53	0xbc2c11e3	-0.010502311
54	0x3cb28861	0.021793546
55	0xbbcb9eee	-0.0062140143
56	0x3ceae2a1	0.028672518
57	0x3c0c2a3d	0.008554992
58	0x3ca2c927	0.019871308
59	0xbbbd9a6a	-0.00578623
60	0xbbe40ab1	-0.0069592823
61	0xbd8b8c78	-0.06813902
62	0x3c6aadfc	0.014323708
63	0x3ad1ee6e	0.0016016492

sequential_2/conv2d_1/Conv2D f4 [32, 3, 3, 16]
0	0x3d2260d6	0.03964313
1	0xbde49551	-0.11161292
2	0x3cd47950	0.025936753
3	0x3dce56bc	0.10075137
4	0x3d630744	0.05542685
5	0x3dbd6ffd	0.09249876
6	0xbdd61231	-0.104526885
7	0xbd33112d	-0.043717552
8	0xbd114681	-0.03546763
9	0xbdbe3c99	-0.09288902
10	0xbd8dcc66	-0.069237515
11	0xbc219adf	-0.009863584
12	0x3d0937cc	0.033500478
13	0xbddb3662	-0.10703732
14	0x3d4df65a	0.050283767
15	0xbd1a8b21	-0.03773034
16	0x3d1800e3	0.03711022
17	0x3d6ae3a0	0.057345986
18	0x3d1d8b18	0.03846273
19	0xbd03ce79	-0.03217933
20	0x3bd32f24	0.0064448286
21	0x3da4d01d	0.08047507
22	0xbcc28543	-0.023745185
23	0x3dd33a59	0.10313863
24	0x3dcdb3d8	0.10044068
25	0x3d067088	0.032822162
26	0xbd8eb890	-0.06968796
27	0x3d2c9b85	0.042140502
28	0xbcd08b76	-0.025457125
29	0x3c8ae1d5	0.016953388
30	0x3d9967cf	0.07490503
31	0x3d439d13	0.04775722
32	0x3d7afc11	0.061275546
33	0x3db0d012	0.08633436
34	0xbd9e948d	-0.077431776
35	0x3bb79bd3	0.0056032925
36	0xbd52e71d	-0.051489938
37	0xbdb54c27	-0.088524155
38	0x3d43b7eb	0.04778282
39	0x3d6e6cf2	0.058209367
40	0xbcaee7a7	-0.021350695
41	0xbd8d7fef	-0.06909167
42	0xbd383dec	-0.04498093
43	0x3cba4397	0.022737307
44	0xbad10bfb	-0.0015949005
45	0xbd8aa850	-0.06770384
46	0x3c3bf796	0.011472603
47	0xbd1055ec	-0.03523819
48	0xbd74cb32	-0.059764095
49	0x3b72f6fd	0.0037073486
50	0x3dcecd2a	0.10097726
51	0xbc9aa77f	-0.018878696
52	0xbd8e681e	-0.069534525
53	0xbd5e4932	-0.054269023
54	0xbc78a39d	-0.015175727
55	0xbd9a3433	-0.075294875
56	0xbd8a12d6	-0.06741874
57	0xbda362ae	-0.07977806
58	0xbcfe63c5	-0.031053433
59	0xbcb01eaa	-0.021498997
60	0x3d097896	0.033562265
61	0x3d9b0d1d	0.075708605
62	0xbbed2924	-0.0072375704
63	0xbd145949	-0.03621796
64	0x3c56dc38	0.013114028
65	0xbdf711c9	-0.12063939
66	0xbdc36427	-0.09540587
67	0x3b880b21	0.0041517173
68	0xbdeafd6b	-0.11474117
69	0x3d2ecbbf	0.042674776
70	0xbcf2bdc8	-0.02963151
71	0xbd95b569	-0.07309992
72	0xbcd44922	-0.025913779
73	0xbc1f5d3f	-0.009726821
74	0xbdc3507a	-0.09536834
75	0xbdf64349	-0.120245524
76	0xbd81453c	-0.063120335
77	0x3d51eea7	0.051252987
78	0xbcdf0d01	-0.02722788
79	0x3d9ad361	0.075598486
80	0xbda21e3f	-0.07915925
81	0xbddba44b	-0.10724696
82	0x3d53423a	0.05157683
83	0xbdde9e49	-0.10870034
84	0x3c581763	0.01318917
85	0xbcfce1b2	-0.030869339
86	0xbd746deb	-0.05967514
87	0xbd2f00b6	-0.042725287
88	0xbdf4e869	-0.11958391
89	0x3d9c81b9	0.0764193
90	0xbbcce7c7	-0.006253216
91	0xbdbbd1f5	-0.091709055
92	0xbd77c545	-0.060490865
93	0x3d52d5a7	0.051473286
94	0xbde7f8ae	-0.11326729
95	0xbdf693cf	-0.12039911
96	0xbc1bd6c5	-0.009511654
97	0x3d0f28a8	0.034950882
98	0xbca9edb3	-0.020743227
99	0x3de43751	0.11143363
100	0xbd922802	-0.07136537
101	0xbd4906c4	-0.049078718
102	0xbda6dd91	-0.08147729
103	0xbbbc49e4	-0.005746113
104	0xbd7bffd7	-0.061523285
105	0xbc28740a	-0.010281572
106	0x3d459240	0.048235178
107	0x3d2f7842	0.042839296
108	0xbc754539	-0.014970117
109	0xbdd153ed	-0.10221086
110	0x3d9e4bdc	0.07729313
111	0xbd750665	-0.05982055
112	0x3d701fae	0.058623962
113	0xbd216537	-0.039403167
114	0xbd9b97ac	-0.075972885
115	0x3d8c806a	0.068604305
116	0x3d9e63b4	0.077338606
117	0x3c213a45	0.009840553
118	0xbdf2615f	-0.11834978
119	0x3ca78ca7	0.02045281
120	0x3d3cea1b	0.046121698
121	0x3d583a9e	0.052790277
122	0x3db79ffb	0.08966061
123	0xbd753625	-0.05986609
124	0xbdabe45c	-0.083931655
125	0xbdd5c83d	-0.10438583
126	0xbd2d354b	-0.042287152
127	0xbd46d3f0	-0.048541963
128	0xbdb37dc3	-0.087642215
129	0x3dae538d	0.0851203
130	0xbd4adb59	-0.049525592
131	0xbcc98650	-0.024600178
132	0x3db73202	0.08945085
133	0xbd290408	-0.04126361
134	0x3d13e2b6	0.03610488
135	0xbd99dfb3	-0.0751337
136	0xbd1bdbb7	-0.038051333
137	0xbdb5ff89	-0.0888663
138	0xbd9a0d0a	-0.07522018
139	0xbc850e7e	-0.016242262
140	0xbb51165a	-0.0031904192
141	0xbda97d39	-0.082758375
142	0x3cbbb3ce	0.022912886
143	0xbd1f3d78	-0.03887698
144	0x3ddf4680	0.10902119
145	0xbd60aca4	-0.054852143
146	0x3de2b8d4	0.110704094
147	0x3dabca10	0.0838815
148	0x3dcd33e8	0.10019666
149	0x3d6c5d73	0.057706308
150	0x3b10ecd4	0.0022113817
151	0xbdd43b8a	-0.10362919
152	0xbc892152	-0.016739521
153	0xbd8ca495	-0.06867329
154	0x3d880ff2	0.06643666
155	0x3cf54a06	0.029942524
156	0xbd836794	-0.0641624
157	0xbd18644b	-0.03720502
158	0x3d918458	0.07105321
159	0xbd74fdc6	-0.05981233
160	0x3dcbe8d3	0.09956517
161	0xbcb16e18	-0.021658942
162	0x3d86d7cb	0.06584128
163	0x3dd1e713	0.10249152
164	0xbca03503	-0.019556528
165	0x3dba3524	0.09092167
166	0xbd919fba	-0.071105435
167	0x3d4f5ad6	0.050623737
168	0x3ddd155f	0.10795092
169	0x3d6a4fc3	0.057204973
170	0x3d817ef8	0.063230455
171	0xbd55a108	-0.052155524
172	0x3c91b69e	0.017787274
173	0xbd065db6	-0.032804213
174	0x3deb033e	0.11475228
175	0x3d4d993a	0.050194956
176	0x3d921945	0.07133726
177	0xbd22f2b2	-0.039782234
178	0x3e16e38b	0.14735238
179	0x3da5e52d	0.081003524
180	0x3cf7da23	0.030255383
181	0x3e39647e	0.18104741
182	0xbd97899a	-0.07399292
183	0xbde3ef92	-0.11129679
184	0x3ba67bc3	0.0050806715
185	0x3c7995a7	0.015233434
186	0xbdc471de	-0.09592031
187	0x3d02fc3a	0.031978823
188	0xbd34ee24	-0.04417242
189	0x3cf0943b	0.029367557
190	0x3d68414d	0.0567029
191	0x3d9e7942	0.07737972
192	0x3d761b15	0.06008442
193	0xbd21b937	-0.039483275
194	0x3dfa7d10	0.12230885
195	0x3c1eec63	0.009699914
196	0x3d99489c	0.07484552
197	0xbc912459	-0.017717527
198	0x3c8240de	0.015900072
199	0xbe296af4	-0.16544706
200	0xbd61dc64	-0.05514182
201	0x3d97c1c4	0.07410005
202	0x3c1476fe	0.009061573
203	0x3cf0ecab	0.029409727
204	0x3db16cad	0.086633064
205	0xbba66f54	-0.0050791893
206	0x3d96d793	0.07365336
207	0x3d88fa84	0.06688407
208	0x3e23da95	0.16001351
209	0x3e10b5be	0.14131829
210	0xbcd357ee	-0.025798764
211	0x3d24b64d	0.040212918
212	0x3deb9915	0.115038075
213	0x3de6df5c	0.11273071
214	0xbe231a44	-0.15927988
215	0xbd9925b1	-0.07477892
216	0x3e0a86c3	0.1352797
217	0x3db2763f	0.0871396
218	0xbd6bf669	-0.057608042
219	0x3d96ddfd	0.0736656
220	0xbc89c6df	-0.016818462
221	0xbd2175de	-0.039419048
222	0x3da7bdd8	0.08190507
223	0xbd146700	-0.03623104
224	0x3e3179dd	0.17331643
225	0x3e049209	0.12946333
226	0x3d3ea162	0.046540625
227	0xbde85f91	-0.11346353
228	0x3d3f23ec	0.046665117
229	0x3cf3f1ad	0.029778326
230	0xbe3d1886	-0.18466386
231	0xbe2cc83c	-0.16873258
232	0x3d09548c	0.033527896
233	0x3e1ded4e	0.15422556
234	0xbd8d3dd9	-0.06896562
235	0x3d038443	0.032108556
236	0x3cd66658	0.026171848
237	0xbdd17570	-0.102274776
238	0x3e38c5b3	0.18044166
239	0x3d8075df	0.06272482
240	0x3d7419ab	0.05959479
241	0x3dad6f47	0.0846849
242	0x3e2e4a57	0.17020546
243	0x3daca4cf	0.08429872
244	0x3d7d1a68	0.06179276
245	0x3c9e1fdb	0.0193023
246	0xbd64a319	-0.055819605
247	0x3d5670f9	0.052353833
248	0x3d8c6d1a	0.06856747
249	0x3d8aac0a	0.06771095
250	0x3c19d36e	0.009388788
251	0x3e0390a4	0.12848145
252	0xbc9ca8aa	-0.019123394
253	0x3a281d91	0.0006413097
254	0x3e054c1d	0.13017316
255	0xbd806bce	-0.06270562

sequential_2/conv2d_2/Conv2D f4 [64, 3, 3, 32]
0	0xbd54599c	-0.05184327
1	0xbd99b9d5	-0.07506148
2	0x3c7f32cd	0.015576077
3	0xbc18ac7f	-0.00931847
4	0xbd912c5b	-0.07088538
5	0x3d1a763c	0.037710413
6	0xbbca5288	-0.0061743893
7	0xbd8b96fa	-0.06815906
8	0x3d55a120	0.052155614
9	0x3d69ae54	0.057051018
10	0x3c255ffd	0.010093686
11	0xbcb1bc52	-0.021696243
12	0x3d4d9a9e	0.050196283
13	0xbd4d008b	-0.050049346
14	0xbd2f19fb	-0.042749386
15	0x3d91778c	0.0710288
16	0x3c888dfe	0.01666927
17	0xbc5f8db8	-0.013644628
18	0xbdb9d0ae	-0.090730056
19	0xbd99b238	-0.07504696
20	0x3d29c1a4	0.041444436
21	0x3ce6ea7f	0.028187988
22	0x3d0ea425	0.03482451
23	0xbd8f590a	-0.06999405
24	0x3ca8d77f	0.020610569
25	0x3d527e3a	0.05138991
26	0xbd93529a	-0.071934894
27	0x3c8afd82	0.016966585
28	0x3cab55a4	0.02091486
29	0x3d7ec30a	0.062197722
30	0xbdac2ec0	-0.08407354
31	0xbbcb37b2	-0.0062017078
32	0xbcad9e61	-0.021193685
33	0x3d783432	0.060596652
34	0xbcd6980c	-0.026195548
35	0x3d5bafa0	0.053634286
36	0x3d242b00	0.04008007
37	0xbd058dae	-0.03260582
38	0xbd84831d	-0.064703204
39	0xbdb24c5a	-0.08705969
40	0x3d91eded	0.07125459
41	0x3d8e949f	0.06961941
42	0xbc9bf03f	-0.019035457
43	0xbd2c6618	-0.04208955
44	0xbc6cd7db	-0.014455761
45	0x3d42fb49	0.047602925
46	0xbdc4ecad	-0.09615455
47	0xbd97cca7	-0.07412081
48	0x3c26b989	0.010176071
49	0xbcac3812	-0.02102283
50	0xbc676273	-0.014122593
51	0x3d50f634	0.051016048
52	0xbcfc21fa	-0.03077792
53	0x3c3204a2	0.010865362
54	0x3c04cf92	0.008106129
55	0x3bf2dc0c	0.0074114855
56	0xbd75c61d	-0.06000339
57	0x3d810c66	0.06301193
58	0x3ca3773b	0.019954314
59	0xbcfeefcd	-0.031120205
60	0x3d8dea0c	0.069294065
61	0xbd9708ec	-0.073747486
62	0xbc2564f2	-0.010094868
63	0xbd4f9be1	-0.050685767
64	0xbc87f26e	-0.016595092
65	0xbc6c0755	-0.014406045
66	0x3d79a8c1	0.060951952
67	0x3c6ea098	0.014564656
68	0xbd9afe01	-0.07567979
69	0x3d0a548f	0.033772048
70	0x3d3c9845	0.046043653
71	0x3d888891	0.06666673
72	0x3c912511	0.01771787
73	0xbce78b2e	-0.028264608
74	0x3d4acac9	0.049509797
75	0xbaa6e180	-0.0012731999
76	0x3d1d7bc9	0.03844813
77	0x3d9dc8a8	0.07704288
78	0xbd8b3393	-0.067969464
79	0xbd883e94	-0.06652561
80	0x3b2aafcb	0.0026044722
81	0xbd2afdde	-0.041746013
82	0xbd842822	-0.06452967
83	0x3d7c8b64	0.06165637
84	0x3c6b146c	0.014348131
85	0xbd52bb1e	-0.05144798
86	0xbd91604d	-0.07098446
87	0xbac44c99	-0.0014976441
88	0x3b9bba01	0.004752398
89	0x3d5782cb	0.05261497
90	0x3c37aafb	0.0112101985
91	0xbd3cf9d6	-0.0461367
92	0xbd0b209d	-0.03396665
93	0x3c9ea52b	0.019365868
94	0xbc2023e1	-0.009774179
95	0x3cbd6e5d	0.023123914
96	0x3d957451	0.07297576
97	0xbdaf2ea8	-0.08553821
98	0xbda157b5	-0.07878057
99	0xbd00eaf0	-0.031474054
100	0xbdbacaec	-0.091207355
101	0xbd429565	-0.047505755
102	0xbc028cbd	-0.007968125
103	0xbd5dbc53	-0.054134678
104	0xbb83db12	-0.004023918
105	0x3ca20fbe	0.019782897
106	0x3d4b15a3	0.04958118
107	0x3c307168	0.010769226
108	0xbd904e2d	-0.07046161
109	0xbd27ebea	-0.04099647
110	0xbd91d2d7	-0.07120293
111	0xbd52be89	-0.05145124
112	0x3c085866	0.008321857
113	0x3d459247	0.048235204
114	0xbd8bc2aa	-0.068242386
115	0x3d3da168	0.046296507
116	0xbcefe2bf	-0.029282926
117	0x3cf7b3f1	0.03023717
118	0x3d62291f	0.055214997
119	0xbcc00048	-0.023437634
120	0x3d8652d2	0.065587655
121	0xbd39b2e4	-0.04533662
122	0x3d1a1cfd	0.0376253
123	0x3c1788fb	0.009248967
124	0x3ce79ada	0.028272081
125	0x3d41615f	0.047212
126	0x3d80b9b0	0.06285417
127	0xbd753021	-0.059860352
128	0xbd4e1f75	-0.05032297
129	0xbda47547	-0.080301814
130	0xbd098296	-0.033571802
131	0xbd94fa90	-0.072743535
132	0xbdcc3740	-0.099714756
133	0x3d77cfe8	0.06050101
134	0xbd2aeb33	-0.04172821
135	0x3d52c119	0.051453684
136	0xbb8f2c80	-0.0043693185
137	0xbcc65f3f	-0.024215339
138	0xbd74edc3	-0.05979706
139	0x3caa4010	0.0207825
140	0xbd3aab6c	-0.045573637
141	0xbd410a33	-0.047128867
142	0x3d01faba	0.031733252
143	0x3d55c09d	0.052185643
144	0xbc10c764	-0.008836601
145	0xbd1ef06d	-0.038803507
146	0x3c4be528	0.012444772
147	0xbd993537	-0.07480853
148	0xbd8415d6	-0.064494774
149	0x3d8c72ce	0.06857835
150	0xbb16ac6f	-0.0022990962
151	0xbd30d73f	-0.043174025
152	0xbd80b3ed	-0.06284318
153	0xbcd993e7	-0.026559783
154	0xbcc160ec	-0.023605786
155	0x3cc74232	0.024323557
156	0xbd7792bd	-0.060442675
157	0xbdcdb77d	-0.10044763
158	0x3cb54bfb	0.022130957
159	0x3cb55eaa	0.022139866
160	0xbcc0e83c	-0.023548238
161	0x3c85cea0	0.016333878
162	0xbd07a94a	-0.03312043
163	0xbce897e6	-0.028392743
164	0x3cdce323	0.026963776
165	0xbcaba2f8	-0.020951733
166	0xbd171bb8	-0.03689167
167	0xbd351a08	-0.04421428
168	0xbcdb5135	-0.026772121
169	0x3cc8b4a2	0.024500195
170	0xbc75193f	-0.014959632
171	0x3d71c803	0.059028637
172	0x3d25f96a	0.040521063
173	0xbd15eff7	-0.0366058
174	0xbca661d9	-0.02031033
175	0xbbef7284	-0.0073073525
176	0x3cd2ccfd	0.025732512
177	0x3c97d5fa	0.01853465
178	0x3d3d4ee2	0.046217807
179	0x3c4d37a5	0.012525474
180	0xbdaddb3f	-0.084890835
181	0x3d448374	0.047976926
182	0xbd6ae16c	-0.057343885
183	0x3a853308	0.0010162303
184	0xbd8435a4	-0.06455544
185	0x3b11ae0c	0.0022228984
186	0x3d68e007	0.056854274
187	0x3d9d87a2	0.076918855
188	0x3c6e6524	0.014550481
189	0xbd915aef	-0.07097422
190	0x3d2b3cd9	0.041806076
191	0x3ca28665	0.019839475
192	0x3b806568	0.0039183386
193	0xbcd5e776	-0.026111346
194	0x3bff13a0	0.007784322
195	0xbcd66a86	-0.026173841
196	0x3b7a10d6	0.0038157008
197	0x3d886543	0.06659939
198	0xbd20831e	-0.039187543
199	0x3ce4cf89	0.027930992
200	0x3b728fa8	0.0037011895
201	0x3bc73729	0.0060795736
202	0x3d796186	0.06088402
203	0x3d5402e9	0.051760588
204	0xbca9d516	-0.02073149
205	0xbda915ef	-0.082561366
206	0x386693e2	5.4974e-05
207	0x3ab44d4d	0.0013755948
208	0xbd2d805c	-0.04235874
209	0x3d9385ee	0.072032794
210	0x3d8c859a	0.0686142
211	0x3d3c3ba2	0.045955308
212	0xbda2e9d6	-0.07954757
213	0x3d72d029	0.05928055
214	0xbc8a7a63	-0.016904062
215	0xbc5de5df	-0.013543575
216	0x3d3bff47	0.04589775
217	0x3d0bb0d3	0.03410418
218	0x3cc4eba2	0.02403814
219	0x3b682e15	0.0035427858
220	0xbc48ce21	-0.012256176
221	0xbd999776	-0.07499592
222	0xbdb11a63	-0.08647611
223	0x3d9a6145	0.07538084
224	0x3c2d9aba	0.010595972
225	0xbdb3ee75	-0.087857164
226	0xbc06ff0b	-0.008239518
227	0x3d5415ca	0.051778592
228	0xbd4690a7	-0.048477795
229	0x3d0d8b05	0.034556407
230	0xbda9f071	-0.08297814
231	0x3d812201	0.06305314
232	0xbd440c1b	-0.047863107
233	0xbd0fff08	-0.035155326
234	0x3d0d0172	0.034425206
235	0xbc7dcbf4	-0.015490521
236	0xbd2bcc03	-0.041942608
237	0x3d2dffdf	0.042480346
238	0x3cd6bdcf	0.026213555
239	0x3c3dbeb7	0.0115811145
240	0xbd8368ee	-0.06416498
241	0x3caa99d4	0.020825304
242	0xbc329441	-0.010899604
243	0x3cc0f7ff	0.023555754
244	0x3c9dee1c	0.019278578
245	0xbd672e9a	-0.056440927
246	0xbda849bf	-0.08217191
247	0x3cd0acc3	0.025473004
248	0xbc5a521d	-0.013325241
249	0xb98ce5fe	-0.00026874238
250	0xbda1481d	-0.07875083
251	0xbd7856ad	-0.060629535
252	0x3d52772a	0.051383175
253	0x3d35c327	0.044375565
254	0x3d885d59	0.0665843
255	0x3d398977	0.045297112

sequential_2/dense_1/BiasAdd/ReadVariableOp f4 [61]
0	0x3c5bb5a4	0.013410006
1	0xbb990115	-0.0046693184
2	0x3a8712f1	0.0010305328
3	0xbbad095d	-0.005280657
4	0x3c108e59	0.008823001
5	0xbc840586	-0.016115915
6	0xbd11666f	-0.03549808
7	0x3d16c65a	0.036810257
8	0xbc9f59bf	-0.019451974
9	0x3d0a730f	0.033801135
10	0x3c7a88f0	0.0152914375
11	0xbd93c749	-0.07215745
12	0xbb3053f3	-0.0026905506
13	0x3d40859c	0.04700242
14	0xbb6cb582	-0.003611893
15	0xbd662b67	-0.056193735
16	0xbd0f03fe	-0.034915917
17	0x3c90e269	0.017686086
18	0xbd16a876	-0.03678175
19	0xbcb40f50	-0.021979958
20	0x3cf998a1	0.030468287
21	0x3dab8dcc	0.08376655
22	0x3d08790f	0.033318575
23	0x3c3ada1a	0.0114045385
24	0x3d4cb9be	0.049981825
25	0xbc2d8256	-0.010590157
26	0x3d63cb9a	0.05561409
27	0x3c5bdd1a	0.013419414
28	0xbce78953	-0.028263723
29	0x3c486601	0.012231351
30	0x3aafc116	0.0013408985
31	0xbab4b297	-0.0013786134
32	0x3d07a52e	0.033116512
33	0xbbe396b9	-0.006945458
34	0x3cc8c8d6	0.024509829
35	0x3ca9987e	0.020702597
36	0x3b6ec396	0.0036432496
37	0xbc779624	-0.01511148
38	0xbcd672cf	-0.026177792
39	0xbb04940e	-0.002022985
40	0xbcc1d17c	-0.02365946
41	0x3b1fb6e4	0.0024370486
42	0xbc80b5d2	-0.015711699
43	0x3cf9d839	0.03049861
44	0x3c65111d	0.013981131
45	0x3b852c41	0.0040641134
46	0xbd692c98	-0.056927294
47	0xbd11756b	-0.03551237
48	0x3c808f2c	0.01569327
49	0xbcb73c33	-0.022367572
50	0xbcf77bcd	-0.0302104
51	0x3b9e62ac	0.00483354
52	0x3ce1d523	0.027567452
53	0xbd4763f1	-0.048679296
54	0x3d227d14	0.039670065
55	0xba0f4b4d	-0.0005466238
56	0xbb629d5f	-0.0034578664
57	0xbc07857b	-0.00827157
58	0xbb64425b	-0.003482959
59	0x3bc17e61	0.005904958
60	0xbd82aa16	-0.063800976

sequential_2/dense/BiasAdd/ReadVariableOp f4 [128]
0	0xbc267852	-0.010160523
1	0x39009473	0.00012262333
2	0xbc20b969	-0.00980983
3	0xbc013db2	-0.007888244
4	0xbc7525a9	-0.014962592
5	0xbc64a4c3	-0.013955298
6	0xbc897d06	-0.016783249
7	0xbbff900c	-0.007799154
8	0xbc2e1cdb	-0.010626997
9	0xbc9574f2	-0.01824424
10	0x3d5a56ba	0.053305365
11	0xbbe1541a	-0.0068764808
12	0xbbcfe0e6	-0.0063439487
13	0xbc457cd5	-0.012053688
14	0x3b6dfae9	0.0036312884
15	0xbc2cb6f4	-0.010541666
16	0x3ccf6880	0.025318384
17	0xbbff6db2	-0.007795059
18	0xbbb90d43	-0.005647333
19	0xbc5700b9	-0.013122731
20	0x3c661bce	0.014044715
21	0xbccea9af	-0.025227396
22	0xbc400461	-0.011719794
23	0x3b492732	0.0030693528
24	0x3c9ab864	0.018886752
25	0xbc9c1f49	-0.019057887
26	0xbccbc584	-0.024874456
27	0x3c4dcef0	0.012561545
28	0xbc5eddfc	-0.01360273
29	0xbd4566c6	-0.048193716
30	0x3d01c3b0	0.031680763
31	0x3d11d9b4	0.03560801
32	0x3d40e0e4	0.047089472
33	0x3d17a33e	0.037020914
34	0xbc801761	-0.015636148
35	0x3d4c6492	0.0499006
36	0xbc1eeef5	-0.0097005265
37	0x3d7111ff	0.058855053
38	0xbc638050	-0.013885573
39	0x3d731ead	0.059355427
40	0x3d38a249	0.045076642
41	0xbc0d4bec	-0.008624058
42	0xbc56f00f	-0.013118758
43	0xbc7bd692	-0.015370982
44	0xbc195671	-0.009358988
45	0x3cb09f1e	0.021560248
46	0x3cb96fcd	0.022636319
47	0x00000000	0.0
48	0x3c723db2	0.014785217
49	0xbc5b7ad5	-0.013395985
50	0xbb95875c	-0.0045632552
51	0x3d079009	0.033096347
52	0x3d746836	0.059669696
53	0xbcd83827	-0.026393963
54	0x00000000	0.0
55	0xbcb32b8a	-0.021871347
56	0xbcddf13d	-0.02709257
57	0x3d031ae5	0.03200807
58	0xbc387629	-0.01125864
59	0x3d323eb9	0.04351685
60	0xbc044ce9	-0.008074977
61	0x3c260b7c	0.010134574
62	0x3cfffb30	0.031247705
63	0xbb98fe54	-0.00466899
64	0x3b75a93a	0.00374849
65	0xbc858e53	-0.016303217
66	0x3b9deb6f	0.0048193256
67	0xbb0e9d67	-0.00217613
68	0x3ca79ff1	0.020462008
69	0xbc8364f4	-0.01603935
70	0xbde52467	-0.11188584
71	0xbd2eb6c7	-0.04265478
72	0xbbaf24eb	-0.005344977
73	0xbbb5cd3c	-0.0055481475
74	0x3d05b6f3	0.032645177
75	0xbb8220e9	-0.0039712084
76	0xbcadf4ca	-0.021234889
77	0xbd1b8223	-0.037965905
78	0xbc18faaf	-0.009337111
79	0x3a5d708e	0.0008447253
80	0xbbe2fa27	-0.006926793
81	0x3cac4774	0.021030165
82	0xbbde51a0	-0.006784633
83	0xbc89cfb8	-0.01682268
84	0xbb111293	-0.0022136315
85	0xbc564865	-0.013078784
86	0xbc62be93	-0.013839382
87	0xbc1a36f0	-0.009412512
88	0xbbc4bb67	-0.0060037854
89	0xbc066017	-0.008201621
90	0xbc704784	-0.014665488
91	0x3c850ea9	0.016242342
92	0x3cf9d655	0.03049771
93	0xbbe5e90c	-0.0070163067
94	0xbc3bbf4f	-0.011459186
95	0x3bd00544	0.006348284
96	0xbc8e61ab	-0.017380556
97	0xbc815c58	-0.015791103
98	0xbc85befc	-0.01632642
99	0xbd5931da	-0.053026058
100	0x3d2abefd	0.041686047
101	0xbbc4c456	-0.0060048504
102	0xbc3d8d96	-0.011569401
103	0xbbf48a04	-0.007462742
104	0xbbe9e6f8	-0.0071381293
105	0xbc996346	-0.018724095
106	0xbc5cde91	-0.013480798
107	0xbade2481	-0.0016948135
108	0xbc30d78b	-0.010793577
109	0xbd725a62	-0.059168227
110	0xbc15ffa2	-0.009155186
111	0x3c58a945	0.013223951
112	0xbb65ec30	-0.0035083406
113	0xbbfa0574	-0.0076300446
114	0xbc4c7dab	-0.012481133
115	0xbc39776b	-0.011319975
116	0xbbc4b7c1	-0.0060033505
117	0xbcd418f8	-0.025890812
118	0x3d0c7542	0.034291513
119	0xbc0b21b4	-0.008491922
120	0xbbc4bdbe	-0.0060040643
121	0xbb350b4d	-0.0027625144
122	0xbc0d3877	-0.008619419
123	0xbba5e72d	-0.0050629587
124	0x3bc9fdff	0.006164312
125	0x3d6f5e88	0.05843976
126	0xbc191937	-0.009344391
127	0xbd8bfd15	-0.06835381

sequential_2/sequential/batch_normalization/FusedBatchNormV3 f4 [3]
0	0x3ce27ac4	0.02764643
1	0x3cd324a2	0.025774304
2	0x3cd3428a	0.025788564

sequential_2/sequential/batch_normalization/FusedBatchNormV31 f4 [3]
0	0xbfe77854	-1.8083596
1	0xbfcf2fc8	-1.6186457
2	0xbfea004d	-1.8281342

sequential_2/dense/MatMul f4 [128, 768]
0	0xbd846f8c	-0.064665884
1	0x3c7557a5	0.014974509
2	0x3bb937ab	0.005652388
3	0xbdb21eae	-0.08697258
4	0xbdbbbd8d	-0.09167013
5	0xbda21a92	-0.07915224
6	0xbd030928	-0.031991154
7	0x3d661e89	0.056181464
8	0xbcaa12d3	-0.02076093
9	0x3c12b1a3	0.008953485
10	0xbda91b37	-0.08257144
11	0xbca1838b	-0.019716045
12	0xbd5d528d	-0.054033805
13	0xbbb68fbf	-0.005571335
14	0xbd673234	-0.05644436
15	0x3cc29a64	0.02375526
16	0x3d3e74f4	0.046498254
17	0x3d54a4b6	0.051914893
18	0x3cf66996	0.030079644
19	0xbcc7f674	-0.02440951
20	0x3cce2267	0.025162889
21	0xbcc90673	-0.024539208
22	0x3b5c7238	0.0033637416
23	0xbdc3dad0	-0.095632195
24	0x3ce0cd81	0.027441742
25	0x3d0a7712	0.03380496
26	0xbd9c8636	-0.07642786
27	0xbdbd13ba	-0.09232278
28	0xbd947118	-0.072481334
29	0xbd88dbb6	-0.066825315
30	0xbbc91050	-0.006135978
31	0xbc7fcbba	-0.015612537
32	0xbd9b3da4	-0.075801164
33	0x3d124507	0.03571036
34	0x3d559152	0.05214054
35	0x3d757cbe	0.059933417
36	0xbd1c1911	-0.038109843
37	0xbcaac4f8	-0.020845875
38	0x3d546c54	0.051861122
39	0xbcd8d263	-0.026467508
40	0x3cc17e75	0.02361987
41	0x3d34c46b	0.04413263
42	0x3d407dfd	0.04699515
43	0xbd9ba298	-0.07599372
44	0xbd9a7bda	-0.07543154
45	0xbd6154fd	-0.05501269
46	0x3d67e431	0.056614105
47	0xbd366a49	-0.044534955
48	0xbd8f8f12	-0.0700971
49	0x3d326539	0.043553565
50	0xbd7c6748	-0.061621934
51	0x3d80c187	0.062869124
52	0xbbbcd4bc	-0.0057626646
53	0xbda6513f	-0.08120965
54	0xbbbc8498	-0.005753111
55	0xbd2801a7	-0.0410172
56	0xbd29adb2	-0.041425414
57	0xbcafa436	-0.021440607
58	0xbd860cac	-0.06545386
59	0xbc09dcbe	-0.008414445
60	0x3d5e30f0	0.05424589
61	0xbc9a2c95	-0.018820086
62	0xbd3d4712	-0.046210356
63	0xbc9938e4	-0.018703885
64	0xbca729f5	-0.020405749
65	0xbd6d692b	-0.057961624
66	0x3a92cb45	0.0011199495
67	0xbd5cee12	-0.05393798
68	0xbbc5fd51	-0.0060421606
69	0xbd7eea1d	-0.062234987
70	0xbd9e39a9	-0.077258416
71	0x3d012fd9	0.03153977
72	0x3d9a699b	0.07539674
73	0x3d7193ad	0.058978725
74	0xbdac22c4	-0.084050685
75	0xbd5655a0	-0.052327752
76	0x3d293524	0.041310444
77	0xbd34933b	-0.044085722
78	0x3d1ab03f	0.037765738
79	0xbd7a3e26	-0.061094426
80	0x3cfeb64c	0.031092785
81	0x3d45ec41	0.048321012
82	0x3cdc5d13	0.02689985
83	0xbdca1873	-0.098679446
84	0x3bc03ac7	0.005866382
85	0xbdb5b7b9	-0.08872933
86	0x3a97673d	0.0011551153
87	0x3d4f2fb3	0.0505826
88	0xbd51d738	-0.05123064
89	0x3d3fa315	0.046786387
90	0x3d172e02	0.03690911
91	0xbd4522f9	-0.048129056
92	0x3d263d1e	0.04058563
93	0x3c9c2f4e	0.019065525
94	0xbd2215b0	-0.039571464
95	0x3d9d0160	0.07666278
96	0x3d73a6e1	0.05948532
97	0xbd3f56e2	-0.046713717
98	0xbc941ae8	-0.018079236
99	0x3d829168	0.0637539
100	0xbdc5cc09	-0.09658057
101	0xbd4650d4	-0.048416927
102	0xbc534b1c	-0.012896325
103	0xbd955dc8	-0.07293278
104	0xbb4f9281	-0.0031673016
105	0x3d17bf14	0.03704746
106	0x3d406e36	0.046980105
107	0xbd3a9216	-0.045549475
108	0xbc291dc0	-0.010322034
109	0xbcc11efe	-0.023574349
110	0xbd98d92a	-0.07463296
111	0xbc97d855	-0.018535772
112	0xbd84c073	-0.06482019
113	0xbd2042db	-0.03912626
114	0xbd992d7f	-0.07479381
115	0xbd9b303b	-0.075775586
116	0x3b65f6d1	0.003508974
117	0x3c821524	0.015879221
118	0xbd61166d	-0.054953028
119	0x3c6fa738	0.01462727
120	0xbb971ef5	-0.0046118447
121	0xbd7c6534	-0.061619952
122	0x3c84fd18	0.016233966
123	0xbcdb9de0	-0.02680868
124	0x3d9ac655	0.0755736
125	0x3cb58fa8	0.022163227
126	0xbc9d1531	-0.019175144
127	0xbd61ca24	-0.055124417
128	0xbc2a6d92	-0.0104021
129	0x3d504048	0.050842553
130	0xbd292d94	-0.041303232
131	0xbd93cbbc	-0.072165936
132	0x3d0a5147	0.03376892
133	0x3bda6fb3	0.0066661476
134	0x3cd6222a	0.026139338
135	0xbda05df0	-0.07830417
136	0xbd346f83	-0.04405166
137	0xbd4345a1	-0.047673825
138	0x3c136f50	0.008998707
139	0xbd8cc28d	-0.06873045
140	0xbc28ca09	-0.010302075
141	0xbd80214d	-0.062563516
142	0x3d855842	0.065109745
143	0xbcd55186	-0.02603985
144	0xbcdaeba4	-0.02672369
145	0x3ce2f8a4	0.027706452
146	0xbd2ff57f	-0.042958733
147	0xbd29d8f4	-0.04146667
148	0x3cd1ac42	0.025594834
149	0x3d65a591	0.0560661
150	0xbd929ca5	-0.07158784
151	0xbce745e8	-0.028231576
152	0xbcc47108	-0.023979679
153	0xbc3f5606	-0.011678224
154	0xbdac8abe	-0.084249005
155	0xbc36e13d	-0.011162099
156	0xbdb31ea4	-0.087460786
157	0xbca068c9	-0.019581215
158	0xbc53b5a0	-0.012921721
159	0x3d477c72	0.048702665
160	0xbda35c6d	-0.07976613
161	0x3c5a524f	0.013325288
162	0x3d4eaa87	0.050455596
163	0x3c77e0a4	0.015129242
164	0x3ca80c80	0.020513773
165	0x3cd90fc3	0.026496774
166	0xbc8aa034	-0.016922094
167	0x3c0a9567	0.008458472
168	0x3d41b1ac	0.04728858
169	0xbc46d1c5	-0.012134974
170	0xbd970332	-0.07373656
171	0x3d6042f9	0.05475137
172	0x3cf9c3e7	0.030488921
173	0xbdbf2f2a	-0.09335168
174	0xbcb8814b	-0.02252259
175	0xbd7ed046	-0.062210344
176	0xbdbd28ac	-0.09236273
177	0x3d2e9fec	0.042632982
178	0xbdb70734	-0.08936921
179	0x3d4b4ea1	0.049635533
180	0xbdaef12d	-0.085420944
181	0x3ba96e00	0.0051705837
182	0xbcc89353	-0.024484312
183	0xbc3afaa0	-0.011412293
184	0x3d6f2750	0.0583871
185	0x3cc685f1	0.02423379
186	0xbd11a7c7	-0.035560396
187	0xbd3bd272	-0.045854993
188	0xbd80acde	-0.06282972
189	0xbda14ee8	-0.07876378
190	0x3d2060a0	0.03915465
191	0xbda4f213	-0.080539845
192	0xbb660260	-0.003509663
193	0x3b9a96d0	0.0047176853
194	0xbd9c3d4a	-0.076288775
195	0xbdba23f3	-0.09088888
196	0xbc071074	-0.008243669
197	0x3b94c4f0	0.0045400783
198	0xbd834424	-0.06409481
199	0xbcf3dec4	-0.029769309
200	0xbcd1a0c5	-0.025589356
201	0x3d196c77	0.037456956
202	0xbc72f185	-0.014828091
203	0x3d76984f	0.060203847
204	0x3c87fe8b	0.016600868
205	0x3d80de7a	0.06292434
206	0xbd82e835	-0.06391946
207	0x3d4efd1a	0.050534345
208	0xbd9c10a8	-0.076203644
209	0xbd9399a4	-0.07207039
210	0xbcad7aa4	-0.021176644
211	0xbbcbfd0a	-0.006225233
212	0x3ccefeb6	0.02526794
213	0x3ce1fd8b	0.027586719
214	0x3d12826a	0.035768904
215	0x3d7cb2fa	0.061694123
216	0xbaf560bf	-0.0018720849
217	0xbdaf6336	-0.08563845
218	0xbcb63c54	-0.022245564
219	0xbd1a9bc5	-0.03774621
220	0xbcff7c59	-0.031187223
221	0x3cf6b03b	0.03011333
222	0xbcf4e682	-0.029895071
223	0xbda8ee71	-0.08248604
224	0x3d91cd80	0.07119274
225	0xbd2b3f90	-0.041808665
226	0x3d269e05	0.040678043
227	0xbc4a9f6a	-0.012367109
228	0xbd48f943	-0.04906584
229	0xbce6a4e5	-0.0281548
230	0x3c00b6e2	0.007856103
231	0xbccfde9e	-0.025374707
232	0x3d83b20d	0.06430445
233	0x3d2776c8	0.040884763
234	0xbcbf3be0	-0.02334398
235	0x3d075d54	0.03304799
236	0xbda61acc	-0.0811058
237	0xbdb80718	-0.08985728
238	0xbd02862e	-0.031866245
239	0xbd99f3d8	-0.07517213
240	0x3c86987e	0.016430136
241	0x3cb227a1	0.021747412
242	0x3bddabaf	0.006764851
243	0xbcad70c6	-0.021171939
244	0xbdaaf67c	-0.083477944
245	0x3d5273cb	0.05137996
246	0x3cc6e17f	0.024277447
247	0xbd881732	-0.06645049
248	0xbd153834	-0.036430553
249	0xbd58efb4	-0.052962974
250	0xbdbb8ae3	-0.0915735
251	0x3c08ee51	0.0083576
252	0x3ce90e3c	0.02844917
253	0x3c12a914	0.008951444
254	0x3c33feaa	0.01098601
255	0xbcc8c6a5	-0.024508784

sequential_2/dense_1/MatMul f4 [61, 128]
0	0x3d929418	0.07157153
1	0xbdbb8b1a	-0.09157391
2	0xbe19ef37	-0.1503266
3	0xbd9bc219	-0.076053806
4	0x3d908f64	0.070585996
5	0xbdd72674	-0.10505381
6	0x3d01a332	0.031649776
7	0xbe0f6da3	-0.14006667
8	0x3e013bcb	0.12620465
9	0x3d3efd72	0.046628423
10	0xbe1656d2	-0.14681557
11	0xbd7ccca8	-0.061718613
12	0x3e2247e0	0.1584773
13	0xbcccc562	-0.024996463
14	0xbe2e762c	-0.17037266
15	0x3d6dba5a	0.058039047
16	0xbdaaee3f	-0.08346223
17	0x3e0bf1fe	0.13666531
18	0x3cad9ea3	0.021193808
19	0xbe3ca9b8	-0.18424118
20	0xbd940dde	-0.072292075
21	0xbdb83fb9	-0.08996529
22	0x3d233e26	0.03985419
23	0xbe219799	-0.15780486
24	0xbda86644	-0.082226306
25	0x3e11070e	0.14162847
26	0x3df51426	0.11966734
27	0xbe2fb0e6	-0.17157325
28	0x3c9afb75	0.018918732
29	0xbb875398	-0.004129838
30	0xbed13608	-0.40861535
31	0x3db875d8	0.09006852
32	0x3e69e5b2	0.22841528
33	0xbc1b045f	-0.009461491
34	0xbb8a9d01	-0.004230142
35	0x3c51719d	0.012783435
36	0xbe0a1c35	-0.13487323
37	0xbd3c5295	-0.045977194
38	0xbe02d953	-0.12778215
39	0xbe9271e1	-0.28602508
40	0x3e090416	0.13380465
41	0xbd1f66af	-0.038916286
42	0x3ce59953	0.028027212
43	0xbd9efb7d	-0.07762811
44	0xbc37997d	-0.011206028
45	0xbecdc686	-0.40190524
46	0x3d5fc219	0.054628465
47	0xbe15d1b4	-0.14630777
48	0xbe04defe	-0.1297569
49	0x3e73662d	0.23769446
50	0xbdcad5a2	-0.099040285
51	0x3e129205	0.14313515
52	0xbef29a00	-0.47383118
53	0x3da5aadd	0.0808923
54	0x3cefd230	0.02927503
55	0xbdc30260	-0.09521937
56	0xbeef7a5f	-0.4677305
57	0xbdad3991	-0.084582455
58	0xbe1509be	-0.14554498
59	0x3e45c8c1	0.19314863
60	0x3db2a55b	0.08722945
61	0xbeb6e6de	-0.35723013
62	0x3e1bf414	0.15229827
63	0x3dcb560a	0.0992852
64	0x3de42718	0.11140269
65	0xbd7d2cb4	-0.06181021
66	0x3de7753f	0.1130166
67	0x3e103ee5	0.14086492
68	0xbf124cc3	-0.5714838
69	0xbe04a9f5	-0.12955458
70	0x3e008431	0.12550427
71	0xbef6eb7f	-0.48226544
72	0xbdb84b74	-0.089987665
73	0xbd3f41ea	-0.04669372
74	0xbe1642b8	-0.14673889
75	0x3de68029	0.11254913
76	0xbe0d2d5a	-0.13786831
77	0x3c529b0f	0.012854352
78	0x3e3268c5	0.17422779
79	0x3d68de41	0.056852583
80	0x3df66f83	0.12032988
81	0xbe3b6226	-0.1829916
82	0xbc0ab506	-0.008466011
83	0xbd336ebe	-0.043806784
84	0xbbd3e5b8	-0.0064665936
85	0xbda5ed52	-0.08101906
86	0xbd8d8263	-0.06909635
87	0xbe14d422	-0.14534047
88	0xbe27c1fc	-0.16382593
89	0xbd156a80	-0.03647852
90	0x3d5b5534	0.053548053
91	0x3dc1e4ee	0.09467493
92	0x3ddf93c1	0.10916854
93	0xbe0e47c8	-0.1389457
94	0x3dbe43a9	0.09290249
95	0xbed463ab	-0.4148229
96	0xbdb0dbda	-0.08635683
97	0xbdaf1a31	-0.085499175
98	0xbd8c4944	-0.06849912
99	0xbdd0db61	-0.10198093
100	0xbd42eb97	-0.047587957
101	0x3dd3b82a	0.10337861
102	0xbb84c792	-0.004052111
103	0xbe105803	-0.14096074
104	0xbe0d4668	-0.13796389
105	0x3e050531	0.12990262
106	0x3d850797	0.06495588
107	0xbda84d2a	-0.08217843
108	0xbe0bba02	-0.13645175
109	0xbcddacc8	-0.027059928
110	0xbdd339b0	-0.103137374
111	0x3cc597bc	0.024120204
112	0x3db0e03f	0.086365215
113	0x3d60accb	0.05485229
114	0x3c34a104	0.011024717
115	0x3d2ca3dc	0.042148456
116	0x3e0d494f	0.13797496
117	0x3df1c950	0.118059754
118	0xbd818667	-0.06324463
119	0xbe1bee84	-0.15227705
120	0x3d26712e	0.04063528
121	0x3b96f96a	0.004607369
122	0x3da11ca6	0.078667924
123	0x3d90806e	0.07055746
124	0x3e342ea8	0.17595923
125	0xbdb4dbf4	-0.08831015
126	0xbdb9fb7c	-0.0908117
127	0xba71262c	-0.00091991085
128	0xbd83dc9f	-0.064385645
129	0x3dd9044d	0.105965234
130	0x3d037fd4	0.03210433
131	0xbdbf2361	-0.0933292
132	0xbdba09c7	-0.09083896
133	0xbca5ad01	-0.020224096
134	0x3d6bb6e8	0.05754748
135	0x3d1b0fde	0.03785693
136	0x3d6d8b8a	0.057994403
137	0x3d38a058	0.04507479
138	0x3e0b6dc4	0.13616091
139	0xbe07f0fb	-0.1327552
140	0xbd726c67	-0.05918541
141	0x3d9fbcf2	0.0779971
142	0xbc7e2609	-0.015511998
143	0x3dd46690	0.10371125
144	0x3ce6da79	0.028180348
145	0xbad17cef	-0.0015982668
146	0x3c937eec	0.018004857
147	0xbd93a375	-0.07208911
148	0xbe03da42	-0.12876227
149	0x3d52e550	0.05148822
150	0x3cb0a999	0.021565245
151	0xbcca7cb9	-0.024717676
152	0xbd2d1875	-0.042259652
153	0x3d38f78a	0.045157947
154	0xbd8e6336	-0.06952517
155	0xbde85e44	-0.11346105
156	0x3e0d2bd4	0.1378625
157	0xbde68e82	-0.1125765
158	0x3e2b2104	0.16711813
159	0xbe66acc2	-0.2252684
160	0x3c803b80	0.015653372
161	0xbe2959d0	-0.16538167
162	0x3de74615	0.11292664
163	0xbe5556cd	-0.20833893
164	0x3d926051	0.07147277
165	0xbd932373	-0.07184496
166	0xbc5c6b16	-0.013453266
167	0x3d828378	0.06372732
168	0xbe704e40	-0.2346735
169	0xbdd7b588	-0.10532671
170	0x3d46d84d	0.048546124
171	0xbe4e1a95	-0.20127328
172	0x3bffa0ca	0.00780115
173	0xbd8cb4cd	-0.068704225
174	0x3d94731d	0.072485186
175	0xbe33dc03	-0.17564397
176	0x3e4129b0	0.18863559
177	0xbe64efab	-0.22357051
178	0xbe3ab4ef	-0.18233083
179	0xbe434761	-0.19070198
180	0x3de88436	0.11353342
181	0xbdee9450	-0.11649382
182	0x3d9756c4	0.07389596
183	0xbd841b9e	-0.0645058
184	0x3db23f7d	0.08703516
185	0xbe08be49	-0.13353838
186	0xbc588e94	-0.013217587
187	0x3bdf33b0	0.0068115816
188	0xbe039104	-0.12848288
189	0xbbac1b33	-0.005252266
190	0xbe067472	-0.13130358
191	0x3d6438d4	0.055718258
192	0xbd8c0d9a	-0.06838532
193	0xbd45af76	-0.048263036
194	0x3d901a6a	0.07036288
195	0xbe4560f4	-0.19275266
196	0x3e7361f7	0.2376784
197	0xbd9d88e9	-0.07692129
198	0x3d0cad64	0.034345046
199	0xbd74b624	-0.059744015
200	0x3e277b95	0.16355737
201	0x3d1481d7	0.036256637
202	0xbe833bc0	-0.25631523
203	0xbd768e50	-0.060194314
204	0x3d1d9902	0.038475998
205	0xbd2cad67	-0.042157557
206	0xbd41ab1a	-0.047282316
207	0x3c82f3aa	0.015985329
208	0x3e15b9b0	0.14621615
209	0x3d872384	0.06598571
210	0x3d810550	0.062998414
211	0x3dfc9e36	0.12334864
212	0xbe08291c	-0.13296932
213	0xbc4b92bd	-0.012425122
214	0xbc7b40c4	-0.015335266
215	0xbdeaae04	-0.11458972
216	0x3d88f6cc	0.06687698
217	0xbe8510ea	-0.25989467
218	0x3de2e500	0.110788345
219	0x3d9c1260	0.07620692
220	0xbe0f9798	-0.14022672
221	0x3dadd839	0.08488507
222	0x3d08e2a4	0.033419266
223	0xbe0d8444	-0.13819987
224	0xbdab9a15	-0.08378998
225	0x3e299115	0.1655925
226	0xbe423cca	-0.18968502
227	0x3c884d7d	0.016638512
228	0xbea48c81	-0.32138446
229	0x3d9c70ba	0.076386884
230	0xbd704d47	-0.058667447
231	0x3da9d6a9	0.08292896
232	0xbcc92725	-0.024554798
233	0x3dcfa8cf	0.101396196
234	0x3d34c4a2	0.044132836
235	0x3da46d4a	0.08028658
236	0xbdb041d3	-0.08606305
237	0xbe54b4ab	-0.20772044
238	0x3ba82509	0.005131368
239	0xbd7ce0c3	-0.061737787
240	0x3dcb3062	0.09921338
241	0xbcec24bf	-0.028826116
242	0x3e17e7f9	0.14834584
243	0xbde9895b	-0.114031516
244	0xbd0558fc	-0.032555565
245	0xbc8c94d5	-0.017160812
246	0xbe9f86b6	-0.31157464
247	0x3e30bcb4	0.17259485
248	0x3d5d7be6	0.054073237
249	0xbc9073bc	-0.017633311
250	0x3e25ef24	0.16204506
251	0x3be9c030	0.0071335062
252	0xbd9e4b54	-0.077292114
253	0x3cf35a2f	0.029706089
254	0xbde46dcd	-0.11153755
255	0x3d20c5dd	0.039251197
